saved/classifier_base_gru_smart_watch_20_120/limu_gru_v1.pt (torch, 40432 bytes, 14 tensors)

gru0.weight_ih_l0 f4 [60, 72]
-0.17904331 -0.2669431 -0.17877667 -0.00868346 -0.33883646 -0.7796069 -0.3281589 0.19343644
0.04528076 -0.4834802 0.23386508 -0.04378244 -0.12622374 -0.16509798 0.016686214 -0.0561078
0.12946318 0.24929129 -0.0806886 0.21275818 -0.0020889337 -0.04700737 0.04946668 0.9139522
-0.10407816 -0.0785793 0.20144871 -0.08009801 0.29065245 0.19751571 -0.12463132 -0.14506587
-0.3476563 0.20896344 -0.12182188 0.030752396 -0.14295089 -0.28906247 -0.022817979 0.18872036
0.08706054 -0.018871542 0.393475 0.0058491514 -0.117176406 0.36908334 0.06948876 0.023014499
-0.21325952 0.24860628 0.18685688 0.21323104 0.11660228 0.25759155 0.048887383 -0.25182346
0.28766307 -0.33502606 -0.2517702 0.044362944 0.0063887164 -0.0892086 0.3190921 0.06491455
0.025382608 0.20294684 0.058613062 -0.0027102295 -0.03947838 0.15425353 -0.06844663 -0.029347941
0.24923535 -0.08701363 0.13525239 0.26815313 -0.43651605 0.30443686 0.077772066 0.2890052
0.1491627 -0.047492422 -0.0884104 -0.5584472 0.092825875 -0.034433123 0.27165675 0.29784745
0.15403377 -0.07451588 -0.12859602 -0.20858833 0.19384022 -0.14452283 0.21235615 -0.066008136
-0.24435829 0.36201042 -0.16668333 -0.2714333 0.041982353 -0.1693163 -0.02250948 -0.16610815
-0.18663609 0.2607217 0.00028908547 -0.21494825 0.052572045 -0.26166975 0.0090486985 -0.05590267
0.2520712 -0.38476592 0.12560427 -0.044534612 -0.017614616 0.2097994 -0.114229046 -0.001446626
0.17378673 0.20681365 -0.14446603 -0.1690861 0.016970461 -0.029367689 0.022390567 -0.23845662
0.11200103 0.14758165 -0.06694447 -0.20776317 0.21517326 -0.7693392 0.13129334 0.00442489
-0.11209968 0.0027780705 -0.059305664 -0.46699643 0.3022453 -0.09189573 0.10834576 0.2327021
-0.010581884 0.201328 -0.18911512 0.15222883 -0.09692973 0.0004972599 -0.14997719 -0.12766546
0.038014714 0.034888417 0.032053415 0.2875924 -0.2186448 0.38332722 0.16820212 -0.055983912
-0.30000958 0.15296893 -0.14047411 0.0043974356 0.1305704 0.09948263 0.12465701 0.1266238
0.021082528 0.049658682 0.35808226 0.09672478 -0.23758644 -0.37652144 -0.24328493 -0.11139233
0.010216562 -0.07881989 -0.1213143 0.34920272 0.20343944 -0.114099905 -0.11459284 -0.032912374
0.16742612 -0.29813975 -0.3142585 -0.27278006 0.2674854 0.28897277 -0.24818909 -0.1886865
-0.03272708 -0.21555148 0.19919637 -0.3194187 0.21739995 -0.3923268 0.2132202 0.356499
-0.15249427 -0.10984162 -0.17804599 -0.45018598 0.19837968 0.19493721 -0.34867904 -0.13636324
0.65339 0.09341076 0.024172982 0.1765183 0.07239845 0.1497354 0.016786154 -0.09420679
-0.009166964 -0.044164985 0.20952038 0.19923143 -0.007425493 0.22351164 0.070304476 -0.15861829
0.023785254 -0.07011919 -0.00425075 0.022886645 -0.12465205 -0.07808052 0.21854573 -0.1638384
-0.04343402 0.10745512 -0.089474745 -0.063038595 -0.033880673 0.48043242 -0.1320152 0.14163417
-0.27317846 0.07058372 -0.18871816 -0.28987443 -0.033328556 -0.1502963 -0.30789804 0.11430685
0.1400635 0.15496443 0.11764788 0.048059586 -0.22926743 0.20800659 0.17770347 0.086214244
00000000: 2157 37be c4ac 88be 3b11 37be 1245 0ebc
00000010: f97b adbe 5194 47bf 7104 a8be 3414 463e
00000020: 5178 393d b78a f7be 547a 6f3e 3755 33bd
00000030: cc40 01be 720f 29be 87b1 883c 4bd1 65bd
00000040: ff91 043e 3746 7f3e 1140 a5bd 48dd 593e
00000050: 7ee6 08bb cd8a 40bd 939d 4a3d c5f8 693f
00000060: ee26 d5bd 2fee a0bd 9248 4e3e 6d0a a4bd
00000070: 66d0 943e 8f41 4a3e b53e ffbd 268c 14be
00000080: 0200 b2be 83fa 553e c07d f9bd 73ec fb3c
00000090: b861 12be ffff 93be c5ec babc e93f 413e
000000a0: cc4c b23d 7e98 9abc 8e75 c93e 3daa bf3b
000000b0: 2ffa efbd 7ef8 bc3e 1f50 8e3d e788 bc3c
000000c0: b460 5abe a592 7e3e 6957 3f3e 3d59 5a3e
000000d0: 2dcd ee3d 0ae3 833e 233e 483d 01ef 80be
000000e0: 9348 933e 8988 abbe 06e8 80be ebb5 353d
000000f0: 7058 d13b 00b3 b6bd 0a60 a33e ebf1 843d
00000100: 30ef cf3c 4cd1 4f3e 4014 703d 1b9e 31bb
00000110: 15b4 21bd a3f4 1d3e bf2d 8cbd 186b f0bc
00000120: 8d37 7f3e 3434 b2bd 9a7f 0a3e 5e4b 893e
00000130: 087f dfbe 26df 9b3e f646 9f3d 7df8 933e
00000140: 1bbe 183e 6a87 42bd 8310 b5bd 65f6 0ebf
00000150: 7e1b be3d bf09 0dbd 9816 8b3e 767f 983e
00000160: 07bb 1d3e c89b 98bd adae 03be 2e98 55be
00000170: 0d7e 463e cbfd 13be e473 593e 462f 87bd
00000180: 0f39 7abe 6e59 b93e 09af 2abe 4ef9 8abe
00000190: b0f5 2b3d 4161 2dbe cd65 b8bc 4118 2abe
000001a0: 881d 3fbe 517d 853e 6590 9739 651b 5cbe
000001b0: c955 573d 94f9 85be fe40 143c 33fa 64bd
000001c0: 7a0f 813e 0a00 c5be 689e 003e ed69 36bd
000001d0: 874c 90bc a7d5 563e ebf0 e9bd b79c bdba
000001e0: 26f5 313e f5c6 533e e7ee 13be e824 2dbe
000001f0: a305 8b3c 8294 f0bc 6c6c b73c f92d 74be
00000200: cc60 e53d a51f 173e 2f1a 89bd debf 54be
00000210: 6156 5c3e 6af3 44bf c371 063e abfe 903b
00000220: 8494 e5bd 4a10 363b 7fea 72bd 281a efbe
00000230: e5bf 9a3e d433 bcbd 62e4 dd3d 7649 6e3e
00000240: a35f 2dbc ed28 4e3e 65a7 41be e0e1 1b3e
00000250: 1883 c6bd 8c5a 023a 9f93 19be bcba 02be
00000260: 51b5 1b3d 28e7 0e3d 714a 033d 503f 933e
00000270: 6ce4 5fbe 7743 c43e 2d3d 2c3e 634f 65bd
00000280: db9a 99be e3a3 1c3e 72d8 0fbe 5d18 903b
00000290: 3fb4 053e 8dbd cb3d 2d4c ff3d aba9 013e
000002a0: 44b5 ac3c e766 4b3d 8f56 b73e a417 c63d
000002b0: dc49 73be 6bc7 c0be af1f 79be a921 e4bd
000002c0: 5e63 273c 536c a1bd a273 f8bd b3ca b23e
000002d0: 6e52 503e 36ad e9bd a7af eabd 20cf 06bd
000002e0: c171 2b3e c6a5 98be 7de6 a0be d4a9 8bbe
000002f0: d9f3 883e 3df4 933e 4825 7ebe 0937 41be
00000300: d50c 06bd 87b9 5cbe 22fa 4b3e d98a a3be
00000310: 189e 5e3e 0fdf c8be 6556 5a3e 0987 b63e
00000320: 7527 1cbe a5f4 e0bd b051 36be c77e e6be
00000330: 0b24 4b3e 9f9d 473e 0f86 b2be cea2 0bbe
00000340: 9144 273f 244e bf3d 6b06 c63c 37c1 343e
00000350: a345 943d 3d54 193e 1e83 893c 7def c0bd
00000360: 0931 16bc 58e6 34bd 838c 563e 5303 4c3e
00000370: 8d51 f3bb 3ce0 643e cbfb 8f3d d56c 22be
00000380: 4bd9 c23c a69a 8fbd e049 8bbb c67c bb3c
00000390: 9349 ffbd aee8 9fbd 74ca 5f3e 41c5 27be
000003a0: dfe7 31bd 6e11 dc3d 893e b7bd 611a 81bd
000003b0: 76c6 0abd 3dfb f53e fe2e 07be 8c08 113e
000003c0: 0cde 8bbe 338e 903d 553f 41be 6c6a 94be
000003d0: 8683 08bd 46e7 19be d0a4 9dbe b619 ea3d
000003e0: ce6c 0f3e ffae 1e3e 5ff1 f03d 21da 443d
000003f0: 15c5 6abe aeff 543e e6f7 353e 1891 b03d

gru0.weight_hh_l0 f4 [60, 20]
-0.12775044 -0.12868059 0.31716418 -0.12279845 -0.24397792 0.3991128 0.38894618 -0.115200095
-0.09496081 -0.0863975 -0.026026262 -0.15370938 -0.1962187 0.00758195 0.00057641347 0.012031288
0.19069734 -0.419008 -0.4330487 -0.04880128 0.21092436 -0.1324471 0.073928446 0.29190493
0.12384026 -0.25565895 0.20778295 0.01366308 0.21590081 0.23246549 0.24488384 -0.29674992
-0.2350828 -0.058383547 0.25639302 -0.17622079 0.307152 -0.16736609 -0.07540485 0.41176602
-0.13346109 -0.047103923 0.25209904 0.00040682725 -0.058131233 0.020569963 -0.3902909 0.48593745
-0.06515714 -0.33093268 0.3216688 0.20042506 -0.050246533 -0.22772475 -0.29396245 -0.12564954
0.14712495 0.6571945 -0.0437699 0.45512533 0.14170118 0.13680002 0.007840048 0.39513966
0.15872698 0.21439743 0.010506592 -0.2407838 0.1617373 0.365041 0.32103395 0.0084086405
0.15082534 0.023535145 -0.14168718 0.050857116 0.02541104 -0.095418476 0.0068526706 0.029760595
0.334953 -0.29817262 0.19295993 0.022748992 0.3875389 -0.24102333 -0.26434925 0.12343192
-0.54765135 -0.22732793 -0.2943959 0.01959788 0.21934073 0.1823194 -0.25657132 -0.32793134
-0.50852245 -0.31826538 0.16830416 -0.37204355 0.081353255 -0.28236902 0.26381797 -0.042673696
-0.16305433 0.25975513 -0.08327245 0.09065523 0.043461163 0.31962162 -0.55897224 -0.08465321
0.21488333 0.12073399 -0.07465237 0.2601075 -0.34819636 -0.24289078 -0.36085483 0.06400833
0.14809781 -0.13988818 0.224559 -0.22343788 -0.010595804 -0.006563167 -0.3025303 0.23780406
-0.23549871 0.07940841 -0.104820095 0.30625662 -0.16522662 -0.22823067 0.06318451 -0.119613335
-0.18443106 0.24271066 0.09045999 0.102653384 -0.17761245 0.38589272 -0.41046286 -0.06979997
0.56594664 -0.29691932 -0.23171277 -0.23767304 0.025519444 0.03123957 -0.060799494 0.109576575
0.32196423 0.09965032 -0.4127312 0.07172763 0.2524588 -0.010319734 -0.034744322 -0.034670904
-0.52314407 0.17564209 -0.18653806 -0.16966285 -0.1304427 0.061461437 -0.29803962 -0.16614942
0.10182963 -0.08599827 -0.014182886 0.32151988 0.3807138 -0.21139766 0.048681855 0.13211331
-0.2634372 -0.046741568 -0.21026169 -0.31058645 0.38474914 -0.11956607 0.051368948 -0.16431984
-0.0991494 -0.100404285 0.4008976 0.19905715 -0.17658661 -0.2110962 -0.29433897 -0.23789868
0.2271868 0.6590473 -0.07140346 -0.044974174 -0.050033186 -0.28772232 0.03850845 -0.24850298
0.3278455 0.0498779 0.12375699 0.05095322 -0.009069343 -0.06941027 0.18191153 -0.10526975
0.0333531 0.049824756 -0.4659679 0.2393216 -0.099457584 0.13393281 -0.33169866 -0.06894697
-0.12164477 -0.2534219 -0.14795113 -0.09177783 0.06799703 0.024425568 0.052474547 0.03685646
-0.22690561 -0.3873019 0.091567256 -0.15856536 -0.008782229 0.3284379 -0.013885258 -0.38551506
0.1423306 -0.095378235 -0.08916226 -0.09731133 -0.29715598 -0.44526517 -0.3038428 -0.24682881
-0.32833436 -0.23300965 0.6367554 0.0866335 -0.0916869 0.65585846 -0.033220094 0.37709168
-0.2300454 0.20345333 -0.06304337 0.435909 0.028253427 -0.27906063 -0.049688827 0.02719136
00000000: 03d1 02be d8c4 03be 5863 a23e c17d fbbd
00000010: 59d5 79be 8358 cc3e f423 c73e 07ee ebbd
00000020: d07a c2bd 2cf1 b0bd 0735 d5bc fe65 1dbe
00000030: 8eed 48be 0272 f83b 741a 173a e11e 453c
00000040: 2a46 433e 3788 d6be 8fb8 ddbe dae3 47bd
00000050: 8efc 573e 36a0 07be cc67 973d 9074 953e
00000060: f69f fd3d bbe5 82be 0ec5 543e 1cdb 5f3c
00000070: 1a15 5d3e 6f0b 6e3e d4c2 7a3e 9bef 97be
00000080: 8cb9 70be 9623 6fbd f245 833e 3973 34be
00000090: 0743 9d3e 0462 2bbe dc6d 9abd ffd2 d23e
000000a0: 06aa 08be 0bf0 40bd 2013 813e 6e4b d539
000000b0: 041b 6ebd 5782 a83c 35d4 c7be cbcc f83e
000000c0: 1b71 85bd 0270 a9be c6b1 a43e 3a3c 4d3e
000000d0: 4fcf 4dbd ad30 69be 3f82 96be 46aa 00be
000000e0: eca7 163e e63d 283f 1148 33bd 3006 e93e
000000f0: 1d1a 113e 4e15 0c3e 8b73 003c bf4f ca3e
00000100: 5389 223e 008b 5b3e d723 2c3c 0790 76be
00000110: 769e 253e a7e6 ba3e 905e a43e 65c4 093c
00000120: f571 1a3e c7cc c03c 7216 11be 8d4f 503d
00000130: d02a d03c c36a c3bd 5e8c e03b 7ecc f33c
00000140: f67e ab3e 15aa 98be 4a97 453e 185c ba3c
00000150: 806b c63e d2ce 76be c958 87be e0c9 fc3d
00000160: e132 0cbf a7c8 68be 0fbb 96be bc8b a03c
00000170: db9a 603e f0b1 3a3e 515d 83be 9ee6 a7be
00000180: 872e 02bf aef3 a2be ed57 2c3e 7e7c bebe
00000190: 899c a63d ac92 90be 2613 873e 9dca 2ebd
000001a0: b7f7 26be a0fe 843e bf8a aabd 73a9 b93d
000001b0: 5504 323d 72a5 a33e ce18 0fbf aa5e adbd
000001c0: 600a 5c3e 6243 f73d 57e3 98bd cf2c 853e
000001d0: cb46 b2be 5cb8 78be f7c1 b8be cd16 833d
000001e0: f4a6 173e d93e 0fbe cbf2 653e e6cc 64be
000001f0: 069a 2dbc d60f d7bb 40e5 9abe e882 733e
00000200: 9326 71be e0a0 a23d ebab d6bd abcd 9c3e
00000210: 2b31 29be 4db5 69be e166 813d d6f7 f4bd
00000220: 7fdb 3cbe 2589 783e 1643 b93d f03b d23d
00000230: 0ae0 35be bb93 c53e 3028 d2be 49f3 8ebd
00000240: e1e1 103f cf05 98be 1d46 6dbe 9060 73be
00000250: 270e d13c 20ea ff3c e408 79bd af69 e03d
00000260: 7fd8 a43e 7815 cc3d 8151 d3be f0e5 923d
00000270: 4842 813e 1a14 29bc 1050 0ebd 1403 0ebd
00000280: c5ec 05bf 85db 333e d503 3fbe 19bc 2dbe
00000290: c592 05be fdbe 7b3d a698 98be 1323 2abe
000002a0: 0e8c d03d dc1f b0bd 565f 68bc 419e a43e
000002b0: ebec c23e a178 58be a066 473d b648 073e
000002c0: 3ee1 86be 1674 3fbd d74e 57be 3005 9fbe
000002d0: d7fd c43e 0edf f4bd 3f68 523d 7643 28be
000002e0: d70e cbbd c3a0 cdbd 7342 cd3e a3d5 4b3e
000002f0: 1fd3 34be 9a29 58be 99b3 96be b69b 73be
00000300: a8a3 683e 53b7 283f fa3b 92bd d736 38bd
00000310: 99ef 4cbd 5750 93be 09bb 1d3d 9177 7ebe
00000320: 5edb a73e c54c 4c3d 4e74 fd3d 53b4 503d
00000330: 9597 14bc f926 8ebd 0447 3a3e ab97 d7bd
00000340: 439d 083d 0b15 4c3d 5893 eebe b910 753e
00000350: 6bb0 cbbd af25 093e 68d4 a9be 1234 8dbd
00000360: e520 f9bd 84c0 81be 8080 17be 04f6 bbbd
00000370: 0742 8b3d 2118 c83c 8def 563d cdf6 163d
00000380: f259 68be 6f4c c6be 9d87 bb3d f55e 22be
00000390: 57e3 0fbc 0329 a83e fe7e 63bc 3b62 c5be
000003a0: 1dbf 113e aa55 c3bd b49a b6bd 2a4b c7bd
000003b0: d424 98be ccf9 e3be 4991 9bbe b1c0 7cbe
000003c0: 711b a8be 159a 6ebe 6702 233f e86c b13d
000003d0: 57c6 bbbd 57e6 273f cb11 08bd 2912 c13e
000003e0: 0591 6bbe 1256 503e e21c 81bd 772f df3e
000003f0: bb73 e73c 09e1 8ebe 8386 4bbd 6ac0 de3c

gru0.bias_ih_l0 f4 [60]
0.20515056 -0.17465122 0.13490649 -0.008442883 -0.007953614 0.17528313 -0.20644991 -0.10932899
0.19729394 -0.1402286 -0.19930547 -0.01584464 0.06947955 0.18446091 -0.14002244 0.10359886
-0.084690094 0.005527505 0.11188784 0.1380701 -0.19784145 0.24880105 0.08072751 0.10260338
0.14322044 -0.018357465 -0.060551032 0.10129325 0.0066519417 0.15225887 -0.18333043 0.020370897
0.26055267 -0.15055613 0.24120444 0.117877014 0.033367716 -0.00083415094 0.049144194 -0.13235906
0.18742113 0.14047039 -0.10826241 -0.09931193 -0.009847016 -0.17496563 0.1681109 0.01519417
0.24011979 -0.08623751 -0.007421947 -0.19880679 -0.14959514 0.15585786 0.05519483 -0.10997707
-0.19522858 -0.10572451 -0.11400402 -0.18015487
00000000: fd12 523e c5d7 32be ed24 0a3e 0554 0abc
00000010: e04f 02bc 6c7d 333e 9b67 53be e1e7 dfbd
00000020: 6c07 4a3e 1698 0fbe bc16 4cbe 9ecc 81bc
00000030: 4b4b 8e3d 52e3 3c3e 0b62 0fbe a42b d43d
00000040: 0072 adbd 1320 b53b 7425 e53d 4062 0d3e
00000050: f396 4abe b4c5 7e3e 7754 a53d b921 d23d
00000060: 61a8 123e 6562 96bc 5c04 78bd d672 cf3d
00000070: 88f8 d93b c0e9 1b3e f9ba 3bbe dee0 a63c
00000080: 2967 853e 632b 1abe 4cfe 763e 8169 f13d
00000090: 96ac 083d ecaa 5aba 6c4b 493d 2289 07be
000000a0: 53eb 3f3e 78d7 0f3e afb8 ddbd 0e64 cbbd
000000b0: 6155 21bc 312a 33be 4425 2c3e f8f0 783c
000000c0: f6e1 753e 4b9d b0bd ce33 f3bb 0294 4bbe
000000d0: 782f 19be 3499 1f3e f913 623d a83b e1bd
000000e0: 00ea 47be 1886 d8bd f17a e9bd 857a 38be

gru0.bias_hh_l0 f4 [60]
-0.07851686 0.06431814 0.0092762 -0.11731143 -0.12318473 0.045852248 0.068154715 -0.09602164
0.1351958 -0.13166769 0.012307735 -0.09676492 -0.28316212 0.044389006 -0.024308365 0.07993143
0.1488271 -0.12490499 0.04822347 -0.085383125 0.109476745 0.18823043 -0.06406374 -0.071390264
0.050947238 0.13053618 0.13783261 0.2088519 -0.0031329058 0.009470922 0.12376607 -0.06803048
0.18556365 0.018193446 0.18406714 -0.22405382 -0.20545173 -0.20476915 -0.13130479 -0.19863239
0.011818273 -0.15360883 -0.05620137 0.1628584 0.06894146 -0.10814191 0.06839261 -0.08854344
0.1314831 0.12638304 -0.03913235 -0.035483517 -0.16662024 -0.2063606 -0.18463184 0.2658051
0.12915422 0.0037103174 0.25075448 0.1307042
00000000: 73cd a0bd 3bb9 833d 34fb 173c fa40 f0bd
00000010: 4748 fcbd 91cf 3b3d b394 8b3d fea6 c4bd
00000020: c570 0a3e e5d3 06be 62a6 493c b02c c6bd
00000030: a0fa 90be 3fd1 353d 5622 c7bc 17b3 a33d
00000040: 2266 183e 30ce ffbd f985 453d 59dd aebd
00000050: 5835 e03d 7abf 403e da33 83bd 0f35 92bd
00000060: 0dae 503d 47ab 053e fe23 0d3e 46dd 553e
00000070: 7051 4dbb ed2b 1b3c 1179 fd3d 9053 8bbd
00000080: 6604 3e3e 6c0a 953c 197c 3c3e 5d6e 65be
00000090: f061 52be 01af 51be c374 06be 4a66 4bbe
000000a0: 6ea1 413c a24b 1dbe 6833 66bd 5ac4 263e
000000b0: 2e31 8d3d 8179 ddbd 6d11 8c3d 4356 b5bd
000000c0: 81a3 063e 8e6a 013e 3e49 20bd 2a57 11bd
000000d0: 7f9e 2abe 3150 53be 2110 3dbe 9b17 883e
000000e0: 0141 043e cc28 733b e462 803e 52d7 053e

gru0.weight_ih_l1 f4 [60, 20]
0.07347088 -0.14249255 0.08125273 0.059191957 0.23801498 -0.26502347 -0.1772687 0.16002633
0.00075537467 0.12818629 -0.022390937 0.42005947 -0.08797552 -0.27109396 0.13761215 0.6227057
0.09697449 -0.10693896 -0.14584531 -0.21699183 -0.2758299 0.15408057 0.24183533 0.19335854
-0.016891852 -0.04930374 -0.013724365 -0.20035584 -0.24452546 0.078882724 -0.23118073 -0.02430805
0.042363074 0.08197002 -0.09677346 -0.12591809 0.1527513 0.38481528 -0.03272615 0.65159714
0.04183838 -0.24757546 0.46541154 -0.031073796 0.18748379 -0.41475624 -0.041760515 -0.0020331196
0.136726 -0.5864135 0.003057619 0.056065377 0.2592672 0.23879676 0.17778774 0.3350744
-0.12705456 -0.3107246 -0.20130135 -0.33859214 0.20365836 0.119312964 0.15186657 0.1170692
0.13129725 -0.15357812 0.18649147 -0.39551932 0.23353392 -0.3729227 -0.17498457 0.009601746
0.29188704 0.10203149 -0.23152776 0.16942935 -0.2958283 -0.08762371 -0.24674535 -0.49590188
-0.05196326 -0.06351989 -0.04733461 -0.10754193 -0.19619168 -0.30520132 -0.17802478 0.16245922
-0.10486472 -0.4717224 -0.3552566 0.045303702 -0.28547913 0.008352137 0.12361326 -0.06555108
0.38333973 0.22450818 -0.1957031 -0.10284822 0.030717336 -0.0037173354 0.45319027 0.23604822
-0.051843442 0.40003136 0.41780806 -0.3878649 -0.012064332 0.11716261 -0.031030135 -0.3265756
-0.2482672 0.6462103 0.13600385 0.09708933 -0.33572522 -0.45139912 -0.12916625 -0.76184696
-0.017265307 0.17678227 0.115312 0.067017175 0.30373186 -0.028402401 -0.1541542 0.36082155
-0.2722647 -0.27762958 -0.017177766 -0.30585557 0.27084652 0.13899711 -0.31340975 0.3082336
-0.3473545 -0.2941389 -0.18192609 -0.053954836 0.21617699 0.053777527 -0.13629925 0.47145492
-0.4088798 0.004496738 0.21618101 -0.5753249 0.06847953 -0.27936843 -0.13429503 -0.33325675
-0.35092902 -0.33061525 0.116947494 -0.06689127 0.065558836 0.095236816 -0.47313297 0.717624
-0.10169334 -0.43509647 0.201969 0.015501322 -0.43600425 0.12577681 0.13637619 0.4057618
-0.12349909 -0.75602144 -0.37770197 -0.17466389 0.40260717 0.114261605 -0.1172289 0.13621143
-0.22792383 0.2719979 -0.2519795 0.13452382 0.4824937 0.50830066 0.01201899 0.10295752
0.37160784 0.06216795 -0.54060924 0.5053617 0.22209749 -0.1721687 -0.048994474 -0.08349206
-0.2533531 0.070678495 -0.5429837 -0.16529143 -0.33635372 -0.16266775 -0.10752131 0.1871891
-0.053526442 0.06893586 -0.099989906 0.09899051 0.033974387 -0.37892723 0.035303835 0.0009930737
-0.54738444 0.01340914 0.49803853 0.41874236 -0.061870627 0.0010468 -0.15926215 0.42996976
0.1628804 -0.3406722 -0.057356678 0.3437744 0.2287027 0.24083383 0.027321367 -0.23777194
0.27943313 0.020596901 -0.21581568 -0.11899893 0.64157045 -0.48955417 -0.019481879 0.43536818
-0.27983013 -0.24084392 -0.18194039 0.2917522 0.03982279 0.15854363 -0.17251849 0.12511705
0.22253151 -0.13891415 -0.21712625 0.16630684 -0.22620456 -0.22371274 -0.087384626 0.03796077
-0.31553382 -0.11119214 -0.49694353 -0.49733767 -0.3186469 0.04199119 0.044067197 -0.37299058
00000000: e777 963d 91e9 11be d567 a63d 4473 723d
00000010: 33ba 733e 28b1 87be ed85 35be f1dd 233e
00000020: 5604 463a 4443 033e 336d b7bc 0912 d73e
00000030: 822c b4bd d4cc 8abe 33ea 0c3e a469 1f3f
00000040: 909a c63d d002 dbbd 7958 15be 1b33 5ebe
00000050: 9439 8dbe 4cc7 1d3e aea3 773e c8ff 453e
00000060: c860 8abc b8f2 49bd 29dc 60bc 152a 4dbe
00000070: e264 7abe 448d a13d a4ba 6cbe ad21 c7bc
00000080: e784 2d3d e6df a73d 2a31 c6bd acf0 00be
00000090: d66a 1c3e 8206 c53e db0b 06bd 12cf 263f
000000a0: b95e 2b3d 6c84 7dbe 6c4a ee3e 798e febc
000000b0: c0fb 3f3e ee5a d4be 130d 2bbd 163e 05bb
000000c0: e701 0c3e 321f 16bf 5662 483b cfa4 653d
000000d0: acbe 843e 2387 743e fd0d 363e df8e ab3e
000000e0: 971a 02be 4b17 9fbe f121 4ebe f35b adbe
000000f0: d18b 503e 5b5a f43d e982 1b3e fac1 ef3d
00000100: c972 063e 9543 1dbe 9ff7 3e3e 8281 cabe
00000110: 8423 6f3e b9ef bebe 282f 33be a450 1d3c
00000120: 3872 953e e3f5 d03d 9d15 6dbe e37e 2d3e
00000130: cf76 97be 0f74 b3bd d0aa 7cbe dae6 fdbe
00000140: 6dd7 54bd b716 82bd f0e1 41bd f23e dcbd
00000150: 79e6 48be 5943 9cbe 214c 36be b65b 263e
00000160: 50c3 d6bd 9985 f1be 31e4 b5be 6090 393d
00000170: 522a 92be 67d7 083c f328 fd3d a53f 86bd
00000180: 1b45 c43e 79e5 653e 6566 48be 16a2 d2bd
00000190: eca2 fb3c 8a9e 73bb 8e08 e83e a0b6 713e
000001a0: ca59 54bd e9d0 cc3e f0ea d53e 3a96 c6be
000001b0: 7aa9 45bc f3f2 ef3d e932 febc eb34 a7be
000001c0: c239 7ebe 0a6e 253f 9844 0b3e c5d6 c63d
000001d0: 2de4 abbe c91d e7be 2844 04be 6708 43bf
000001e0: f96f 8dbc 6906 353e b328 ec3d 4d40 893d
000001f0: be82 9b3e 27ac e8bc 99da 1dbe 9abd b83e
00000200: 4766 8bbe 7725 8ebe 63b8 8cbc 1a99 9cbe
00000210: 65ac 8a3e 4255 0e3e 3e77 a0be cbd0 9d3e
00000220: 73d8 b1be 6099 96be d54a 3abe bfff 5cbd
00000230: 805d 5d3e d345 5c3d 0892 0bbe 8a62 f13e
00000240: b158 d1be 5f59 933b 8e5e 5d3e 7e48 13bf
00000250: ff3e 8c3d 6109 8fbe a384 09be a1a0 aabe
00000260: f8ac b3be 6746 a9be 2b82 ef3d 4afe 88bd
00000270: b643 863d 850b c33d 7c3e f2be 35b6 373f
00000280: 9944 d0bd f7c4 debe f6d0 4e3e 42f9 7d3c
00000290: f33b dfbe a3cb 003e 33a6 0b3e 03c0 cf3e
000002a0: 17ed fcbd 9f8a 41bf 2762 c1be 17db 32be
000002b0: 8722 ce3e fd01 ea3d b515 f0bd 027b 0b3e
000002c0: dd64 69be 4f43 8b3e 7503 81be 9dc0 093e
000002d0: 6a09 f73e fe1f 023f 4ceb 443c 64db d23d
000002e0: 6243 be3e d2a3 7e3d 5e65 0abf 625f 013f
000002f0: 866d 633e fe4c 30be 6eae 48bd e3fd aabd
00000300: 7fb7 81be e3bf 903d fb00 0bbf 2842 29be
00000310: 8e36 acbe 6092 26be 2234 dcbd 80ae 3f3e
00000320: 8b3e 5bbd 3f2e 8d3d 82c7 ccbd 89bb ca3d
00000330: ba28 0b3d c002 c2be c19a 103d 062a 823a
00000340: 6321 0cbf 02b2 5b3c e8fe fe3e 6665 d63e
00000350: 0e6c 7dbd c834 893a 9e15 23be ff24 dc3e
00000360: 1fca 263e 966c aebe d6ee 6abd 3303 b03e
00000370: 0a31 6a3e 259d 763e 0fd1 df3c 7d7a 73be
00000380: dc11 8f3e d5ba a83c c9fe 5cbe b6b5 f3bd
00000390: f63d 243f d8a6 fabe 7698 9fbc 94e8 de3e
000003a0: e545 8fbe ca9f 76be 954e 3abe 8b60 953e
000003b0: 391d 233d 4359 223e b0a8 30be af1e 003e
000003c0: 4ddf 633e 833f 0ebe 5856 5ebe 574c 2a3e
000003d0: 2ba2 67be f414 65be b6f6 b2bd c17c 1b3d
000003e0: a68d a1be b4b8 e3bd 626f febe 0ba3 febe
000003f0: b025 a3be f4fe 2b3d ce7f 343d 9ff8 bebe

gru0.weight_hh_l1 f4 [60, 20]
-0.41057605 -0.28930345 0.2410645 0.089530565 -0.39238408 -0.33074784 -0.09568481 -0.1027431
0.05103807 0.44536155 -0.20373118 0.09768013 -0.06194043 0.11882267 0.17912117 -0.86202884
-0.1064907 -0.08942451 0.028976673 -0.112677045 0.0862939 -0.01898276 -0.122897275 0.19790824
0.4927308 0.16971713 -0.19951755 0.011881065 -0.04037299 -0.25859353 0.08949753 -0.0048296517
0.5686847 0.054871414 -0.009052794 0.12640081 0.09709338 0.41910324 -0.117554374 0.40128422
0.10727877 -0.17981915 0.09869527 0.0031544436 -0.20963995 0.27361587 0.22813462 -0.07520557
-0.24903616 0.10149539 -0.08751374 -0.019646812 -0.5551939 0.19771078 0.07734012 -0.02452517
0.1015809 -0.27438495 0.11003577 -0.0025787656 0.087340616 -0.26877937 -0.0694421 0.2191747
-0.29402635 0.31220856 0.20060857 -0.027949683 -0.24720065 -0.02673046 0.05916237 -0.45026335
-0.23388295 0.41917342 -0.30045056 0.17771472 0.20396164 -0.18084203 -0.049697526 0.01153931
0.37760442 0.10057765 0.41790485 0.03741973 -0.2129828 0.29397377 -0.15138912 -0.18679154
-0.38510573 0.3510565 0.08401928 0.38890094 -0.21544933 -0.029394751 -0.111931816 -0.015126656
0.2624284 -0.0046910136 0.05299072 -0.17110297 0.23865524 -0.063827366 -0.79297477 -0.013598034
-0.21372625 -0.21823327 0.33394402 0.18593928 0.15087152 -0.07956008 0.21023683 0.05188797
-0.08342219 0.2906718 -0.6577839 0.42389032 -0.22133872 -0.3972726 0.2241672 -0.12516242
0.35626134 0.5081163 -0.14855564 0.17685704 -0.41433924 -0.049826432 0.026325718 0.0069100643
0.032017954 -0.006602868 0.36199158 0.19029722 0.054869827 0.14554313 0.26741463 -0.057846054
-0.33780995 -0.46268702 0.27587453 -0.0031038357 0.1840971 -0.17156722 0.023998138 -0.02671115
0.24761984 0.652146 -0.3169478 -0.11697545 -0.272995 -0.0114908 -0.21422936 -0.13195701
-0.06383852 0.15729386 -0.41368732 0.50884664 0.21091583 -0.047721453 -0.3183949 0.5613322
0.3966934 0.084501594 -0.18620494 0.23885623 -0.35109887 0.13118805 0.15486512 0.10955191
-0.03681036 0.10693719 0.30704576 0.3999401 -0.44676888 -0.049623627 0.13598865 -0.0493285
-0.30851468 -0.37011707 0.05128045 -0.12522702 0.38235357 -0.09384315 0.32002777 0.2995335
-0.22363363 0.10889069 -0.1591944 0.15468012 -0.78435904 0.14162177 0.09073449 -0.1029606
0.09582349 -0.01670236 0.19297194 0.17305973 -0.15614662 0.33108658 -0.13009998 -0.45256194
-0.011249818 -0.18474591 0.29755026 -0.052281674 0.045736115 0.35355797 -0.095644206 -0.047646474
0.28795636 0.2801208 -0.32007614 -0.039444417 -0.20773703 -0.34477395 0.101173654 -0.64334375
0.17596334 0.22896922 -0.10129791 0.17246987 -0.30749965 -0.29201669 0.13330963 -0.03996
0.06260562 -0.18076931 -0.14608021 0.1592991 0.082871765 0.46007687 -0.2464978 0.21777663
0.16305332 -0.17969346 0.35721394 0.04004929 -0.20386358 0.2943119 -0.12437118 0.2240647
0.5051477 0.094188526 -0.13029717 -0.14640252 -0.031407688 0.34151134 0.4022378 0.032437377
-0.20009232 -0.24438709 -0.05966318 -0.16506281 -0.03390362 0.13486242 -0.35283837 0.20932737
00000000: 0637 d2be 951f 94be 9dd9 763e cd5b b73d
00000010: 91e6 c8be c857 a9be 66f6 c3bd f96a d2bd
00000020: 4c0d 513d 6e06 e43e e89e 50be 850c c83d
00000030: 40b5 7dbd 4d59 f33d 8a6b 373e ecad 5cbf
00000040: cc17 dabd 3324 b7bd 7d60 ed3c 39c3 e6bd
00000050: dbba b03d bc81 9bbc 91b1 fbbd 75a8 4a3e
00000060: 3647 fc3e 54ca 2d3e 544e 4cbe cca8 423c
00000070: 265e 25bd 5f66 84be 7b4a b73d 0e42 9ebb
00000080: 5295 113f d9c0 603d 2c52 14bc 376f 013e
00000090: e5d8 c63d b394 d63e 59c0 f0bd 2075 cd3e
000000a0: f9b4 db3d 8322 38be bf20 ca3d c8ba 4e3b
000000b0: dbab 56be 6117 8c3e 1f9c 693e 6105 9abd
000000c0: 5603 7fbe d1dc cf3d 673a b3bd 5af2 a0bc
000000d0: 3021 0ebf b274 4a3e 7f64 9e3d 02e9 c8bc
000000e0: a609 d03d 2f7c 8cbe 6f5a e13d 8200 29bb
000000f0: a3df b23d 739d 89be a937 8ebd 556f 603e
00000100: 9f8a 96be cdd9 9f3e 556c 4d3e bcf6 e4bc
00000110: 2b22 7dbe d6f9 dabc 3e54 723d eb88 e6be
00000120: 037f 6fbe e69d d63e a8d4 99be d9fa 353e
00000130: 52db 503e a72e 39be a28f 4bbd 600f 3d3c
00000140: 5e55 c13e a8fb cd3d a0f7 d53e 6e45 193d
00000150: 2a18 5abe bb83 963e c005 1bbe 4846 3fbe
00000160: 942c c5be adbd b33e 4d12 ac3d 061e c73e
00000170: c09e 5cbe 43cd f0bc 823c e5bd cbd5 77bc
00000180: 045d 863e 13b7 99bb cc0c 593d 9e35 2fbe
00000190: 0a62 743e ecb7 82bd 6500 4bbf 4aca 5ebc
000001a0: 0edb 5abe 8b78 5fbe b6fa aa3e de66 3e3e
000001b0: 107e 1a3e 65f0 a2bd 5348 573e 7b88 543d
000001c0: 41d9 aabd efd2 943e 8764 28bf 2708 d93e
000001d0: 9ea6 62be 5067 cbbe 168c 653e 942a 00be
000001e0: e367 b63e e913 023f f81e 18be 031a 353e
000001f0: 4624 d4be cd16 4cbd 08a9 d73c d26d e23b
00000200: 4225 033d df5c d8bb f656 b93e 46dd 423e
00000210: 2fbf 603d 4209 153e 92ea 883e fcef 6cbd
00000220: 6df5 acbe 50e5 ecbe 6d3f 8d3e b969 4bbb
00000230: f383 3c3e 51af 2fbe be97 c43c 57d1 dabc
00000240: 0e90 7d3e 0af3 263f fb46 a2be d390 efbd
00000250: 00c6 8bbe e943 3cbc f15e 5bbe bd1f 07be
00000260: c5bd 82bd a411 213e d3ce d3be c643 023f
00000270: 52fa 573e 9277 43bd a804 a3be 78b3 0f3f
00000280: 661b cb3e 2c0f ad3d 82ac 3ebe ba96 743e
00000290: 3bc3 b3be 2956 063e f694 1e3e c05c e03d
000002a0: 76c6 16bd e301 db3d 1a35 9d3e f3c4 cc3e
000002b0: e4be e4be 2542 4bbd 9c40 0b3e ae0c 4abd
000002c0: a3f5 9dbe fc7f bdbe 730b 523d 833b 00be
000002d0: d9c3 c33e d630 c0bd aeda a33e 745c 993e
000002e0: 3700 65be 1502 df3d db03 23be 7764 1e3e
000002f0: c1cb 48bf 4c05 113e 01d3 b93d 02dd d2bd
00000300: 1b3f c43d 63d3 88bc 709a 453e 9236 313e
00000310: e6e4 1fbe 2e84 a93e ee38 05be 33b6 e7be
00000320: 2851 38bc 082e 3dbe 8258 983e 4f25 56bd
00000330: cb55 3b3d 8d05 b53e 1ce1 c3bd f328 43bd
00000340: 046f 933e fe6b 8f3e 05e1 a3be 7890 21bd
00000350: 04b9 54be 3686 b0be 2234 cf3d 2db2 24bf
00000360: bc2f 343e e876 6a3e 4775 cfbd f19b 303e
00000370: 9870 9dbe 3683 95be 5282 083e 19ad 23bd
00000380: 6037 803d 971b 39be 0d96 15be 4e1f 233e
00000390: acb8 a93d 328f eb3e eb69 7cbe d600 5f3e
000003a0: 73f7 263e 9001 38be bfe4 b63e b90a 243d
000003b0: 9dc1 50be 0db0 963e 51b6 febd 3771 653e
000003c0: 5c51 013f eae5 c03d 9f6c 05be 8bea 15be
000003d0: 59a5 00bd 93da ae3e 1df2 cd3e 0edd 043d
000003e0: 00e5 4cbe 9c40 7abe 6161 74bd 3a06 29be
000003f0: 86de 0abd 6019 0a3e 3ba7 b4be ea59 563e

gru0.bias_ih_l1 f4 [60]
0.16341707 0.12232859 0.010724071 0.06496973 0.06583706 0.16073537 0.17376167 0.40330073
-0.037971664 0.393032 0.27945942 0.27314466 0.016496077 0.030826332 -0.24026683 0.25542778
0.029966768 0.15476364 0.07877182 -0.19590254 0.28484884 0.11556355 0.04814859 -0.093516685
-0.16683212 0.08736552 -0.22962058 0.06558643 0.032648623 -0.0012826276 0.07754822 -0.16738066
0.13015367 -0.4091848 0.039382644 -0.26234698 -0.24205703 0.19517095 0.037360005 -0.046728764
0.13288692 0.12882286 -0.17448409 0.092792295 -0.012581493 -0.017163854 -0.16723032 -0.049739897
-0.1600965 0.03062049 0.09475443 -0.09309217 -0.11811594 0.060927376 0.0394671 0.19392619
-0.19373423 -0.07524384 0.067062475 0.19127686
00000000: ce56 273e 6987 fa3d 04b4 2f3c da0e 853d
00000010: 95d5 863d d097 243e 94ee 313e 6f7d ce3e
00000020: 2d88 1bbd 7e3b c93e 4e15 8f3e 9ed9 8b3e
00000030: c822 873c 8187 fc3c 8208 76be 6ec7 823e
00000040: de7c f53c 5c7a 1e3e 1f53 a13d ad9a 48be
00000050: b5d7 913e 95ac ec3d 7537 453d ad85 bfbd
00000060: 0ad6 2abe b2ec b23d a821 6bbe 2e52 863d
00000070: 90ba 053d d71d a8ba 9ad1 9e3d d665 2bbe
00000080: 0147 053e ac80 d1be b24f 213d 5852 86be
00000090: ccdd 77be e5da 473e ce06 193d a966 3fbd
000000a0: 8213 083e 24ea 033e f5ab 32be e309 be3d
000000b0: 9b22 4ebc 369b 8cbc 6d3e 2bbe 10bc 4bbd
000000c0: 56f0 23be d2d7 fa3c 9c0e c23d 1ca7 bebd
000000d0: c5e6 f1bd fc8e 793d 41a8 213d 9694 463e
000000e0: 4462 46be 7119 9abd 0d58 893d 15de 433e

gru0.bias_hh_l1 f4 [60]
-0.1200062 0.19539133 0.2343111 0.031378563 0.03919045 0.22698152 0.08642261 0.23885754
0.12924464 0.18152611 -0.05330417 -0.08720582 0.35717103 -0.010778167 0.1207669 -0.05605169
0.42543945 0.26537934 0.35774818 -0.07449404 -0.11988488 0.0029841065 0.048926268 0.18253243
-0.28810608 0.074675396 -0.14720115 -0.10070363 0.09605526 -0.28181255 0.19482315 -0.009306998
0.020859644 -0.2259717 0.102576144 -0.34037188 -0.38706413 -0.20349815 0.3051132 -0.2739117
-0.09708115 -0.05105971 0.22392434 0.027189095 0.017447459 0.20752667 0.05547217 -0.0033208274
-0.26308396 0.16762552 -0.0688399 -0.2252373 0.068709426 0.239376 0.21026936 -0.1132248
0.19700101 -0.16031 0.211416 -0.096356906
00000000: d0c5 f5bd aa14 483e 40ef 6f3e cf86 003d
00000010: 2a86 203d d86d 683e 56fe b03d 1297 743e
00000020: b558 043e fbe1 393e 7955 5abd f798 b2bd
00000030: 1fdf b63e e996 30bc a354 f73d 7596 65bd
00000040: 33d3 d93e cddf 873e c52a b73e 5590 98bd
00000050: 3486 f5bd 0091 433b e966 483d c8e9 3a3e
00000060: a482 93be 6aef 983d e6bb 16be b43d cebd
00000070: 9fb8 c43d bc49 90be b87f 473e 617c 18bc
00000080: d8e1 aa3c 2065 67be 7113 d23d 3945 aebe
00000090: 452d c6be d261 50be cc37 9c3e 283e 8cbe
000000a0: 7bd2 c6bd fd23 51bd 6c4c 653e aabb de3c
000000b0: f9ed 8e3c df81 543e c936 633d 3da2 59bb
000000c0: f1b2 86be 06a6 2b3e effb 8cbd 9ba4 66be
000000d0: 87b7 8c3d fb1e 753e da50 573e 67e2 e7bd
000000e0: a2ba 493e 4e28 24be 707d 583e c556 c5bd

gru1.weight_ih_l0 f4 [30, 20]
-0.6152631 0.0418994 0.39863074 0.7475838 -0.45424172 -0.24012132 0.19952889 -0.12258574
0.1442483 0.0854378 -0.03093113 0.40937343 0.17655551 0.077115834 0.44597664 -0.27297258
-0.09749312 -0.023900973 0.5083285 0.07008854 0.9899676 -0.06490843 -0.5751088 -0.44116974
0.66523737 -0.1979947 0.080837525 0.8943325 -0.20631213 -0.43007255 0.4801191 -0.43989596
0.4135625 0.2498209 0.0783161 0.559241 -0.09231012 0.5213836 -0.45434475 -0.3659526
-0.31176248 0.15081163 0.2941083 0.056779265 -0.029595606 -0.54297054 -0.05509062 0.13763082
0.14329232 0.19216089 -0.12218606 -0.3742051 -0.26057288 0.28659752 -0.13075309 0.07725726
0.120665714 0.3207604 0.09792738 -0.60187644 -0.19044395 0.392583 -0.06681907 0.04265071
-0.46284682 -0.19305606 -0.09770815 0.09731536 0.019630967 0.012051318 -0.1132537 0.06459875
-0.29306984 0.1108422 0.23053265 -0.7975042 -1.1366624 -0.055654965 0.5424338 -0.47228718
0.6240738 -0.011400156 -0.06748361 -0.16429293 -0.6507043 0.34035048 -0.15606517 -0.17358668
-0.3547758 -0.009671709 0.04857468 0.007677628 -0.45173314 0.028380742 0.16211225 -0.17816606
0.24139635 -0.09514672 -0.21542647 -0.26552567 -0.11094204 0.023133243 0.4107059 -0.029556451
0.13823521 0.89716583 0.05567323 -0.010948147 -0.2998613 0.35960436 0.07475425 0.05880737
-0.42852327 0.091218494 0.060242534 -0.21858251 0.071752585 0.34465832 -0.079049915 0.5762374
0.02297775 0.059484508 0.5140466 0.40717345 -0.40648475 0.45506412 -0.2285554 -0.27229917
-0.40959 -0.059983075 0.41154015 -0.085757725 0.012989307 0.3088352 0.0936093 -0.16134532
-0.28350094 -0.112217866 0.38921657 -0.10084233 0.26417512 0.29966962 0.011216572 0.24822816
0.29465973 0.14018735 -0.02042504 -0.36228532 -0.30787787 -0.24244037 -0.21686594 -0.6274828
0.56584436 0.1876025 -0.18053868 0.10727412 -0.3973639 -0.06858691 0.44848177 0.41907862
0.4935252 0.3890558 0.115667425 0.044251513 0.32221678 -0.23172858 -0.24427184 -0.5082579
0.020037092 -0.329215 0.518476 0.38189116 0.36067 0.51191634 0.7196659 0.2492624
-0.05094836 0.08465646 0.17366499 -0.08308637 0.28959855 0.17635246 0.18715161 -0.21286087
0.34077424 1.2044784 0.23803759 -0.25111642 -0.5587537 0.021640861 0.021116462 -0.22111979
0.6367339 0.13330233 -0.31439286 0.2646876 0.36072138 -0.38342834 -0.10041962 0.7319099
-0.68926936 -0.2589996 -0.15085633 0.06565907 -0.26428482 -1.5705166 -0.6139461 -0.30293125
0.15092419 0.2824446 -0.35093835 -0.15705602 -0.26882195 0.031376753 0.82353604 -0.51738787
-0.8299652 0.5683307 -0.34347507 -0.3596075 -0.13410433 0.03267154 -0.020760711 -0.019595234
-0.27846935 -0.050187957 -0.20422833 -0.23089525 0.6022963 -0.042363703 0.29691294 0.47543693
-0.07766513 -0.24676219 -0.37947297 -0.0100742355 -0.212124 -0.1544092 -0.0013939334 0.21515004
-0.015105781 0.26764768 -0.090030245 0.13460174 -0.28444445 -0.28234398 0.26773456 -0.3900809
0.35272136 -0.024527736 0.26376742 -0.29898992 -0.011053331 0.28219587 -0.5529162 -0.06336196
00000000: e281 1dbf b59e 2b3d 5419 cc3e a761 3f3f
00000010: 5f92 e8be 5de2 75be 4d51 4c3e 3c0e fbbd
00000020: d4b5 133e 03fa ae3d 4863 fdbc 6599 d13e
00000030: f8ca 343e e8ee 9d3d 0d57 e43e 10c3 8bbe
00000040: 79aa c7bd f9cb c3bc d121 023f 958a 8f3d
00000050: 846e 7d3f b6ee 84bd 553a 13bf 00e1 e1be
00000060: ff4c 2a3f 1fbf 4abe 258e a53d faf2 643f
00000070: 7d43 53be 7832 dcbe 2cd2 f53e 0b3a e1be
00000080: 77be d33e 0dd1 7f3e 3164 a03d 6b2a 0f3f
00000090: 170d bdbd 6579 053f e09f e8be 245e bbbe
000000a0: 559f 9fbe 5d6e 1a3e 5d95 963e 6091 683d
000000b0: 7c72 f2bc 1e00 0bbf b4a6 61bd 18ef 0c3e
000000c0: 39bb 123e d3c5 443e af3c fabd d097 bfbe
000000d0: cf69 85be e9bc 923e 23e4 05be 0e39 9e3d
000000e0: 961f f73d b53a a43e 268e c83d 9314 1abf
000000f0: bd03 43be a400 c93e 70d8 88bd 83b2 2e3d
00000100: 42fa ecbe 7db0 45be 361b c8bd 474d c73d
00000110: 1fd1 a03c e472 453c 8ef1 e7bd 594c 843d
00000120: 400d 96be 3c01 e33d c010 6c3e 3c29 4cbf
00000130: 277e 91bf 76f6 63bd f1dc 0a3f a0cf f1be
00000140: 4dc3 1f3f b8c7 3abc d934 8abd 683c 28be
00000150: 8f94 26bf 6b42 ae3e 8ccf 1fbe b5c0 31be
00000160: 2ca5 b5be 1676 1ebc 3ef6 463d 9d94 fb3b
00000170: 9149 e7be bb7e e83c c100 263e 2a71 36be
00000180: 9b30 773e 49dc c2bd c298 5cbe fbf2 87be
00000190: 9535 e3bd ed81 bd3c 0b48 d23e 5f20 f2bc
000001a0: 888d 0d3e a9ac 653f 9d09 643d db5f 33bc
000001b0: 6c87 99be 101e b83e c218 993d ffdf 703d
000001c0: 6767 dbbe c3d0 ba3d e0c0 763d 18d4 5fbe
000001d0: 05f3 923d 0e77 b03e ece4 a1bd 4b84 133f
000001e0: d63b bc3c 07a6 733d 8f98 033f 0a79 d03e
000001f0: c51e d0be 2afe e83e 6d0a 6abe cc6a 8bbe
00000200: c8b5 d1be d0b0 75bd 64b5 d23e bfa1 afbd
00000210: 1ad1 543c a61f 9e3e 3cb6 bf3d b537 25be
00000220: 0927 91be 7bd2 e5bd 6547 c73e 6c86 cebd
00000230: f641 873e 4c6e 993e b6c5 373c 862f 7e3e
00000240: a4dd 963e 468d 0f3e 6a52 a7bc 767d b9be
00000250: 2ba2 9dbe 4a42 78be 1b12 5ebe b6a2 20bf
00000260: 2ddb 103f df1a 403e 22df 38be 89b2 db3d
00000270: 4873 cbbe 4b77 8cbd 679f e53e 7991 d63e
00000280: 56af fc3e 5232 c73e 0be3 ec3d 1341 353d
00000290: 99f9 a43e 424a 6dbe 6622 7abe 311d 02bf
000002a0: d424 a43c de8e a8be d8ba 043f 3d87 c33e
000002b0: bda9 b83e f30c 033f 063c 383f a53e 7f3e
000002c0: 3aaf 50bd 5e60 ad3d 3cd5 313e 3029 aabd
000002d0: 4346 943e bd95 343e aca4 3f3e 33f8 59be
000002e0: f679 ae3e 592c 9a3f 20c0 733e 5592 80be
000002f0: 7c0a 0fbf 2d48 b13c 6efc ac3c 3a6d 62be
00000300: fe00 233f 6880 083e 1af8 a0be 2285 873e
00000310: 79b0 b83e b850 c4be cda8 cdbd 725e 3b3f
00000320: f573 30bf 989b 84be 157a 1abe 4378 863d
00000330: 5750 87be b006 c9bf 922b 1dbf ce19 9bbe
00000340: df8b 1a3e 949c 903e 31ae b3be 4bd3 20be
00000350: 08a3 89be e984 003d 42d3 523f 8873 04bf
00000360: 9978 54bf 1f7e 113f f7db afbe 791e b8be
00000370: a552 09be 98d2 053d 5e12 aabc 2f86 a0bc
00000380: 8993 8ebe e391 4dbd 3b21 51be ce6f 6cbe
00000390: 1730 1a3f 9085 2dbd f904 983e 786c f33e
000003a0: e50e 9fbd 3aaf 7cbe 484a c2be 680e 25bc
000003b0: 0937 59be 721d 1ebe a5b4 b6ba 4b50 5c3e
000003c0: 3d7e 77bc 1e09 893e c761 b8bd 0ad5 093e
000003d0: b4a2 91be 648f 90be 8114 893e afb8 c7be
000003e0: e597 b43e 64ee c8bc 860c 873e 3515 99be
000003f0: 0819 35bc fa7b 903e eb8b 0dbf eac3 81bd

gru1.weight_hh_l0 f4 [30, 10]
-0.5348506 0.32839724 0.34437224 -0.02105928 0.16428064 0.008513629 0.33976182 -0.47332987
0.40051657 0.038115945 0.5166085 -0.13560787 0.382928 -0.31326172 0.11602814 -0.10814717
-0.14903878 0.43979844 -1.3580879 0.31978345 -0.03358722 0.35982415 0.20690031 -0.03294693
-0.07227019 -0.18872921 -0.10017603 -0.29527432 -0.12739891 -0.40030822 -0.43417183 0.054436255
-0.25583497 -0.2398966 0.67627203 -0.4401764 -0.038967714 0.0012408174 0.20339662 -0.39059755
0.25277767 0.6870373 -0.27828324 0.15102045 -0.3904923 -0.20627809 -0.050678253 -0.3761584
-0.43217027 -0.06959599 0.23402557 -0.020166187 -0.10314191 0.619047 -0.18563883 0.403413
0.8818811 0.02612021 0.75789183 0.3595527 0.19273874 0.11816904 0.17523211 -0.050231814
0.4665502 -0.28408805 0.47374278 0.2294746 -0.08708022 0.26975423 0.012612505 0.041947495
0.48453313 -0.7429313 0.6341883 -0.02088406 0.5252781 0.23663078 0.1336746 0.14330406
-0.33031285 -0.49933028 -0.054187603 -0.4060755 0.33575577 -0.37923628 0.16779162 0.25773066
-0.20836535 0.016951257 0.22905722 -0.44282997 -0.03741001 -0.03961397 -0.2586124 0.14501525
0.06860923 -0.18199205 0.3833371 0.463478 -0.30047098 -0.17284946 0.13538662 0.1484534
0.49236155 -0.49553683 0.26823935 -0.64897114 -0.21165444 -0.38253483 -0.36581787 0.32933077
0.11691397 -0.7586567 -0.09568107 -0.28859228 0.32219562 -0.3881543 0.9857017 0.6560033
-0.016516674 -0.17792428 -0.6969628 -0.51037157 -0.10472704 0.44450128 0.728945 -0.29825783
0.17546654 0.37993243 0.27030408 -0.024903052 0.32920325 0.42947948 -0.7473661 -0.2942488
0.33094525 -0.1031836 0.16706145 0.4670459 0.03862977 -0.045773342 0.57661116 -0.44260877
-0.3879263 -0.365196 0.07056427 0.48988667 -0.27711353 0.09365965 -0.10967587 -0.19626884
-0.4212361 -0.0020992246 0.23546645 -0.5402104 0.442188 0.14231305 -0.10802924 -0.16142724
-0.6436778 0.5468331 -0.06592036 -0.42959958 0.1530897 -0.073700584 0.8499433 -0.23524055
-0.28708008 0.37625518 -0.29825982 -0.08937598 -0.37293264 -0.06357398 0.55353117 -0.13818923
0.070705995 -0.3028865 0.10488806 0.07617707 -0.14158444 -0.48587358 0.020068116 0.28839892
-0.47965112 -0.12379443 0.23177278 -0.060601573 0.1572738 -0.25093788 -0.5219264 0.34891486
-0.36033753 -1.1370033 0.1321372 0.37863275 -0.05805313 -0.07485235 0.24252857 -0.075835615
0.96188366 -0.35311395 -0.10727448 0.31394893 -0.113199115 -0.1528713 -0.31598616 0.079557754
-0.44743714 0.17123444 -0.10822705 0.43357655 0.77702844 0.024696749 -0.5014754 -1.0843933
0.29199904 -0.065502144 -0.37941864 0.47625706 0.24414352 -0.015589357 0.4475784 -0.23918714
0.31530946 0.08621034 -0.24732104 -0.2347927 -0.09024024 0.6729897 -0.3464796 0.1047521
-0.47021574 0.5273618 -0.008359046 -0.53548497 0.49191275 0.091562346 0.6358271 -0.07550116
-0.32349467 0.48312348 0.25776377 -0.27755746 0.87042 0.24369623 0.0669528 -0.06224191
-0.0010098559 0.085682884 -0.21646649 -0.2622848 -0.30966127 -0.35666287 1.1596831 0.43600258
00000000: f8eb 08bf af23 a83e 8f51 b03e 8384 acbc
00000010: 2f39 283e c07c 0b3c 43f5 ad3e 4b58 f2be
00000020: 8210 cd3e 771f 1c3d 7440 043f cadc 0abe
00000030: 240f c43e d763 a0be 29a0 ed3d 437c ddbd
00000040: 9f9d 18be 432d e13e d3d5 adbf a8ba a33e
00000050: c192 09bd df3a b83e addd 533e 5cf3 06bd
00000060: 6502 94bd 3b42 41be 1729 cdbd 322e 97be
00000070: dc74 02be 33f5 ccbe c54b debe 8df8 5e3d
00000080: cdfc 82be 74a7 75be 2a20 2d3f cd5e e1be
00000090: 9c9c 1fbd eca2 a23a 3447 503e 67fc c7be
000000a0: 136c 813e ade1 2f3f 247b 8ebe 1ba5 1a3e
000000b0: 9bee c7be 903a 53be 0094 4fbd d597 c0be
000000c0: 6c45 ddbe 5888 8ebd 66a4 6f3e 8f33 a5bc
000000d0: 113c d3bd dd79 1e3f 1b18 3ebe 268c ce3e
000000e0: f6c2 613f 0dfa d53c 3305 423f 4b17 b83e
000000f0: 4e5d 453e 9c02 f23d 0c70 333e e0bf 4dbd
00000100: abdf ee3e fd73 91be 6a8e f23e 64fb 6a3e
00000110: 1d57 b2bd 3a1d 8a3e aea4 4e3c 23d1 2b3d
00000120: ba14 f83e bf30 3ebf 2a5a 223f 0c15 abbc
00000130: a078 063f 574f 723e ffe1 083e 4dbe 123e
00000140: c41e a9be 38a8 ffbe d2f3 5dbd 21e9 cfbe
00000150: 2ee8 ab3e 422b c2be 91d1 2b3e 46f5 833e
00000160: ba5d 55be 5ddd 8a3c fa8d 6a3e 9cba e2be
00000170: 3d3b 19bd 4242 22bd d868 84be e17e 143e
00000180: ff82 8c3d 205c 3abe c344 c43e fd4c ed3e
00000190: 55d7 99be 73ff 30be caa2 0a3e 2b04 183e
000001a0: d016 fc3e 01b7 fdbe ab56 893e f922 26bf
000001b0: f1bb 58be 9bdb c3be 7b4c bbbe 0b9e a83e
000001c0: 9770 ef3d 5337 42bf 70f4 c3bd 5ec2 93be
000001d0: d3f6 a43e 29bc c6be f256 7c3f d5ef 273f
000001e0: fa4d 87bc c831 36be 276c 32bf b6a7 02bf
000001f0: 217b d6bd ac95 e33e 249c 3a3f 40b5 98be
00000200: 80ad 333e 8186 c23e 4c65 8a3e 7c01 ccbc
00000210: 548d a83e bce4 db3e 6253 3fbf c7a7 96be
00000220: a871 a93e ec51 d3bd 2812 2b3e a420 ef3e
00000230: 403a 1e3d d47c 3bbd ca9c 133f 9e9d e2be
00000240: 479e c6be f8fa babe 0084 903d 6dd2 fa3e
00000250: d3e1 8dbe a1d0 bf3d be9d e0bd b3fa 48be
00000260: 42ac d7be 2593 09bb 1e1e 713e 3b4b 0abf
00000270: 7766 e23e 83ba 113e 6f3e ddbd 2f4d 25be
00000280: 11c8 24bf 41fd 0b3f 4101 87bd 7af4 dbbe
00000290: 8cc3 1c3e 55f0 96bd e295 593f e6e2 70be
000002a0: 29fc 92be 85a4 c03e 83b5 98be c10a b7bd
000002b0: 07f1 bebe 1333 82bd 38b4 0d3f 7a81 0dbe
000002c0: 4ece 903d f013 9bbe 8dcf d63d b902 9c3d
000002d0: 83fb 10be 6cc4 f8be e465 a43c 06a9 933e
000002e0: d594 f5be ef87 fdbd d855 6d3e 5b39 78bd
000002f0: 620c 213e ee7a 80be f89c 05bf f8a4 b23e
00000300: 297e b8be 5389 91bf f94e 073e 27dc c13e
00000310: 1ec9 6dbd 304c 99bd 6959 783e b44f 9bbd
00000320: 023e 763f 5acb b4be b9b2 dbbd eabd a03e
00000330: f0d4 e7bd 4b8a 1cbe f0c8 a1be 2def a23d
00000340: 7b16 e5be 1558 2f3e 25a6 ddbd bffd dd3e
00000350: 56eb 463f d650 ca3c b160 00bf 66cd 8abf
00000360: e680 953e fd25 86bd 2943 c2be f7d7 f33e
00000370: c200 7a3e 816a 7fbc ff28 e53e 79ed 74be
00000380: 3e70 a13e 0c8f b03d ba41 7dbe 7f6d 70be
00000390: e0cf b8bd 0e49 2c3f c665 b1be 4588 d63d
000003a0: 1ec0 f0be 2f01 073f 61f4 08bc 8b15 09bf
000003b0: fddb fb3e 0a85 bb3d 91c5 223f 5aa0 9abd
000003c0: 18a1 a5be f65b f73e 9df9 833e 031c 8ebe
000003d0: d8d3 5e3f 818b 793e 8d1e 893d 5ff1 7ebd
000003e0: 245d 84ba 827a af3d 64a9 5dbe 314a 86be
000003f0: ec8b 9ebe 849c b6be 7f70 943f bb3b df3e

gru1.bias_ih_l0 f4 [30]
-0.042821597 -0.18500261 0.09887024 -0.03829391 0.39869738 0.45334324 0.42710966 0.57711524
0.17795888 0.19082482 0.2841329 -0.41868094 -0.31324697 -0.56022656 -0.21549055 -0.5235894
-0.11309389 -0.16212882 -0.60209733 -0.3124949 -0.14262043 -0.5754435 0.1787972 0.3634214
0.21548125 0.14065795 0.16650161 -0.23014687 -0.1472793 0.0010870873
00000000: b365 2fbd 5371 3dbe 7b7c ca3d 13da 1cbd
00000010: 1022 cc3e 9b1c e83e 1eae da3e d3bd 133f
00000020: da3a 363e 9567 433e de79 913e 595d d6be
00000030: e861 a0be 026b 0fbf 8ea9 5cbe f409 06bf
00000040: c59d e7bd 1905 26be 0d23 1abf 55ff 9fbe
00000050: 170b 12be 4450 13bf 9d16 373e 5f12 ba3e
00000060: 1ea7 5c3e a308 103e 667f 2a3e 9fab 6bbe
00000070: 63d0 16be 997c 8e3a

gru1.bias_hh_l0 f4 [30]
0.120807745 -0.13467519 -0.04056538 0.11134767 0.36091837 0.16286753 0.6714424 0.2818427
0.103850074 0.19775149 0.03371429 -0.4099859 -0.14865716 -0.3329394 -0.61894935 -0.17251968
0.34010118 -0.5057611 -0.72761995 -0.25124627 -0.396349 0.1485081 -0.04830285 -0.26525524
-0.018351614 0.34370792 -0.14569941 0.024760427 -0.11725028 0.40815985
00000000: 0d6a f73d 4be8 09be e227 26bd 3f0a e43d
00000010: 4bca b83e bfc6 263e a6e3 2b3f b04d 903e
00000020: 59af d43d 5e7f 4a3e ff17 0a3d ace9 d1be
00000030: 9539 18be 0877 aabe 7773 1ebf 00a9 30be
00000040: be21 ae3e 8f79 01bf 4d45 3abf 5aa3 80be
00000050: 42ee cabe 8212 183e 36d9 45bd 89cf 87be
00000060: 2056 96bc 7cfa af3e 3a32 15be 61d6 ca3c
00000070: ea20 f0bd 54fa d03e

lin0.weight f4 [23, 10]
0.61348283 -0.6704364 -0.47983488 -1.0226048 0.60146606 0.23955785 -0.5162122 0.78362
-0.67610085 -0.6806728 0.62037003 -0.664524 -0.57764876 -1.022632 0.58566934 0.2570917
-0.53382003 0.81398714 -0.66994786 -0.71126604 0.2978426 -0.53043216 -0.21445729 -1.0733172
0.59821206 -0.044576142 -0.48817182 0.6206861 -0.7895237 -0.57134074 -0.3622237 0.84756905
0.80655736 -0.8844398 0.5858508 -0.9442932 -0.55100054 -0.42380506 -0.82055336 0.7038042
-0.065487534 0.8744138 0.7456162 -0.7543985 0.47115946 -0.944615 0.16608104 -0.13359457
-0.7666446 0.4335103 0.8321146 0.85270417 0.801959 0.47666228 -0.88670766 -0.8651801
0.734763 0.81848484 -0.7320987 0.695934 0.825674 0.7011279 0.8208038 0.63228804
-0.7140654 -0.7313201 0.5071699 0.8536562 -0.74499905 0.73723507 0.757469 -0.6599672
0.9218015 0.7806878 0.44599304 0.3326496 -0.54472035 0.8158307 -0.6899207 0.833485
0.7181735 -0.6172703 0.875307 0.77545255 0.4308362 0.3562662 -0.49712998 0.74897486
-0.6040936 0.7832583 -0.2907861 0.65384203 -0.7079897 0.85579634 -1.0389593 -0.9670837
0.70057124 -0.4375938 0.7058253 -0.96388644 0.008190985 -0.27752268 -0.6753042 0.8380762
-1.0922751 -0.8388089 0.5919588 -0.57669634 0.59391534 -0.96224946 0.7526103 -0.7151559
-0.5478799 0.686686 -1.1142086 0.3290835 -0.5063165 -0.75501126 -0.46858326 -0.8006825
0.730041 -0.7009539 -0.5935894 0.5976438 -1.1105263 0.29573482 -0.5295031 -0.76154166
-0.54413235 -0.76729107 -0.4602786 -0.89674705 0.61715996 0.5585341 -0.95823467 -0.7177444
0.58817524 -0.639649 0.63439965 0.5784809 -0.48525965 -0.8184805 0.65493053 0.6199442
-0.87090534 -0.75453746 0.67675126 -0.64073455 0.71881264 0.612279 -0.6575642 -0.37940052
0.21115957 -0.39130053 0.13700463 0.07086323 0.7229979 -0.5917217 0.8146943 0.7603078
-0.6030377 -0.58344007 0.33485407 -0.9041568 0.5599779 0.45460612 0.5203697 -0.5155276
0.7272508 0.70897144 -0.65478057 0.68344045 -0.6200495 -0.80461663 0.5564725 0.45703998
-0.3708152 -0.20418733 0.7839421 0.12528418 -0.6705245 0.8838417 -0.67442584 0.016835632
0.5581268 0.4150359 -0.6112117 0.8406106 0.77473766 -0.53887016 -0.62851477 0.7250791
-0.6347361 0.60592645 0.53796214 0.47500625 0.45568424 -0.23664656 0.7606782 -0.6242676
-0.5333381 0.65549374 -0.6268785 0.75660306 0.5365439 0.41975096 0.7598794 -0.5151
0.7193128 -0.69634485 -0.57312506 0.82790333 -0.6312946 0.79882836 0.5719357 0.46803305
0.7629614 -0.57781434 0.70788693 -0.72120625 0.20165917 0.03083384 0.075233504 -0.1578467
-0.3019086 -0.28313518 0.06720633 0.22112738 0.047166664 -0.05049736
00000000: 360d 1d3f b8a1 2bbf ebac f5be b7e4 82bf
00000010: aef9 193f a74e 753e 7c26 04bf 529b 483f
00000020: f214 2dbf 9340 2ebf 92d0 1e3f 3f1e 2abf
00000030: cae0 13bf 9be5 82bf 6dee 153f 86a1 833e
00000040: 6ea8 08bf 7661 503f b481 2bbf 8815 36bf
00000050: d37e 983e 67ca 07bf b19a 5bbe 7562 89bf
00000060: 6d24 193f 7995 36bd a8f1 f9be 49e5 1e3f
00000070: 3a1e 4abf 6343 12bf 6375 b9be 49fa 583f
00000080: 8b7a 4e3f a66a 62bf 51fa 153f 33bd 71bf
00000090: 5f0e 0dbf fafc d8be c90f 52bf 832c 343f
000000a0: 541e 86bd 95d9 5f3f b4e0 3e3f 4320 41bf
000000b0: d03b f13e 4ad2 71bf 2611 2a3e 04cd 08be
000000c0: d242 44bf 10f5 dd3e 7605 553f d24a 5a3f
000000d0: 2f4d 4d3f 140d f43e 46ff 62bf 717c 5dbf
000000e0: 6e19 3c3f 3988 513f d26a 3bbf bb28 323f
000000f0: 5f5f 533f 1e7d 333f 3320 523f a1dd 213f
00000100: fdcc 36bf cb37 3bbf e3d5 013f 3689 5a3f
00000110: 42b8 3ebf 70bb 3c3f 7de9 413f 9cf3 28bf
00000120: 2ffb 6b3f 28db 473f 3359 e43e 0c51 aa3e
00000130: cb72 0bbf 48da 503f a59e 30bf 465f 553f
00000140: 38da 373f 6d05 1ebf 1f14 603f 0f84 463f
00000150: 9096 dc3e 8668 b63e d287 febe d1bc 3f3f
00000160: e1a5 1abf 9e83 483f eae1 94be 3162 273f
00000170: d03e 35bf 7815 5b3f 9efc 84bf cc92 77bf
00000180: a358 333f 4b0c e0be f8b0 343f 43c1 76bf
00000190: 7b33 063c 7417 8ebe bce0 2cbf 298c 563f
000001a0: accf 8bbf 2ebc 56bf 9d8a 173f 5fa2 13bf
000001b0: d60a 183f fb55 76bf 12ab 403f 7514 37bf
000001c0: db41 0cbf a7ca 2f3f 639e 8ebf a27d a83e
000001d0: f59d 01bf 6b48 41bf 25ea efbe 87f9 4cbf
000001e0: f8e3 3a3f b771 33bf 7af5 17bf 2fff 183f
000001f0: ba25 8ebf 8e6a 973e 848d 07bf 65f4 42bf
00000200: 424c 0bbf 306d 44bf a3a9 ebbe 3791 65bf
00000210: 32fe 1d3f 17fc 0e3f de4e 75bf 19be 37bf
00000220: a792 163f 09c0 23bf 0468 223f 5317 143f
00000230: f473 f8be f087 51bf 87a9 273f aab4 1e3f
00000240: a7f3 5ebf 5e29 41bf 923f 2d3f 2e07 24bf
00000250: 1b04 383f 51be 1c3f 2156 28bf c940 c2be
00000260: 373a 583e 8b58 c8be f14a 0c3e be20 913d
00000270: 6416 393f 137b 17bf ce8f 503f 88a3 423f
00000280: ae60 1abf 545c 15bf fe71 ab3e d276 67bf
00000290: b65a 0f3f 22c2 e83e f336 053f 9ef9 03bf
000002a0: 1c2d 3a3f 277f 353f b39f 27bf f4f5 2e3f
000002b0: 90bb 1ebf 5bfb 4dbf fb74 0e3f 2501 ea3e
000002c0: 7ddb bdbe 7c16 51be 6eb0 483f 7f4a 003e
000002d0: 7ea7 2bbf 7343 623f 2ca7 2cbf e1ea 893c
000002e0: 66e1 0e3f 967f d43e 5f78 1cbf 4232 573f
000002f0: 3555 463f 65f3 09bf 58e6 20bf c99e 393f
00000300: 117e 22bf ff1d 1b3f e3b7 093f 0534 f33e
00000310: 724f e93e 7a53 72be cebb 423f 00d0 1fbf
00000320: d988 08bf 70ce 273f 1c7b 20bf bdb0 413f
00000330: f15a 093f 99e9 d63e 7587 423f 98dd 03bf
00000340: e224 383f a843 32bf 53b8 12bf 79f1 533f
00000350: 869c 21bf 0480 4c3f 616a 123f 07a2 ef3e
00000360: 7051 433f a4eb 13bf 1438 353f f9a0 38bf
00000370: be7f 4e3e 4097 fc3c 0614 9a3d 91a2 21be
00000380: c493 9abe 18f7 90be 79a3 893d 376f 623e
00000390: d531 413d 52d6 4ebd
