saved/pretrain_base_sighted_user_20_120/limu_v1.pt (torch, 259775 bytes, 29 tensors)

transformer.embed.lin.weight f4 [72, 6]
00000000: 52e8 3bbe 53c4 913e a6f3 97be 2de3 2abe
00000010: 69e7 a4be 0028 4abe 844e b0be 589a a93e
00000020: 8ca1 09be 46af 7fbd f17b 073e 389b 003f
00000030: 7d0d acbe ab20 c63e 82c2 1c3d 6af6 18bd
00000040: 6915 c8be 9765 c23e fc86 fabd edf1 4a3e
00000050: fccd a83e ad30 6bbd 843e 6cbe 93a9 f53e
00000060: 3057 ecbd bb9b d53c 8451 cf3e 3797 6b3e
00000070: c788 de3e 51bd 943e 3f8a e6be e4b0 d13d
00000080: 4866 7fbe fb43 8a3d a1c9 56be 8d6f 8fbe
00000090: ab8f ffbd d18d df3e 321c f0be 96d2 833e
000000a0: 7823 3c3e c21f 5dbc 7815 1c3f 8861 19bc
000000b0: af9f 0ebe c5a6 a7bc 665f 54bd 602d 1bbe
000000c0: 0ad6 bdbd bd3f babd f4d9 103e ae26 a33d
000000d0: 311e db3e 51e2 9abe 0b74 fe3e 3b27 d6be
000000e0: 8e4a e53d a693 a03d e746 61be aed8 f03e
000000f0: 1f93 623e 52d2 7dbe c26d 38bd c27e 34bd
00000100: fe33 cdbd 076f 253e 5019 b9be 6025 0cbe
00000110: af8a c6be 659b 163e 433b 52be b17e c9bc
00000120: 118f e43e 944d 69be 114f aa3d f5c0 a53e
00000130: 3bb1 d4bd b195 403b 6743 f33d 86b3 913e
00000140: 770c b73d 8aa6 c7be 7023 d3bd 0252 96be
00000150: f3c0 c93e 77d2 903e 25b8 f03d 4ba2 c43e
00000160: ad2e 773d d0d7 d0bd 644b 84be bda1 a1be
00000170: 862c 7c3e 785f d3bd b7a8 81be a7ef 37be
00000180: 26ae b9bd 5685 e53e 9c50 53be 4b17 92be
00000190: bb42 fb3d 1796 b7be ac3c 2b3e da6a 92be
000001a0: 419c d1be 998e c23e b7ce 84be 44d2 78be
000001b0: c3d3 33be 2995 063e 2ff2 483d 5353 b8be
000001c0: 38f8 1d3f 18dd cbbe f35b 533d f255 90be
000001d0: c4d9 833e c827 82bc ea97 bfbe a8b2 79bd
000001e0: 9990 dc3d 793c 963e 7a06 83be a986 85be
000001f0: 8a26 ab3d 8a27 36be e784 6d3e 13b8 8bbe
00000200: c3d3 1a3b 3d8b 003e f488 bf3c 638d 14bf
00000210: d0d2 16be 4de2 c9be c36e ca3e 1a2d edbd
00000220: a80d 2d3d de7c 78bd 2715 5abe c432 013c
00000230: 1af0 c3bb 5c48 82be 5f6c 3c3e fcfe cf3e
00000240: d8a7 31be 92ff ed3e 0960 fbbe efb6 8b3d
00000250: 7266 93bd 2c9f aebd 23e3 8abe e755 b2be
00000260: f5e2 f33c 9918 01be d3d2 5f3e 57a4 b43e
00000270: 3dfc b5be b889 eb3e fccf 2e3e f7e3 30bd
00000280: c89a 87be 191d af3e 6dd0 fe3d 61a4 bdbd
00000290: acf1 363e 659e b3be 3257 6cbe a2c2 0abd
000002a0: 11a5 003e c68d d23d b980 553e 73dd bdbd
000002b0: 2f28 dcbe 982c 19bf 53c6 76be b35f 2ebe
000002c0: 8e51 b33e f7bf a83d 9850 993d 9891 6c3e
000002d0: df1b b83d 5f87 0fbc 80a7 743e 0dae 19be
000002e0: ab62 a63e be1b f93c 7e8c 0cbf a9ac 9fbe
000002f0: e8f6 003f 7fc6 093c 38a9 fabe ec29 183e
00000300: 720e 413d 922e 24be 55c7 d33d f6e0 3fbe
00000310: 1104 e63e 7c3a 7dbd 17ea f13e b84c 603e
00000320: 169b d9bc 2123 7a3e b3b0 9a3c 1796 b3be
00000330: 2f77 9a3e a7b8 95be 6bd1 8b3e 30d1 79be
00000340: c719 353e adbc 853e 8162 033e 3bf9 d0bd
00000350: 9d3a be3e d9b7 0abd 6753 03bf a03d 70be
00000360: a6d7 533d 7ff4 4cbe 3627 c5bc 68d9 b03e
00000370: bff4 0e3e 075f 603e e9ee 733d cfd4 8ebe
00000380: 187a 0cbd 8098 a3bd de35 0cbe 4e4b 3b3e
00000390: 1e30 c63a 7ece 8a3e ae2a bf3e 14d3 88be
000003a0: 64c0 3ebe bc1a ea3e ce30 8dbe 24f9 bbbe
000003b0: 5a38 7abd 6fe0 a13e f226 9bbe 5424 013e
000003c0: 94d0 c6bd 98d5 c93e 97d3 7fbe 77c8 98be
000003d0: 5177 893e e6ac 31be cb33 e7be d533 df3e
000003e0: 21f1 433e 33ef 193e 4133 d9bb 7ad6 33be
000003f0: b391 adbe 902e 203d 8d92 6a3e 0c19 803d
-0.18350342 0.28470096 -0.29678077 -0.16688223 -0.32207802 -0.19741821 -0.34434903 0.33125567
-0.13440531 -0.062423013 0.13230874 0.50236845 -0.3360404 0.386968 0.038271435 -0.037344374
-0.39078835 0.37968132 -0.122327775 0.1981885 0.32969654 -0.057419468 -0.23070723 0.47980937
-0.11540067 0.026075235 0.4049188 0.23006903 0.43463728 0.29050687 -0.45027348 0.10238817
-0.24941361 0.067512475 -0.20975353 -0.28014794 -0.12478574 0.43662885 -0.4689651 0.25746602
0.18372905 -0.013496341 0.6097026 -0.009361632 -0.13928102 -0.020465264 -0.05184879 -0.15154028
-0.0926934 -0.09094188 0.14145643 0.07966362 0.42796472 -0.3025079 0.4969791 -0.41826805
0.11195861 0.07840662 -0.21999703 0.47040313 0.22126435 -0.24787262 -0.04502655 -0.0440662
-0.10019682 0.16155635 -0.36152124 -0.13686132 -0.38777682 0.14707716 -0.20530419 -0.024596544
0.446404 -0.227835 0.08315862 0.32373777 -0.103853665 0.0029386098 0.1187809 0.28457278
0.08937924 -0.38994247 -0.103094935 -0.29359442 0.3940502 0.28285572 0.11753873 0.3840507
0.060347248 -0.10197413 -0.25838768 -0.3156871 0.2462636 -0.103209436 -0.25324032 -0.17962514
-0.09066419 0.4482829 -0.20636219 -0.28533396 0.12268587 -0.35856697 0.16722363 -0.28597146
-0.40939525 0.37999418 -0.2593896 -0.2429896 -0.1756125 0.13142838 0.04905909 -0.3600107
0.61706877 -0.3981712 0.05160136 -0.2819057 0.2575208 -0.01588811 -0.3742059 -0.060961396
0.10769767 0.29343012 -0.2559088 -0.260793 0.0835696 -0.1778852 0.2319523 -0.27288875
0.0023624755 0.12553115 0.023380734 -0.5802824 -0.14728856 -0.39430466 0.3953763 -0.11580868
0.04224935 -0.060665958 -0.21297131 0.007885639 -0.00597955 -0.2544583 0.18400715 0.40624225
-0.17349184 0.46484047 -0.49096707 0.06822001 -0.07197274 -0.085264534 -0.27126417 -0.34831163
0.029771307 -0.1260704 0.21857767 0.3528163 -0.35544005 0.4600351 0.17071527 -0.043186154
-0.26485276 0.34201887 0.12442098 -0.092598684 0.17865628 -0.35081783 -0.23080137 -0.033877023
0.12562968 0.102809474 0.20849885 -0.09270754 -0.42999408 -0.5983367 -0.24099092 -0.17028694
0.3502316 0.082397394 0.07486075 0.23102415 0.08989691 -0.008760302 0.23892021 -0.15007801
0.32497153 0.030408736 -0.54901874 -0.31186417 0.5037675 0.008409142 -0.4895723 0.14859742
0.047132917 -0.1603339 0.10340754 -0.1873816 0.44924977 -0.061823353 0.4724891 0.21904266
-0.026563209 0.24427463 0.018883085 -0.35075447 0.30169055 -0.2924244 0.2730821 -0.24396205
0.17685615 0.2612051 0.12830545 -0.10203787 0.37154093 -0.033866737 -0.51299137 -0.23461008
0.05171933 -0.20015143 -0.024066549 0.34540868 0.1396055 0.2191125 0.059554014 -0.27896735
-0.034296125 -0.079880714 -0.13692424 0.18290445 0.0015120541 0.27110666 0.3733725 -0.2672354
-0.18628079 0.45723522 -0.27576298 -0.36713517 -0.061088897 0.31616542 -0.3030315 0.12611514
-0.09707752 0.39420772 -0.24983059 -0.29840443 0.26848844 -0.17351112 -0.45156702 0.43594232
0.19134952 0.15032654 -0.0066284244 -0.17562285 -0.33900222 0.039106905 0.22907467 0.06254777

transformer.embed.lin.bias f4 [72]
00000000: 7e77 c0be 2ef4 883e c015 723e 2bc7 c53d
00000010: f0e2 fcbd f2b9 8b3c 463c abbe 3555 90be
00000020: 3852 b73d bd43 65be 57d8 8d3e f6db b63e
00000030: 0b07 4a3e 3753 943e 4fb3 bb3e 52bb 043e
00000040: ae0e 27bd ed93 81be 1ea4 f2bb 14d0 3f3d
00000050: e36f cb3e 6f94 b53d a294 843e 3527 8c3e
00000060: ba8e a6be 72e6 58be a079 da3d 48bb 693d
00000070: d8cb ce3d fb47 5f3e b6d8 463e 9d05 c2be
00000080: 4bcb 5dbe 84aa ce3e bd23 78be bdf8 93bc
00000090: 0d31 803e c559 4bbe fa49 afbd 23d6 69be
000000a0: bc43 af3d 915f fe3d 42b9 50bd dfe9 703c
000000b0: f780 0abe be49 4bbd a04b c63d ceae 93be
000000c0: f890 a53e d377 903e 553e bcbe 4fcb 513e
000000d0: bbe0 5ebe 8089 943e 8097 cb3e 9bf4 e3bc
000000e0: fe88 9d3c 90cc bfbd 4ba3 ba3e 8fba a13e
000000f0: 75ef d73d 0ed3 c1bd 0e53 dbbd 3cf6 83be
00000100: c3f9 c83e dcc0 91be 3a26 333e 4360 ae3e
00000110: 19f8 bc3d a00e 7bbe 3635 913e 6a92 9bbe
-0.37591165 0.26748794 0.2364111 0.09657129 -0.123479724 0.01705644 -0.33444422 -0.28190008
0.08951229 -0.22389121 0.27704117 0.35714692 0.19729249 0.28969738 0.3666024 0.12962082
-0.040785484 -0.2530817 -0.007404818 0.0468293 0.397338 0.08866202 0.25894648 0.27373663
-0.32530767 -0.21181658 0.106677294 0.05706337 0.10097474 0.21804802 0.19418606 -0.37894908
-0.21659581 0.40364468 -0.24232383 -0.018062944 0.25037423 -0.19858463 -0.08559032 -0.22835593
0.08557841 0.124205716 -0.050957926 0.014704197 -0.13525759 -0.049630873 0.09682393 -0.28844303
0.32337165 0.2821642 -0.36766306 0.20487712 -0.21765415 0.29011154 0.39764023 -0.027826598
0.019230362 -0.09365189 0.36452708 0.31587645 0.1054372 -0.094640836 -0.10709201 -0.257738
0.39253053 -0.28467453 0.17495051 0.34057817 0.092270084 -0.24517298 0.2836091 -0.30385143

transformer.embed.pos_embed.weight f4 [120, 72]
00000000: a02f 09be 28fb e7bf 836e d4be 3a8f 5b3f
00000010: 6377 adbe 2905 6e3f d503 2b3f 0be7 d23f
00000020: b775 f7be 64f4 e1be 75d1 213e 36b2 1b40
00000030: 9a8f 4f3f 7e37 773f 8d74 de3d 6d79 9bbf
00000040: ff62 48be 59d8 73bd 8371 633f d5b8 133f
00000050: 9c64 db3f 8367 8bbf 61c2 bdbf 224c bbbe
00000060: 4049 a1bf a00a 9dbe 281c cbbe 635b d2bd
00000070: f471 09bc 30a7 c8bf 53b2 673d a36d 38bd
00000080: 6b58 8b3e 0a10 b23f 8299 4d3f 2a07 503e
00000090: 69a0 fb3a 452f 1040 5ac8 bcbf bbbc c4be
000000a0: 0afc d93e cffa a23f 3a45 4f3d b92d b03d
000000b0: b955 333f 6cb6 84bd b542 8c3d f7f5 ddbd
000000c0: d53e 0a3f c623 df3e c834 d73f 311e 7c38
000000d0: 5eca e5bf 13c1 83bf ffa0 b43e 31cc 20be
000000e0: 2c0c 73bc c654 febe 002b eabe e445 143f
000000f0: f7f5 11bf 5a68 8fbe 4d72 72be fbfb 833f
00000100: 83ac 89be 6fe8 e9be 219a cb3f f030 923f
00000110: a363 2bbf 7edd 8c3e 3913 bbbe bc53 8f3f
00000120: ad9b f0be 9b48 9bbd b5b4 86be 2b65 0fbe
00000130: 9df7 1bbe 0c45 863f 3feb 923f 04cd 2740
00000140: e2d7 3abf f9b4 0cc0 d99b 3bbf 4174 973e
00000150: f9cc a63f a0ca 3c3d 1733 543f b1fc bdbf
00000160: 28f0 5f3e 51b0 973f e34a df3f bee3 4a3f
00000170: 0e5e c2bd 2699 233f d18c bf3f 85c6 fd3d
00000180: 89c8 2a40 f1d6 8f3f bad4 14bf ccba fe3e
00000190: b12b 213c 74b5 a3bf f0e4 1640 1c64 c53e
000001a0: 4c03 783f 7ec8 823f f624 8fbf 6a04 733d
000001b0: a786 25be 1b25 adbf 7814 ebbe 0aaf c83f
000001c0: 59de cd3f b5b8 23bf c9c3 84bf 6695 3fbe
000001d0: acfe 3cbf e57a 1c3f af73 81bf e3a1 cd3f
000001e0: 2466 85bf 71a7 0140 ab70 9d3e 4bc6 b9bc
000001f0: cf18 0fbf 83c0 0440 bdc4 9dbe 998b 71bf
00000200: 807a ab3f e401 2b3f f526 6c3f 2cee c5bd
00000210: b06c 37bf da9f c83f 4d0f 9abf e08e 823f
00000220: 7e5d efbe cda8 533e 66e3 053f dd14 633e
00000230: 0910 923f 1f46 cebf 0a0c 80bf 5360 a53f
00000240: 801b 653f 262b f6bf 52ff 1cc0 6b77 2a3f
00000250: 17dd 8e3f 1ea0 3d3f 9905 b53f 26c6 733f
00000260: cf9f a7be 508a 48c0 5f55 b03f d60f 7f3f
00000270: 2698 35c0 62fa 00bd 055e f33d b9a8 7a3f
00000280: 5e10 fc3f 3c4d 883f ed13 08c0 43b5 9c3f
00000290: 776e d9be c96d 8f3f ca1a 19bf 68bd 893f
000002a0: af97 b13c bfc3 cc3f 5674 f33e 2c0e f2be
000002b0: 7571 e0bb 8d97 b0bd c5d1 b43f af52 afbf
000002c0: dafc a3bf 6173 36be 071a 35bf 4244 273f
000002d0: ac71 413f 2b46 2b3f e281 58bf 0752 9e3e
000002e0: 6dc7 0c3f 8034 9b3f b36f bebf 7d8d c93f
000002f0: eee0 893e b9ae 91bd 12ba ba3d d66c f73f
00000300: 8ed4 a43d 4940 083f 53c9 c4bf f660 73bf
00000310: 5c5b 523f 0d7b eebf d7c3 bdbe f28a bcbe
00000320: 2e40 9b3f 8b9f 8bbf a410 2b3f b31b 453d
00000330: 4fc1 663f d6a7 42bb 58f2 4e3d f3a2 0ac0
00000340: 0b24 abbd 0984 77bb 1080 3b40 6515 8d3e
00000350: 7155 223e a340 b4be 59ac 9abf 76ef 473f
00000360: ea43 5cbf 9c7f bc3e b394 5c3f fda7 a1bf
00000370: 597f 403e 336e 47bf 145b eb3e e83e 79bf
00000380: 6fad 06bf 76bb 8ebf eab8 38bf a092 f0bf
00000390: eebf eabe 8d57 efbd 6c06 9e3f 4a4e 04be
000003a0: bb7c 93bd 130d 9e3f daed ae3f 5717 923f
000003b0: fafe 1440 722b a53c ed75 6abf 5b88 e03f
000003c0: 0ab8 80be ba7f 86bf 78b2 65bf 13e7 d73f
000003d0: 1069 77bf 057d acbf 81c8 36bf 4404 d53f
000003e0: c7d0 733f 7761 443f 6f24 d0be 05dc 5a3f
000003f0: 7ea8 efbf 995f db3f 60b8 babc 7d10 293f
-0.13397074 -1.8123522 -0.41490564 0.8576542 -0.33880147 0.92976624 0.6680272 1.6476759
-0.48331997 -0.44131768 0.15802558 2.4327521 0.81078494 0.9656905 0.10862074 -1.2146431
-0.19569014 -0.059532497 0.8884508 0.57703906 1.7140079 -1.0890964 -1.4824945 -0.36581522
-1.2600479 -0.3067217 -0.3966992 -0.10271337 -0.008388985 -1.5676022 0.056566548 -0.045026433
0.27215895 1.3911145 0.8031236 0.20315233 0.0019197586 2.252885 -1.4748642 -0.3842524
0.42575103 1.2732791 0.05060313 0.08602471 0.7005268 -0.06480107 0.06848661 -0.1083793
0.54002124 0.4358198 1.6812983 6.01096e-05 -1.7952383 -1.0293297 0.3527908 -0.15702893
-0.014834445 -0.49674052 -0.4573593 0.57919145 -0.5701594 -0.280093 -0.23676415 1.0311273
-0.26889428 -0.45685145 1.5906411 1.1421185 -0.6694891 0.27512735 -0.36538103 1.1197429
-0.4699377 -0.07582208 -0.26309744 -0.14003436 -0.15231176 1.0489821 1.1478041 2.6218882
-0.7298566 -2.1985457 -0.7328468 0.29580882 1.3031303 0.046091676 0.82890457 -1.484274
0.21868956 1.1850682 1.7444729 0.79253757 -0.09490596 0.6390556 1.4964849 0.1239138
2.6684897 1.123747 -0.58137095 0.4975189 0.009837077 -1.278975 2.3577232 0.3855294
0.9688003 1.0217435 -1.1183155 0.05933038 -0.16164647 -1.3526949 -0.45914054 1.5678418
1.608348 -0.63953716 -1.0372249 -0.18709335 -0.738261 0.6112502 -1.0113429 1.6065029
-1.0421796 2.0258448 0.3075002 -0.022677561 -0.5589723 2.07425 -0.30814162 -0.94353634
1.3396759 0.6679976 0.92246944 -0.09664568 -0.7165022 1.5673783 -1.203592 1.0199852
-0.46751016 0.20669861 0.5230011 0.22175927 1.1411144 -1.6115149 -1.0003674 1.2920021
0.89495087 -1.9231918 -2.4530835 0.6658847 1.1161221 0.74072444 1.4142333 0.95224226
-0.32739112 -3.133442 1.3776053 0.9963354 -2.8374114 -0.031488784 0.11883167 0.979137
1.9692495 1.064857 -2.1262162 1.2242817 -0.4246709 1.1205379 -0.598065 1.0760927
0.021678774 1.5997237 0.47549695 -0.47276437 -0.0068494626 -0.08622656 1.4126517 -1.3697108
-1.2811539 -0.17817451 -0.7074284 0.6533853 0.75564075 0.6690394 -0.84573185 0.30921957
0.549918 1.2125397 -1.4877838 1.5746304 0.2692942 -0.07113404 0.09117521 1.9330089
0.08048354 0.5322309 -1.5373939 -0.95069826 0.82170653 -1.8631302 -0.37063476 -0.36824757
1.2128961 -1.0908064 0.66822267 0.04812212 0.90138716 -0.0029702089 0.050524086 -2.1661956
-0.08356484 -0.0037767908 2.9296913 0.27555385 0.15852906 -0.35205564 -1.2083846 0.78099763
-0.8604113 0.36816108 0.86164397 -1.2629391 0.1879858 -0.77902526 0.45967925 -0.9736161
-0.5260839 -1.1150959 -0.72157156 -1.8794746 -0.45849556 -0.11686621 1.234571 -0.1292049
-0.07201525 1.234774 1.3666337 1.1413373 2.3280625 0.020162318 -0.9158619 1.7541612
-0.2514041 -1.0507729 -0.89725447 1.6867393 -0.9664469 -1.3475653 -0.71399695 1.6641927
0.95240444 0.7671122 -0.40652797 0.85491973 -1.8723295 1.7138549 -0.022792995 0.66040784

transformer.embed.norm.gamma f4 [72]
00000000: 2a81 793f 2fd3 813f 3747 773f 2748 833f
00000010: 8a1a 8e3f b2e5 823f 844a 6d3f 62bd 753f
00000020: e6e3 843f 341a 843f 8924 8b3f 3e02 833f
00000030: 9e1d 7a3f 9613 853f 671a 733f fb1c 7d3f
00000040: 79bb 733f 2658 6d3f 8169 943f 3772 713f
00000050: cb31 843f aacf 833f dea7 723f 7909 6f3f
00000060: 4402 793f aa05 783f 4f8a 833f 8352 6d3f
00000070: 6112 803f 0212 733f 4a4e 753f 402d 8e3f
00000080: 960c 7c3f b779 7b3f 8c81 853f d6a8 8d3f
00000090: 8682 713f 779b 753f 7dd6 8e3f d8fc 703f
000000a0: 43f8 7a3f 9936 6c3f 53c8 893f 66dc 933f
000000b0: 85f8 7d3f 44e9 833f dd83 8a3f 04e3 5b3f
000000c0: 5887 823f b2e2 693f 78eb 683f 43e7 7e3f
000000d0: 3295 763f a55e 733f d356 763f 371e 853f
000000e0: 3300 7f3f 2357 793f f763 803f e5d8 813f
000000f0: 17e3 813f cb6c 883f d0eb 753f 5dfd 823f
00000100: 0625 7e3f 4a8c 823f a0a1 833f eb8c 853f
00000110: 3be7 833f 9000 783f bbf2 7c3f 0bf0 6c3f
0.97462714 1.0142573 0.9659304 1.0256394 1.1101849 1.0226347 0.92691827 0.959921
1.0382049 1.0320497 1.0870525 1.0235059 0.9770144 1.0396602 0.9496216 0.98872346
0.95207936 0.9271263 1.1594697 0.94314903 1.0327696 1.0297749 0.94787395 0.9337383
0.9726908 0.9688364 1.0276583 0.9270403 1.0005609 0.9494935 0.95822585 1.1107559
0.98456705 0.982326 1.043016 1.106715 0.9433979 0.95940346 1.1159207 0.9413581
0.9803507 0.9227081 1.0764259 1.1551635 0.99207336 1.0305562 1.0821491 0.85893273
1.0197554 0.91361535 0.90984297 0.9957163 0.96321404 0.9506629 0.96226233 1.0399846
0.9960968 0.97398585 1.0030507 1.0144316 1.0147427 1.0658201 0.96062946 1.023357
0.99275243 1.0199063 1.0283699 1.043363 1.0304941 0.9687586 0.9880788 0.92553777

transformer.embed.norm.beta f4 [72]
00000000: c7d3 0d3e bda3 69bd 42da 92bd fd81 05bd
00000010: d72e 2b3c 75e8 3b3d 1dc0 ea3d 0627 d13d
00000020: 5c17 1bbd 79a2 a63d 48d8 e4bc 6464 b8bd
00000030: dd0c 38bd d244 a3bc b6ed 28bd 2122 d2bd
00000040: 4238 5d3d ebd2 d53d 895d 293b b389 94bd
00000050: 9ef9 72bc c6a8 aabc ef94 02be 625c b5bd
00000060: 8922 153e 4464 9a3d 6d29 b4bc 6b30 cebc
00000070: 1bf9 c7bc 317f cbbd a57d 73bd e3b6 873d
00000080: e76e cf3d 2c4f 83bd d20a 0f3d 06bc 26bc
00000090: efcd d4bd 63ff 603d 0b5c c1bc 03ef 5b3d
000000a0: d25f 203b d63c e0bc 7b0e 5d3c cc4f b9bb
000000b0: 01c7 153d 792c 8c3d fe0b af3c 1ae1 e03d
000000c0: 2ea4 8abd 15d5 a7bd 826d bd3d 4086 4abe
000000d0: cd8f 9c3d 7bfd a2bd bc3a a2bd f592 73bd
000000e0: a678 573d 3d88 b83d d77e 43bd 236d 62bd
000000f0: 2b5b 9cbc 0248 513c 9a79 563d b9f8 c63d
00000100: 8f20 d3bc 0ba7 463d e7ee b03c 2925 57bd
00000110: 3863 23bd 5ab2 593d 3a2f 40bd 17ac 683d
0.13850318 -0.05704092 -0.071705356 -0.03259467 0.010448179 0.045875985 0.11462424 0.10212521
-0.037864074 0.08136458 -0.027935162 -0.09003523 -0.044934142 -0.019930277 -0.041242324 -0.10260416
0.05400873 0.1044062 0.0025843105 -0.072528265 -0.014830021 -0.02083243 -0.12752126 -0.08855511
0.14563955 0.075386554 -0.02199241 -0.025169572 -0.024410775 -0.09936369 -0.059445996 0.0662668
0.10128575 -0.06411585 0.03492243 -0.010176664 -0.10390841 0.054931056 -0.02360346 0.053694736
0.0024471176 -0.027372759 0.013492222 -0.0056552645 0.036566738 0.0684442 0.021368023 0.10980435
-0.06769596 -0.08194939 0.092494026 -0.19777775 0.07644615 -0.07958504 -0.07921359 -0.05946632
0.052605294 0.090103604 -0.047728386 -0.055279862 -0.019086441 0.012773516 0.052362062 0.09715409
-0.025772361 0.04849915 0.021598293 -0.052525673 -0.039889544 0.053148605 -0.04692004 0.056804743

transformer.attn.proj_q.weight f4 [72, 72]
00000000: d2a3 9bbc 865e 8e3d ae61 1fbc f582 003e
00000010: db42 ca3c c08e 59bc b776 c2bd 13b1 e3bc
00000020: a015 cd3d f83d bfbc 4bf0 8ebb cd0b 04be
00000030: 66b9 8f3d f393 41be ba7c 50be 9164 1a3b
00000040: 423a 5abd cb0f 39bc e9ed 99bd 1729 d3bd
00000050: ba5d fe3d 180d b6bd f982 fc3d 932a 9c3d
00000060: 9aaa 83bd b04d dd3d e500 0f3e 4f0f d8bb
00000070: a6a7 c73d 614d 0c3e a111 9fbd 1507 d33c
00000080: 4c5f e63c 5b5c 98bc 76f8 8b3d 9b52 3ebd
00000090: 5767 8ebd 192e ca3d 97f0 ef3c 5aef 843d
000000a0: a2e3 0fbe 0275 3cbd 8752 053e e6ad 6bbd
000000b0: 4d51 b2bc 7d15 233e 9dc0 963d eec0 c73d
000000c0: 00a6 d33c 40fc 903c dd84 bb3d 0f70 033d
000000d0: 0284 343d 5fab e6bc c93a a6bd 2c92 683d
000000e0: cb24 a43d be33 d8bd 2441 1f3e ecb4 21bc
000000f0: 1401 87bd 39d4 debd f538 a7bc 862a 2c3d
00000100: c8b4 e43d 97df ec3d 478a 6abe 2d89 e13c
00000110: 3518 39bd 1282 003e 15ee 933d b4e2 e9bd
00000120: 9dfa ab3d a7a3 a43b 836b 063d 5216 f2bd
00000130: 0eab 0bbe 3cbc fbbd e525 41bd f980 27bc
00000140: 4080 fe3d 18f9 c6bd f13f ab3d a522 193d
00000150: 8ba4 fabc e263 9bbd 494d 4ebd e48e cfbc
00000160: d2f2 bebd 8439 42bd 148d 84bd b03e f1bc
00000170: b6c1 f1bd 2fd6 30bc 18fc debc 9c99 71bd
00000180: cd74 433d 690f e63d 8831 c8bc e896 9d3d
00000190: 11f7 87bd 8848 e33d 4785 80bd aeec f1bd
000001a0: b137 1c3d bfcf c5bb 8c82 0c3e 2d7c ba3c
000001b0: 1633 6b3d e0fa 3cbc 143c cabd 08d6 c9bc
000001c0: d4a0 023e dceb 01be 8eb1 2abc ae83 afbd
000001d0: 5dd0 1e3d 89cf 0cbc 965e bc3d 2764 063e
000001e0: fd19 3f3c 6894 e8bd 19be 363d a1f5 b63c
000001f0: ac98 6abb 181b 8fbd 7ed6 a43d 512a e3bc
00000200: 260b 973c ad56 f6bd d20d 5b3d efc9 063e
00000210: 80ab ba3c 4255 87bd 6369 813d 3cd5 6a3d
00000220: 6234 bc3d 3a6e 01be 01dc 543d a697 a3bc
00000230: 1f41 293e 5ba6 403d 5743 ba3d ea42 7fbd
00000240: 25eb 0b3d f1a9 5b3e 2ac6 a1bd fa42 4c3d
00000250: 10f3 cbbb 0a31 f3bd f709 93bd 7e19 4ebd
00000260: 577d a9bd 701c b4bd 4984 b6bd dbbd 803d
00000270: 5a8c 17be 13c0 523e 37ae 5bbd 10ba 813c
00000280: ddef 0d3d 10e8 4d3d 9dd6 78bd 3a7e ce3d
00000290: 6f86 91bc b593 acbd 7947 0bbd f563 1a3c
000002a0: af75 c53c ee37 54bd 2bd6 b23d 2ee7 8cbd
000002b0: 69c6 ed3c 59fc f1bd 4bb2 4dbd 3cfa 493c
000002c0: cca5 3fbd 0ca5 03be c5e2 56bc 94c1 063e
000002d0: e5c1 7fbd 04ee e13b b5b1 a73e 0abb d63c
000002e0: a1b9 593e 374c 3bbe 143a 4e3e a889 243e
000002f0: 9e53 ecbc cb4d 8f3d e2d6 3b3c 7fd0 86bd
00000300: 4ddf 28bd abc3 ccbd bf95 aaba 26af f23b
00000310: 7858 fdbc ffb9 80bd 7afc 88bc 79e8 d9bd
00000320: 4287 0b3e fda2 00be 2221 3ebe 1140 573d
00000330: 6991 063e fc69 e5bc 3755 923d 4f9c ab3b
00000340: 4ae1 15bd 4cb0 a3bd 4fd5 54bd 6609 253e
00000350: 64c4 783e c6d8 f9bd 7f9e 2fbe 7c57 5e3d
00000360: 42dd 7a3d ce22 b3bc 15b6 b13d 2341 52bc
00000370: 52df 2d3c cf1e 20bd e89f ad3d 420c c93c
00000380: 54da 2e3e a645 383d c843 023e a5bd 76bd
00000390: 98a4 13bc 2e91 e6bd 8b9e 30bd 9617 813c
000003a0: e36a 1bbe 2107 20bd 96e4 aabe 1ab5 3a3d
000003b0: bfad 3cbd c08c 283e b572 af3d 0736 103d
000003c0: 0898 423d 3080 3139 49dd c1bc 0e95 c4bd
000003d0: fd3e a53d ed02 dbbc 4021 12be abcf 1dbd
000003e0: cc44 553d 639b 273d 99f3 1bbe 1af5 5a3d
000003f0: 744a bb3d 8c5e 47bd 356d fdbc c6c6 bf3d
-0.018999014 0.06951623 -0.0097278785 0.12549956 0.024690082 -0.013278663 -0.09495299 -0.027794397
0.1001389 -0.023344979 -0.0043621412 -0.12895127 0.07017784 -0.18904094 -0.2036008 0.0023558477
-0.053278215 -0.011295269 -0.07516081 -0.10310572 0.12420221 -0.08889216 0.123296686 0.07625308
-0.06429024 0.10805833 0.13965185 -0.006593622 0.09748773 0.13701393 -0.07767034 0.025760213
0.028121613 -0.018598726 0.068344995 -0.046465497 -0.06953304 0.09872074 0.029289527 0.06490965
-0.14051679 -0.046010025 0.13019763 -0.05753889 -0.021767283 0.15926166 0.07360957 0.09753595
0.02583599 0.017698407 0.09156201 0.03208929 0.044071205 -0.028157888 -0.08116681 0.056780025
0.0801483 -0.10556744 0.15552193 -0.009869795 -0.065920025 -0.10880322 -0.020412901 0.04203274
0.11167294 0.11566084 -0.22904311 0.02753123 -0.0451891 0.12549618 0.07223145 -0.11420193
0.0839741 0.0050243917 0.032817375 -0.118206635 -0.13639471 -0.12291762 -0.04715528 -0.010223621
0.124268055 -0.097154796 0.08361805 0.037386555 -0.030596038 -0.075874105 -0.050366674 -0.02533669
-0.09323658 -0.047418132 -0.06472221 -0.029448837 -0.118045256 -0.010793253 -0.027219817 -0.058984384
0.04771881 0.11233408 -0.02443768 0.07694799 -0.06638921 0.110978186 -0.06275421 -0.11812721
0.03813905 -0.006036728 0.13721675 0.02276429 0.057421766 -0.011534423 -0.0987474 -0.02463819
0.12756664 -0.1268763 -0.010418309 -0.08570038 0.03877293 -0.008594402 0.09197728 0.13124143
0.011663911 -0.11356431 0.044614885 0.022333922 -0.0035796566 -0.069875896 0.08048724 -0.027730139
0.018437933 -0.12028251 0.053479977 0.13162969 0.022786856 -0.066080585 0.06318929 0.057332262
0.09189679 -0.12639704 0.051967625 -0.019969773 0.16528748 0.04703365 0.09094875 -0.062319674
0.0341598 0.21451546 -0.07899125 0.04986856 -0.0062240437 -0.11874588 -0.07179635 -0.05031728
-0.0827586 -0.087944865 -0.0891195 0.06286212 -0.14799634 0.20581083 -0.05363294 0.015835792
0.03465258 0.05027014 -0.060751546 0.100826696 -0.017764298 -0.084266104 -0.03400371 0.009423246
0.024103967 -0.05181115 0.087322555 -0.068800315 0.029025273 -0.118157096 -0.05021886 0.012327727
-0.046788976 -0.12855929 -0.0131155895 0.13159782 -0.06244077 0.0068948288 0.32752767 0.026212234
0.21262218 -0.18290792 0.20139343 0.16068137 -0.028848466 0.0699726 0.011464806 -0.06582736
-0.04122858 -0.09998258 -0.0013014599 0.007406133 -0.030925974 -0.06285476 -0.016721953 -0.10640044
0.13625816 -0.12562175 -0.18567327 0.052551333 0.13141407 -0.028004639 0.0714516 0.0052371393
-0.036591806 -0.0799261 -0.05196124 0.16116866 0.24293667 -0.121995494 -0.17150305 0.05428265
0.061246164 -0.021867182 0.086773075 -0.012832913 0.010612326 -0.03909188 0.08477765 0.024541978
0.17075473 0.044988297 0.12721169 -0.060239453 -0.00901141 -0.112581596 -0.04311995 0.015758317
-0.15177493 -0.0390693 -0.33377522 0.04558287 -0.046064135 0.16459942 0.085668005 0.035207774
0.04750827 0.00016927789 -0.023665087 -0.095987424 0.08068655 -0.026734794 -0.14270496 -0.038528126
0.052067563 0.040919673 -0.15229644 0.053456403 0.0914506 -0.04867415 -0.030935863 0.09364085

transformer.attn.proj_q.bias f4 [72]
00000000: 382c 993c b06c 173d 8b03 ee3c 8a65 f53b
00000010: f6ed bfbd 4bf7 6c3c fcea cb3b cb55 a13d
00000020: cefb 18bd 6107 14bd c8c0 813d 6b90 0cbe
00000030: ca06 83bd 66f2 4ebd ddf3 eb3d ff8f e7bd
00000040: 8012 923d b053 233e d3a5 cf3d 0eb4 443d
00000050: c2cc a23c b1de 82bd 5f91 243d 5f3f d8bd
00000060: cdc8 e83d 5d72 cf3c 90a9 b63c c2b5 70bd
00000070: ba32 32bd d891 0b3e eb34 5dbd 6a5c d2bd
00000080: a6fe 17bd c429 76bd 31fe e63b f8d1 bbbd
00000090: 2d9c e03d f652 94bc 77c4 7d3d 1a88 fa3b
000000a0: e781 59bc f15d 3abd 12d9 a0bc 759c 2a3e
000000b0: 815e b8bc efd5 d0bd 38c9 213d 933c d43d
000000c0: 18b6 6ebe 7820 3bbe 57c9 a4bd 6cfe a0bd
000000d0: 514d da3c 416c 353e b98c e63d 558c ba3b
000000e0: d664 aa3d 0d31 c73d 18e3 59bd f16f 16be
000000f0: b6f5 f8bc 776a 30be 9037 9bbc f016 87bb
00000100: d9ae 33bc 67f1 f5bd de6e 2e3e 9f25 dc3d
00000110: b596 ffbc e28e ad3d 465d eabd b639 7dbd
0.018697843 0.036968887 0.029054424 0.007488911 -0.09371559 0.014463256 0.0062230807 0.07877692
-0.037349515 -0.03613985 0.06335598 -0.13726966 -0.06397779 -0.050524138 0.115211226 -0.11306762
0.07132435 0.15949893 0.1013905 0.048023276 0.019873027 -0.06390131 0.0401777 -0.10558962
0.11366425 0.025323087 0.02229765 -0.058767088 -0.043505408 0.13629854 -0.054005545 -0.10271533
-0.037108086 -0.060098425 0.007049345 -0.09170908 0.10967288 -0.018105965 0.06195494 0.007645619
-0.0132756 -0.045499746 -0.019634757 0.16661246 -0.022506 -0.101970546 0.039498538 0.10363116
-0.23311651 -0.18274105 -0.08046215 -0.07861027 0.026648195 0.17717077 0.112573095 0.0056929984
0.08320014 0.097261526 -0.05319509 -0.1469114 -0.030390602 -0.17228113 -0.018947393 -0.0041226074
-0.01096698 -0.120089345 0.1703448 0.10749363 -0.031199792 0.08474518 -0.11443572 -0.061822616

transformer.attn.proj_k.weight f4 [72, 72]
00000000: 005e f53d cb32 77bd 68bd 22bd 0e01 113d
00000010: 7444 093e f5e5 f4bd dd1f 083c 2017 c3bc
00000020: 583b c3bd 516d d83d 48de cabd 2f68 2dbe
00000030: acf9 1ebe ed18 7fbc 57d2 d7bc de5e 563d
00000040: ebd5 083d f4fa 8dbd cabf 66bd 71c9 a2bd
00000050: 9091 7fbd c104 3bbd 9b6e 0f3e e3d3 30bd
00000060: a8b6 e3bc 3949 3dbd bc83 e63d a1fd 86bc
00000070: 885d c0bd d81f 6d3c 6c9b 11bd a719 1cbd
00000080: 530d 773d b4f5 343c 1fc9 943d 1dd1 96bc
00000090: bebf 0d3d 7dc7 c13c 8944 21bd 484c 073e
000000a0: 0872 9f3d 5a5f 333e f582 59bd dc05 58bc
000000b0: 8909 36bd 68b5 ec3d ed1d 883d aaa9 a1bd
000000c0: 9aec 93bd a493 e63d 854a 0f3d f7d1 863d
000000d0: 2650 203c 7381 d8bd b1d2 40be b06e 23bd
000000e0: 5d8c ee3d 6958 ca3d f58a ccbd 7fa2 89be
000000f0: 51ba 19be b913 cdbc 8619 81bc a767 c6bc
00000100: 9c18 3cbe 5fcd 983d 70ae 30bd e287 fbbd
00000110: 1ec2 e3bd b08f 06bd e3de 04be ff14 263e
00000120: 30e9 03bd 1285 02bd 55d8 75bd 6943 6bbd
00000130: a9d4 9ebd 21dc 7a3c 6fa9 b0bc 92a4 7fbd
00000140: 043d 21bd a0d7 0a3e 3187 c13d d5c1 c3bd
00000150: a874 bcbd 819f 35bd 6c5d 853d 686e 173e
00000160: db29 fb3c 2580 fa3d 93b4 d43d e4b8 953d
00000170: fdc8 a93c b67a 7abd 74a5 5cbd c996 afbb
00000180: 94bb b7bd 0bb2 8fbd 0566 a53a d3fe 64bc
00000190: 9719 3a3e bef6 563d dd0d ffbd 24ad 41bd
000001a0: 7fd2 2b3c e512 ed3c 6cd1 a4bc 0668 96bd
000001b0: 4042 2e3d 23b4 963d c923 48bd a8ac 12be
000001c0: 9df7 353d dfe5 18be eb38 4bbc 5223 23bd
000001d0: 3b6d 6cbd c2fe 013e 4c4a ba3d 1217 3d3d
000001e0: 8a14 503d b00e 71bd 4da8 7a3b 4ce7 0a3d
000001f0: f03b a6bd a221 91bc c319 523d 7392 ffbd
00000200: 91e5 343c b158 b43d 7f48 e73c 703f c43d
00000210: 03bc b2bd aea8 d7bd 4956 97bd 0583 de3d
00000220: dde8 64bd 9e80 493c bb5e c0bd 0b2e 3a3d
00000230: 4b3b 033e f1a5 33bd 4e56 193d 61fa 9b3d
00000240: 534e 7c3e 3bb5 1d3c 2861 00be e59e 003d
00000250: f88e 36bd 245a 953c 7056 31bb ea74 3fbd
00000260: 6ddf 4bbd 7c84 26bd 6abf 3dbe 9488 aa3d
00000270: f523 6bbe c1c6 b1bd c46a c13c c0e7 aa3d
00000280: 1f40 533d 1417 6abd a696 fbbc 14e1 c93b
00000290: fc15 ac3d 9172 fc3c acbb 33bd 10b8 863d
000002a0: 140b 773e 41df cc3d 1aac af3d 2d18 a4bc
000002b0: 8b96 1d3e 32a9 103c f7ce 58bd bcba 483e
000002c0: cc56 d4bc 8ca0 81bd 3317 02be 76c5 74bd
000002d0: a606 6ebd f783 f83d 9b3e 953d 9a85 9e3c
000002e0: e620 c93c 8a90 dabd 0427 4c3e 3dae db3d
000002f0: 6c5c 98bd 1808 ba3d 923d 14be f554 033d
00000300: 7af2 a13c f182 64bb bbec b2bd 184b f2bd
00000310: 3b56 1fbe 8d4e 793d 2133 8dbe 7c81 053e
00000320: 806f 8cbd 71f0 ee3d baec d1bd 6d18 293c
00000330: 96a5 0d3d 5d88 e9bc 6f14 04be b280 b63c
00000340: dfd0 cb3d cd16 2f3e 0632 333d e570 33bd
00000350: a131 e6bc 4f33 793e e7d9 c33d a8a9 123e
00000360: 061e 48be 15ff 5a3d d60e 1b3e bae4 e93d
00000370: 6ee0 e6bd a249 eebd 5d6e b7bd 2aba 39be
00000380: a44e 5d3d 957e a03b 604e 163e 4b85 6c3c
00000390: f779 ecbc e2d8 58bd aef3 e33d 2efa 943c
000003a0: 6d01 a6bd 088f c53d a056 923d a1e0 1a3e
000003b0: af22 b43d e316 183e 00a1 993b 1674 99bd
000003c0: 54b9 3ebe 40c7 24bd 5ff7 fbbd 4251 5a3d
000003d0: c368 103e d20f 003d 5223 02bd 0a1d c23d
000003e0: 920e a8bc d4a8 573d 00e4 e03d e1ac efbc
000003f0: e670 3a3c b5e4 a83d 0e24 e9bd edfe 9dbd
0.1198082 -0.060351174 -0.039731413 0.035401396 0.13405019 -0.11957923 0.008308378 -0.023814738
-0.09532803 0.105677254 -0.09905678 -0.16934274 -0.1552493 -0.015569908 -0.026345415 0.052336566
0.033407133 -0.06932631 -0.056335248 -0.07948578 -0.06239468 -0.04565883 0.14007036 -0.04317082
-0.027797058 -0.04621241 0.11255595 -0.016478362 -0.0939284 0.014472924 -0.035548612 -0.0381104
0.06031544 0.011044908 0.07264923 -0.01841026 0.034606688 0.023654694 -0.039372 0.13212693
0.077854216 0.17516842 -0.053103406 -0.013184991 -0.044442687 0.11558038 0.06646333 -0.07893689
-0.072228625 0.11258629 0.034983177 0.06583016 0.009784734 -0.105715655 -0.18830372 -0.03990048
0.11647866 0.09880144 -0.099874415 -0.26881787 -0.1501248 -0.025033819 -0.01575924 -0.024219347
-0.18368763 0.074610464 -0.043135107 -0.12281777 -0.11121009 -0.032851875 -0.1297565 0.16218947
-0.032204807 -0.031865187 -0.060020763 -0.057437334 -0.077554055 0.015311272 -0.021565167 -0.062412806
-0.03936483 0.13558817 0.09449614 -0.09558455 -0.09201938 -0.044341568 0.065119594 0.1478821
0.030659607 0.12231473 0.10386004 0.07310656 0.020725721 -0.061152183 -0.053868726 -0.005358551
-0.089713246 -0.07016381 0.0012618905 -0.01397677 0.18173824 0.052481405 -0.12453816 -0.04728426
0.010487198 0.028939674 -0.020119391 -0.0734406 0.04254365 0.07358577 -0.048862252 -0.14323676
0.044425596 -0.14931439 -0.012403707 -0.039828606 -0.057721358 0.12694839 0.09096202 0.04616458
0.050800838 -0.058851898 0.0038247288 0.03391199 -0.08116901 -0.017716233 0.0512941 -0.12479105
0.011041061 0.08805979 0.028232811 0.09582412 -0.08727267 -0.1053022 -0.073895045 0.10864834
-0.05588614 0.012298731 -0.093930684 0.045454066 0.12815587 -0.043859426 0.037435822 0.07616115
0.24639253 0.009625728 -0.12537062 0.031401534 -0.04456994 0.018231459 -0.0027059577 -0.046742357
-0.049773622 -0.04065369 -0.1853005 0.083268315 -0.22962935 -0.086804874 0.02361048 0.08344984
0.051574823 -0.057150915 -0.030711483 0.0061608646 0.08402631 0.030816348 -0.04388015 0.06578076
0.2412532 0.1000352 0.08577748 -0.02003106 0.15389459 0.008829402 -0.052931752 0.19602484
-0.025920294 -0.0632945 -0.12704162 -0.059758626 -0.05811181 0.12134545 0.07287332 0.019350816
0.02455182 -0.106721 0.19936758 0.10726593 -0.07439503 0.09083575 -0.14476612 0.032063443
0.019768942 -0.0034868086 -0.08736559 -0.11830729 -0.15560238 0.060865927 -0.2757807 0.13037676
-0.068572044 0.11666954 -0.1025023 0.010320765 0.034581743 -0.028507406 -0.1289842 0.022278164
0.099519484 0.17098542 0.043748878 -0.043808836 -0.028099837 0.24335979 0.09563046 0.14322531
-0.19542703 0.05346592 0.15142378 0.11420579 -0.11273275 -0.11635138 -0.08956597 -0.18137422
0.054030076 0.0048979023 0.14678335 0.014436076 -0.028866751 -0.05294121 0.111304626 0.018185701
-0.08105741 0.09646422 0.07145429 0.15124752 0.08795678 0.1485248 0.004688382 -0.07492845
-0.18625385 -0.040229082 -0.12303042 0.05330015 0.14102463 0.031265087 -0.031771965 0.09478195
-0.02051476 0.05265124 0.109809875 -0.02925724 0.011379456 0.082467474 -0.1138383 -0.07714639

transformer.attn.proj_k.bias f4 [72]
00000000: e79f 43bd b6b7 21bd 7276 873d f1b5 7c3d
00000010: 5afe 8ebc a995 3b3d cad5 18bd f772 443d
00000020: 39e1 3d3d 5b24 6d3d e25e 14bd 9940 273d
00000030: d376 bc3c 180f ad3d bd6c c63c aeb2 a83b
00000040: 6fe1 a23d a2b4 e53d a250 88bd 6948 253d
00000050: 8482 9e3d a4e1 6eba 490d cfbc 3087 abbd
00000060: 03ba 80bd 6075 cfbd 9edf aebd c8f0 c8bd
00000070: 7afe b63d d964 2c3d 3e5e f13d bbf7 ab3b
00000080: 7ce5 0a39 b08f 643d dfa2 babd 9fb4 fabc
00000090: 4577 6b3d 6c7c d23d a122 9d3d ceae da3c
000000a0: 7bee e83c 8ff8 1bbd 5ed9 9f3d e4a1 a0bb
000000b0: 3298 2d3d 68a9 c0bc 6d16 a83c b7d9 f2bd
000000c0: 8d88 96bc 2a30 ae3d a5e3 1d3c ae77 e63d
000000d0: 461e c8bd f226 59bd 339c cebd 18d2 8b3d
000000e0: 85e6 bfbd b10a 8cbc db1c 963d e28d 15bd
000000f0: 70d4 ac3c 5064 84bd 2dff a5bb 5caa 43bd
00000100: 1933 69bd 5377 a4bc 327a a33d 813b 8c3d
00000110: 5c14 68bd 1f0c 943d 2c97 c83d f654 12bd
-0.047759917 -0.03948184 0.066143885 0.06169695 -0.017455269 0.045797024 -0.03731326 0.0479612
0.046357367 0.057896 -0.0362233 0.04083309 0.023005879 0.084501445 0.024221772 0.0051482534
0.07953154 0.112160936 -0.066560045 0.04035226 0.07739738 -0.00091126026 -0.02527489 -0.08375394
-0.06285479 -0.101298094 -0.08538745 -0.098115504 0.08935256 0.042088363 0.117855534 0.0052480376
0.00013246195 0.055801094 -0.091130964 -0.030603705 0.05748679 0.10277638 0.076726206 0.026694681
0.028434029 -0.03807884 0.078051314 -0.0049021114 0.042381473 -0.02351828 0.020518506 -0.11857932
-0.01837566 0.0850528 0.009636794 0.11253296 -0.09771399 -0.053015657 -0.100883864 0.068271816
-0.0937014 -0.017094942 0.073297225 -0.036512263 0.021097392 -0.064644456 -0.0050658197 -0.04776989
-0.056933496 -0.02007643 0.07982291 0.06847287 -0.05666004 0.072288744 0.09794459 -0.035725556

transformer.attn.proj_v.weight f4 [72, 72]
00000000: 74ba fbbd 9cdb 98bc 0856 83bc 489a bbbd
00000010: a690 69bb f144 693d 7daa a13d 4ecd e53d
00000020: a501 b8ba 0fb0 983b 04d6 f43d 4a0a d43d
00000030: 18e0 b8bd baf1 cfbc 12b8 14bd f957 b7bc
00000040: 2386 ffbd 1947 ce3d feb1 153e fd0d 95bd
00000050: b45b fdbd f435 d33d 02ad 233d 7d4a 243c
00000060: 0b10 d0bd 56ca ccbd 1faa 003d 0330 373d
00000070: 3684 583e d5de 8cbd f6ad bebd 6510 423d
00000080: 4f3c 643b 7b34 813d f6b5 babd ecaf 3b3c
00000090: 90c1 6e3d 4c6b 9c3d dc29 08be 27ef e23d
000000a0: 8910 943b 24b7 983b a374 af3d 7c7a a4bc
000000b0: 7b10 86bc df4e 2b3d 2336 dcbd e0ce babd
000000c0: 72c1 2f3d ba3e 0d3e b2b5 1e3c 6503 963d
000000d0: 9f2c cbbd 80fe 9b3d 1a65 51bd 803b 933d
000000e0: 2093 003e e65f 913c 3ad2 20bc 4309 7ebd
000000f0: e430 be3d 4978 db3d 541e a43d e577 4dbd
00000100: 1ee3 373d cb17 e7bd 0993 d73d 8e79 10bb
00000110: a6a9 373d 3390 67bd 2795 913d 052a 2cbe
00000120: f8ac b2bd 0e8b 33bd a9bb d4bc 9585 cd3d
00000130: 8001 aa3c b0f1 3a3e f8a8 4c3d 417f 3a3d
00000140: 2c50 09bd 1bf0 e93c b465 20be d69e bd3d
00000150: 85f2 563a 5f73 40bd 34ed fb3d 1cc3 f33d
00000160: 659a d0bd 5704 bcbd 2853 b2bc 7ffc 71bd
00000170: 87fe b7bd c817 a33d 44c2 10be 824d 9bbd
00000180: 1683 433d c5b7 81bd 2d87 51bd 037e 103c
00000190: 85a6 3dbd abd3 8b3d c80b bf3c b78b e43d
000001a0: 2f0a b4bd dea5 2d3e 3bde 24be 9717 8bbd
000001b0: c525 68bd fdef 6b3d c095 23be 67b8 fd3d
000001c0: 2662 0abd fd80 c03c 9f9a 7c3d 3037 8ebd
000001d0: 3cef d13d 45b9 0cbe f092 293e 2b58 bb3d
000001e0: 0c42 80bc 619a 88bd 65df 36bd 2084 e8bd
000001f0: d80b 47bc 51f3 96bd 0528 dc3b f61d 913c
00000200: 3d47 82bd 2000 ecbd 18c0 683c ac41 c8bc
00000210: c424 283e 2b85 143e 68e3 063e b7c3 8d3d
00000220: 1cad 2dbd 8a3a 8b3d 705c da3d c7b7 ffbd
00000230: 4996 24be 913f b63d 7451 79bc c1a4 ddbd
00000240: 4a58 cc3c 60e6 31bd f415 023e 2cf8 edbd
00000250: 060d 933d 63f2 8ebd 9865 603d 55da 26bc
00000260: 17b4 b03d da91 3cbe 6bd3 40be db9a b63b
00000270: 555f a63d 1a72 9e3d a75f 0e3e 0b4a d63b
00000280: 28ef 46bd 4f30 b83d 67c9 75bd 3153 ee3c
00000290: 473d b1bd c531 d4bc 37d3 c23c b032 fd3d
000002a0: 849a e0bd 64ca a83d dead 25be cbd6 003e
000002b0: 4f09 923d d878 013e be8f 0c3d ddb1 073e
000002c0: 226d 053e ad71 f23d 98cd bb3d ac74 fc3d
000002d0: bd61 c93d 551d 603d b9ac bd3b 5c99 7fb9
000002e0: 114b 353e 3480 eabb d6c0 29bd 894d 2f3d
000002f0: 2142 5f3d 7fbe e0bd b992 17bd 9359 263d
00000300: a2f5 25be 569c 673d d5ee a5bd 3c83 ff3d
00000310: d83e 823b 0463 e9bd 934f 4b3d ce8f c63c
00000320: f3af 9f3d d120 afbd 9733 e4bd ad43 12bd
00000330: 4683 d23d 8611 11bd 431b fc3c 519f 253e
00000340: b7a0 efbd de2a a33c f001 c03a 1c31 98bd
00000350: 06b4 2a3e e170 0a3e b901 fbbd 3a6a d4bc
00000360: 03b6 48bd 9abf 153e fd32 ac3d ff52 fdbd
00000370: 9164 fb3b 3403 a23d 1821 b3bb 2e74 4d3d
00000380: 032b 6ebd 5bda 633d 61a1 a73d 0b34 103e
00000390: e263 51bd ab7b 013e 8132 ccbd 7141 143e
000003a0: 82ae bfbc fb5b 3abc 819c 33bd ea90 8c3c
000003b0: 801b 813d 658e 34bd c96a 54bd ccfd 6ebd
000003c0: 8285 0cbd 9fab edba c2aa 1dbd 3986 0d3d
000003d0: 83e7 013e f6c6 493d 02ba 8cbc 15eb 33bd
000003e0: cb19 e8bd 799e 47bd 66fd b6bd d7ca e6bc
000003f0: 58fb 3f3d 4653 7fbd bd59 f7b9 01d3 d8bd
-0.122914225 -0.018659405 -0.016032234 -0.09160286 -0.0035639196 0.056950513 0.07893846 0.112207994
-0.0014038576 0.0046596597 0.11954883 0.10353525 -0.090271175 -0.025383819 -0.036308356 -0.022380816
-0.124767564 0.100721546 0.1461868 -0.07278059 -0.123710066 0.10313025 0.039959915 0.010027525
-0.1015931 -0.0999953 0.03141224 0.044723522 0.21144184 -0.06878439 -0.09310524 0.047378916
0.0034825986 0.06308838 -0.091167375 0.011455517 0.058290064 0.07637653 -0.13297218 0.11080771
0.0045185727 0.004660504 0.085671686 -0.020077936 -0.01636528 0.041823264 -0.10752513 -0.091214895
0.042909093 0.1379346 0.009686874 0.07324866 -0.0992062 0.076169014 -0.05112181 0.07189083
0.12556124 0.017745923 -0.009815747 -0.06202055 0.09286669 0.10716302 0.08013597 -0.05016317
0.04489433 -0.11283835 0.105260916 -0.0022045108 0.044839524 -0.056534003 0.07108527 -0.16812904
-0.087243974 -0.043833785 -0.02596839 0.100352444 0.020752668 0.18256259 0.04996583 0.045531515
-0.033523723 0.028556874 -0.15663797 0.09258811 0.00081995904 -0.046985026 0.12301102 0.119024485
-0.101856984 -0.09180515 -0.021768168 -0.05907869 -0.08984094 0.0796352 -0.14136606 -0.07583143
0.047732435 -0.063338794 -0.051154304 0.008819106 -0.046301384 0.06827482 0.023321047 0.11159461
-0.08791005 0.16957805 -0.16100399 -0.06791609 -0.056676645 0.057601918 -0.15975094 0.123886876
-0.033785008 0.023499006 0.061670896 -0.0694412 0.102507085 -0.1374255 0.16559958 0.09147676
-0.015656494 -0.066700704 -0.04464664 -0.11353326 -0.01214882 -0.07370628 0.006718638 0.017714482
-0.06361244 -0.11523461 0.014205955 -0.024445377 0.16420275 0.14503925 0.13172686 0.06922095
-0.042401418 0.06798275 0.10662162 -0.124862246 -0.16072954 0.08898843 -0.015217174 -0.1082244
0.024944443 -0.043432593 0.12703687 -0.11619601 0.071802184 -0.06979825 0.054784387 -0.01018389
0.086280994 -0.18415013 -0.1883065 0.0055726594 0.08123652 0.07736607 0.13903676 0.0065395883
-0.04856792 0.08993589 -0.060006525 0.029092403 -0.08654266 -0.025902638 0.023782356 0.123631835
-0.109669715 0.08241728 -0.16179606 0.12581937 0.07130682 0.12643754 0.03431677 0.13251443
0.13029912 0.11838088 0.09170073 0.12326941 0.09833095 0.054715473 0.0057884124 -0.00024375826
0.17704417 -0.0071563963 -0.04144367 0.042798553 0.054506425 -0.10973834 -0.03700516 0.04061277
-0.16206983 0.056545578 -0.08102194 0.12476203 0.0039747767 -0.11395839 0.049636435 0.024238493
0.077972315 -0.08551181 -0.111426525 -0.035709072 0.10278945 -0.035417102 0.030774718 0.16174056
-0.11700576 0.019917902 0.0014649015 -0.07431242 0.16670236 0.13519622 -0.12256188 -0.025929559
-0.049001705 0.14623871 0.08408163 -0.12369346 0.0076719006 0.07910767 -0.0054665916 0.050159626
-0.058146488 0.055628162 0.081850775 0.14082353 -0.051120646 0.12644832 -0.0997057 0.14478089
-0.023398641 -0.011374469 -0.043850426 0.017158944 0.06304073 -0.04408111 -0.05185965 -0.05834751
-0.03430701 -0.0018132812 -0.038492925 0.034551833 0.12685971 0.04926201 -0.01717854 -0.043925364
-0.113330446 -0.048735116 -0.08935051 -0.028172893 0.04687056 -0.062335275 -0.00047178371 -0.10587121

transformer.attn.proj_v.bias f4 [72]
00000000: 6a97 8f3c 52db 0ebb 61a2 ed3c dba8 00be
00000010: 9746 b1bd 4d01 3d3c a508 ed3d 1280 c53d
00000020: b4fa 82bc 93c9 a73d 17d2 873d 15e3 29bd
00000030: 00cd 8abd 728f de3d 9a6b 59bd c388 923d
00000040: 42eb 67bd a753 4fbd 62d3 e1bc 724b 88bd
00000050: ae81 d5bd de38 06bc 1529 253e 3aa4 cebd
00000060: b4e0 d7bd a662 a8bd f9b4 99bb 4da2 bcbd
00000070: ce90 15bc 09dd d23c 5fba 6c3c ae52 acba
00000080: 82f2 bfbc 1c12 c93c 7481 cfbd 65a3 293d
00000090: 08e5 63bc ba7d c73d f0c4 10bd e985 85bd
000000a0: dd6f 503b 7941 743d df61 9ebd 1a83 5ebd
000000b0: 879e 89bd 82c3 5f3d c176 9cbd 0f6c c53d
000000c0: 37df 983d 4448 93bd db0e 033d 664e ae3d
000000d0: 3f9e f63d 6332 9cbd 94a8 d1bd 1f16 a63d
000000e0: 58cb 91bd 709c 333d 4be6 0a3c e3a9 b0bd
000000f0: cf9c 62bc ca02 b93d 4f21 3cbd dd00 7abd
00000100: a5f7 5ebb 67d9 46bd 4a1c 84bc c4cc ce3c
00000110: 31a7 c23c 2172 8abd 42fb 1bba 4be8 e8bc
0.017528255 -0.0021798206 0.029008092 -0.12564413 -0.08656042 0.011535955 0.115739144 0.09643568
-0.015988685 0.08192744 0.06631868 -0.041476328 -0.06777382 0.10867204 -0.053081132 0.071549915
-0.056620844 -0.050616886 -0.027566615 -0.06655015 -0.10425125 -0.008192269 0.16128953 -0.100899175
-0.105409056 -0.08221941 -0.004690763 -0.09210644 -0.009128762 0.025740163 0.014448731 -0.0013147199
-0.023431066 0.024544768 -0.10132113 0.04141559 -0.013909586 0.09740777 -0.035344064 -0.06519682
0.0031804957 0.059632752 -0.07733511 -0.054324247 -0.0671969 0.05462981 -0.07639838 0.09639751
0.0746445 -0.07191518 0.03199659 0.08511047 0.12041902 -0.07626798 -0.10237232 0.08109688
-0.07118863 0.043850362 0.008477758 -0.08626153 -0.013831331 0.09033735 -0.045930203 -0.06103598
-0.003402212 -0.048547175 -0.01612677 0.025244124 0.023761364 -0.067600496 -0.0005950221 -0.028431078

transformer.proj.weight f4 [72, 72]
00000000: 497c 23bc 7701 4a3d c466 303d 45f7 8e3d
00000010: 45e6 8bbd f532 eebd 11ef b93d 133f 893d
00000020: 87a9 df3b 5a5c ddbc 08dc 983c 3406 03be
00000030: 2da7 b4bc 9882 04be 50e6 6e3d 7ee9 4a3c
00000040: ba17 ecbd 0256 c43d 51b6 d2bd 4da7 0dbe
00000050: 4c60 ae3d b2b2 b63c b2ae dabc bd1b 82bd
00000060: 28e2 f63d a123 25bd db0b a13a b40c 41bd
00000070: 846c 2abe 22fb 903c d5ba 133e 94db 133e
00000080: 5b5c a8bd 56f7 13be a36b dabc 2f3d 883c
00000090: b40c d8bc 016a 8d3d aaca 9bbd cf36 e6bc
000000a0: d738 a5bd 98e7 9f3d aa22 58bc ec37 c53d
000000b0: 671a 55bd 18ce c03c 6003 c0bd b65f ed3d
000000c0: 4a50 923c da3f a73d 6d78 d2bd f0bf 6dbd
000000d0: c7d4 e73d 1164 71bd a7af bd3c 5fa5 b73d
000000e0: 12b8 b5bd 8d30 393c 1834 b7bd 5674 ec3d
000000f0: 98a7 c43c a20d 4e3d 822d 7dbd c560 653c
00000100: cd25 b83d 1770 aabd 760f 9ebc 36bf 94bc
00000110: 8372 bb3d 3e02 fe3b 2537 3a3d fe62 4abc
00000120: f2bb cd3c 64ca bb3d cc71 c63d 9e03 edbd
00000130: fb68 f3bc 1912 4e3d f1fa c5bd 9a76 1e3e
00000140: 4ebb 11bc 9013 493d 34ae babd 131e cabd
00000150: e675 c13c cc25 773d 708c 943d 18a2 8abc
00000160: 0034 02bd 3fc5 aebd 063b 773d d6cc d4bd
00000170: cbab 58bb 25e0 22bd 8a41 b33c be49 bbbd
00000180: b0c5 8bbd 6970 37bd d519 d2bd 2901 913d
00000190: 4100 25bd 8e66 adbc 7bdf 18bd 79fe 733c
000001a0: e547 bb3d b746 a93d 6a0a cfbb d2fc 9bbd
000001b0: cbb5 cf3d cae5 c43d 8da1 b13c 10fe fcbd
000001c0: 3581 283d bb6a 22bd c46f 0e3e 51c8 733d
000001d0: fcb2 12bd 98a2 5fbd 2b83 a83d 6865 a0bd
000001e0: 6ec6 c83d d826 edbd 0fc4 053d fe3b f83d
000001f0: 4736 f9bd a9a9 c3bd dbb7 d9bd d210 3d3d
00000200: c3ef e3bb 5bee fabd f738 49be 9c48 743d
00000210: c160 92bd 1699 fe3c 2f2f 293d fc05 303e
00000220: b03b 91bd 7799 df3c 65f1 5e3c 9026 ae3d
00000230: 65b1 7fbd 0843 973b 409c ecbc 2593 b5bc
00000240: 9c34 debd 5c47 9c3d 9f8a 543d 715b 993d
00000250: e197 623b ef69 af3d 38c8 293d a717 583d
00000260: cc7b f03d 7dd8 9ebd e06d 493d 6f41 a23c
00000270: bb57 583d 1f5d a1bd 6e73 1a3c f81e 013e
00000280: f43c 413d eeb8 313e 34c7 a23c a0c5 db3d
00000290: df71 86bd aa70 da3c 1714 683c 9056 8f3d
000002a0: 6240 efbd 0055 a93c 0b4a 913d 12be ac3b
000002b0: 40d8 d93c 4a77 d33b 3082 f7bd f046 b9bd
000002c0: 017d 813c 6f81 55bd c7fb 5cbd 8a66 dbbc
000002d0: 88cd 27bd d4ca f93c a00a c0bd 7062 2bbd
000002e0: 4e60 1dbb 8712 7e3d 27c8 293d 8c78 38bd
000002f0: f58b cabd 2371 8fbd 9cec f2bd 2dba a53b
00000300: bf99 d73c 6d69 9fbd 468a f7bd 53a8 44be
00000310: aa53 c13d cbeb c13d 1c11 f5bd 18ea 80bd
00000320: e1bb 553c 746a f9bd 7b6f 15bd bbbf 623d
00000330: 9044 3f3d e80d 86bd a9c1 283c c7af f4bc
00000340: 5e69 eabd e8c5 7abd 7a1c 60bd ca61 473d
00000350: 7a2d 883d d9df cdbc 8a63 223e 4916 33be
00000360: 69ca 883c 7be5 b5bd f911 eebd a6a0 283e
00000370: 47d9 923d 120b a63d 9a65 dabb 8215 34bd
00000380: 571d 993d aef8 933d ab34 10bd 6afc cd3d
00000390: cfe9 f03c 77f6 2bbe a6c4 0fbe 7961 a23d
000003a0: 647c 483d 985e d9bd 648d 4c3e 14ae e33d
000003b0: 513a c0bc 7cbc 9ebd 1671 dd3d 6ab9 83bd
000003c0: e6a1 d93c 72c8 dc3c eb8f e8bd a91c 9abd
000003d0: 1acd 073d a4cb 8c3c 4c65 cbbd 25d3 f93d
000003e0: c51d edbd eb09 633d 6264 883d dc66 d3bd
000003f0: 8053 213e 5a39 cdbd 3039 d8bd 5bc1 69bd
-0.009978362 0.049317803 0.043066755 0.06980757 -0.0683103 -0.11630813 0.090788014 0.067014836
0.006825629 -0.027021576 0.018659607 -0.12795335 -0.022052372 -0.12940443 0.058325112 0.01238477
-0.11527963 0.09586717 -0.1028868 -0.13833351 0.08514461 0.022302005 -0.02669463 -0.06352947
0.12054855 -0.04031718 0.0012286858 -0.047131255 -0.16642958 0.017697874 0.1442674 0.14439231
-0.082207404 -0.1444982 -0.026662653 0.016630737 -0.026373245 0.06904984 -0.076070145 -0.028102307
-0.08067482 0.07807845 -0.013191858 0.09629807 -0.052027132 0.023535773 -0.09375644 0.11590521
0.01786055 0.081664756 -0.10276876 -0.058044374 0.11319881 -0.05893332 0.023155047 0.08967089
-0.08872999 0.011303079 -0.08945483 0.11545627 0.024005696 0.05030597 -0.061810978 0.014000122
0.08991585 -0.08322161 -0.019294482 -0.018157583 0.09152701 0.007751732 0.045462746 -0.012352703
0.025114033 0.09169462 0.09689674 -0.115729555 -0.029713145 0.050310228 -0.09667004 0.1547493
-0.008894755 0.049090922 -0.09115258 -0.098690175 0.023615789 0.06033878 0.07253349 -0.016922995
-0.031787872 -0.085337155 0.060359024 -0.10390632 -0.003306138 -0.039764542 0.021881837 -0.091449246
-0.06824815 -0.044784937 -0.10258833 0.070802994 -0.040283445 -0.021167066 -0.037322503 0.014892214
0.09144572 0.08265441 -0.00631838 -0.07616581 0.10142096 0.09614141 0.021683479 -0.12353146
0.041138846 -0.039652567 0.13909823 0.05951721 -0.035815224 -0.05459842 0.08228143 -0.07831842
0.098034725 -0.115796745 0.03265768 0.121208176 -0.12168556 -0.095538445 -0.10630771 0.04615862
-0.006956072 -0.12252494 -0.19650637 0.05963956 -0.071473606 0.031078856 0.041304763 0.17189783
-0.070914626 0.027294857 0.013607358 0.08503449 -0.062425036 0.004616145 -0.0288831 -0.02216489
-0.10849878 0.07630798 0.051890012 0.07488144 0.003457539 0.08565127 0.04145071 0.05275693
0.117423624 -0.077561356 0.04917705 0.019806592 0.05281804 -0.078790896 0.009426935 0.1260947
0.04717727 0.17355701 0.019870378 0.10731053 -0.06564688 0.02666505 0.014164946 0.06998932
-0.11682202 0.020670414 0.07094201 0.0052716816 0.026592374 0.0064534293 -0.12085378 -0.090467334
0.015806677 -0.05212539 -0.05395105 -0.026782293 -0.040967494 0.030492224 -0.093770266 -0.041841924
-0.00240137 0.062029388 0.041450646 -0.045036837 -0.09889976 -0.07004001 -0.11861536 0.0050575943
0.026318429 -0.0778378 -0.120869204 -0.19204836 0.09439786 0.09468802 -0.11966154 -0.0629465
0.013045282 -0.121785074 -0.03648327 0.05535863 0.046696246 -0.06545621 0.010300078 -0.029868973
-0.114458784 -0.061223894 -0.054714657 0.048677243 0.06649299 -0.025131153 0.15858284 -0.1748897
0.01669808 -0.088816606 -0.11624522 0.16467533 0.071703486 0.0810758 -0.006664944 -0.043965824
0.07476299 0.07225166 -0.035206478 0.1005791 0.029408364 -0.16793238 -0.14039859 0.07928748
0.048946753 -0.106137455 0.19975811 0.11117187 -0.023465307 -0.07750794 0.10812585 -0.06431849
0.026566457 0.026951049 -0.11355575 -0.07524998 0.033154584 0.017186947 -0.0993143 0.12198476
-0.11577944 0.05542938 0.066597715 -0.10322353 0.15754509 -0.100207046 -0.10557783 -0.057069164

transformer.proj.bias f4 [72]
00000000: 3b15 013e b3a1 32bc babd 1a3c 41ab fbbd
00000010: 3585 9cbd 8cc1 d2bd d6aa 94bd 1f41 b83c
00000020: cb37 c73d 9b76 e53c 701e f33d df01 1cbe
00000030: c448 243c d8d0 f83d 48df 32be e95a e8bd
00000040: 8f62 a03c 6f06 f83b 3f0b f73c 6b75 15be
00000050: 36f7 1ebe 6376 0c3c 224e da3c c54b a8bd
00000060: 43f7 f9bd 497e acbd 66fa 663d 2857 52bd
00000070: 082f 053d f5af 06bd 1271 813d f772 b73d
00000080: bfa1 7a3d fbf5 babd 06ad fc3d 642f bb3d
00000090: 5d38 97bd ee95 993d 8bde 01be aa9d 6cbd
000000a0: 558d 233d 722f b5bd 5470 db3c 2d62 8dbd
000000b0: 09ab a7bb 9fb3 fa3c 70c0 003d 77a7 373c
000000c0: a7d4 79bd 75e5 ae3d 7a42 11bd b0d9 24bc
000000d0: 1a5e 0c3e 77bf 1b3d beb4 14be 60d4 7e3d
000000e0: dd82 15bb 8f33 223d 429a c83d 0d68 db3d
000000f0: 7510 493d ad78 f3bd f770 5c3d 4df8 803d
00000100: d60a eb3d ca57 98bd e48d d13d ef2a fe3d
00000110: 2e39 84bd 07b9 20be 7378 d53c cdca a0bd
0.12605755 -0.01090281 0.009444648 -0.122885235 -0.07642595 -0.102908224 -0.07259147 0.02249199
0.097274385 0.028010657 0.1187104 -0.15235089 0.010027114 0.12149209 -0.17467988 -0.11345465
0.019578246 0.0075691263 0.03015673 -0.14595573 -0.15523991 0.0085731475 0.026648585 -0.08217577
-0.122053646 -0.084225245 0.056391142 -0.05135265 0.032515556 -0.03288265 0.063203946 0.08957475
0.06118941 -0.09128948 0.12337689 0.091398984 -0.07383797 0.074993 -0.1268255 -0.057767548
0.039929707 -0.0884694 0.02678696 -0.06903491 -0.0051168245 0.030603228 0.031433523 0.01120936
-0.060993817 0.08539859 -0.035463788 -0.010061666 0.13707772 0.038024392 -0.14522073 0.062214255
-0.0022813596 0.03959995 0.09795047 0.107132055 0.04908796 -0.118882515 0.05381867 0.062973596
0.11476676 -0.074386194 0.102321416 0.12410533 -0.06456219 -0.15695582 0.026058411 -0.07851181
