saved/pretrain_base_blind_user_20_120/limu_v1.pt (torch, 259775 bytes, 29 tensors)

transformer.embed.lin.weight f4 [72, 6]
-0.21661197 0.16782597 -0.23738512 -0.19385342 -0.31249592 -0.22876565 -0.32355285 0.24130791
-0.13241787 -0.32846496 0.07638646 0.39434245 -0.2991858 0.3830646 0.030103084 -0.011879104
-0.38015133 0.39510635 -0.11372599 0.17736569 0.30124608 -0.0020869405 -0.07264998 0.3820046
-0.13716233 -0.0007059296 0.37892684 0.24188977 0.30391845 0.13347583 -0.36940756 0.09003171
-0.23457712 0.08621785 -0.30936134 -0.2541158 -0.22750154 0.36089373 -0.39215997 0.26182646
0.21661055 -0.026463166 0.43145087 -0.002219668 -0.1457567 -0.074061126 -0.02950091 -0.14111182
-0.05381764 -0.026755037 0.16208772 0.1592804 0.2899311 -0.22467256 0.42078805 -0.38770172
0.097151235 0.031487964 -0.2573115 0.29994282 0.116321385 -0.23183629 -0.048929818 -0.024258632
-0.042266574 0.1861934 -0.2421539 -0.09138934 -0.34881043 0.18496901 -0.19929145 0.07875336
0.28665006 -0.22290388 0.13974845 0.35855326 -0.2826049 -0.06033902 0.13430844 0.3307013
0.07039176 -0.35418928 -0.029980779 -0.26666754 0.34093705 0.3117659 0.15722522 0.39203197
-0.027046708 -0.13286212 -0.23187754 -0.2494103 0.20821069 -0.17910706 -0.03808011 -0.060653277
-0.1355262 0.387514 -0.18773407 -0.2852561 0.2824784 -0.27158225 0.101851985 -0.291986
-0.36919275 0.3873139 -0.29589236 -0.29841393 -0.117281556 0.12057339 0.05194533 -0.32010606
0.36524898 -0.42845613 0.02334615 -0.2638902 0.18665162 0.120356515 -0.3865147 -0.096490785
0.078522794 0.28397033 -0.2346269 -0.22939597 0.047466915 -0.030684693 0.23153163 -0.25115132
-0.0032176776 0.25210968 0.037144404 -0.3205758 0.010039614 -0.30137658 0.36488676 -0.17463727
0.17786665 0.09759919 -0.16478503 -0.017397273 0.0036254004 -0.32686734 0.23268238 0.26829877
-0.19224891 0.38264546 -0.38784423 0.06222831 -0.21059568 -0.21060611 -0.3512461 -0.3562919
-0.0038992632 -0.12751618 0.14373286 0.3190792 -0.3155254 0.35737583 0.18136314 -0.04303563
-0.38925675 0.21718769 0.064587995 -0.06342579 0.14418636 -0.38979977 -0.29018828 -0.07335129
0.2020185 0.14388268 0.1925358 0.036223445 -0.23459199 -0.356999 -0.26441762 -0.18509857
0.33365583 0.15732889 0.052948475 0.26103106 0.09687656 0.07992738 0.21922126 -0.1658838
0.35619438 0.13636546 -0.45173505 -0.2598076 0.37984246 0.014123097 -0.37108898 0.1437162
0.061509173 -0.10302738 0.10732701 -0.26319125 0.32623985 -0.17242064 0.4028768 0.25714603
0.010364189 0.28932196 0.09963874 -0.26834303 0.21348996 -0.3110177 0.24577573 -0.22911483
0.12879391 0.23598455 0.15749255 -0.07497993 0.34003952 0.15187106 -0.36810443 -0.1471349
-0.051489472 -0.24885282 0.024927309 0.37306437 0.16690736 0.22324568 0.060955957 -0.257393
-0.08956331 -0.101225674 -0.04232012 0.19158244 -0.020310758 0.24191871 0.33938903 -0.24893866
-0.037169687 0.29543227 -0.29999018 -0.37292448 -0.07013929 0.33493993 -0.25516537 0.1889803
-0.07363703 0.36619717 -0.2321759 -0.3622141 0.048680164 -0.17479412 -0.35903025 0.37773424
0.14876725 0.32999793 0.09394251 -0.17356594 -0.29442817 0.079598814 0.22000116 0.2005826
00000000: 87cf 5dbe 92da 2b3e 1615 73be 8381 46be
00000010: 77ff 9fbe 8b41 6abe b8a8 a5be 6c19 773e
00000020: 8d98 07be 8f2c a8be 8170 9c3d 41e7 c93e
00000030: e22e 99be 0b21 c43e be9a f63c 93a0 42bc
00000040: 32a3 c2be 614b ca3e 2ce9 e8bd 5a9f 353e
00000050: ed3c 9a3e 0dc5 08bb 83c9 94bd 1b96 c33e
00000060: 4874 0cbe 220e 39ba b302 c23e f4b1 773e
00000070: 339b 9b3e e3ad 083e fd22 bdbe 8c62 b83d
00000080: fc34 70be fc92 b03d 9c64 9ebe 771b 82be
00000090: 2af6 68be 10c7 b83e 31c9 c8be 1e0e 863e
000000a0: 28cf 5d3e 48c9 d8bc 21e7 dc3e d977 11bb
000000b0: 3f41 15be 5cad 97bd e4ab f1bc 9e7f 10be
000000c0: e36f 5cbd 612d dbbc 53fa 253e 671a 233e
000000d0: d971 943e 9010 66be 8871 d73e d780 c6be
000000e0: 3af7 c63d 86f9 003d 55be 83be 1b92 993e
000000f0: e839 ee3d 7e66 6dbe a26a 48bd 0aba c6bc
00000100: b71f 2dbd 7ca9 3e3e 31f7 77be 562a bbbd
00000110: 4897 b2be 8468 3d3e 0f13 4cbe 7149 a13d
00000120: ccc3 923e ea40 64be 381a 0f3e 4b94 b73e
00000130: 97b1 90be 0c26 77bd 2788 093e ae51 a93e
00000140: 8e29 903d 4c58 b5be 409a f5bc a688 88be
00000150: 4d8f ae3e c89f 9f3e a6ff 203e 6ab8 c83e
00000160: 0f91 ddbc 020d 08be 4e71 6dbe 6a65 7fbe
00000170: 2f35 553e d767 37be e4f9 1bbd 926f 78bd
00000180: 61c7 0abe 3c68 c63e 5c3d 40be 160d 92be
00000190: 02a1 903e d40c 8bbe c697 d03d 307f 95be
000001a0: d506 bdbe 024e c63e 347f 97be b6c9 98be
000001b0: 5031 f0bd 2eef f63d a0c4 543d f1e4 a3be
000001c0: ea01 bb3e 9a5e dbbe 6d40 bf3c 9e1c 87be
000001d0: 9a21 3f3e 7a7d f63d 41e5 c5be f69c c5bd
000001e0: 8fd0 a03d 8f64 913e 0942 70be c7e6 6abe
000001f0: ab6c 423d 775e fbbc a116 6d3e e896 80be
00000200: acdf 52bb 8514 813e bb24 183d 8322 a4be
00000210: 317d 243c 084e 9abe 70d2 ba3e 1dd4 32be
00000220: ad22 363e 16e2 c73d 68bd 28be ba84 8ebc
00000230: 2098 6d3b 285b a7be 4a44 6e3e 755e 893e
00000240: e6dc 44be 1bea c33e 8593 c6be 1de3 7e3d
00000250: 65a6 57be 21a9 57be 87d6 b3be e46b b6be
00000260: c88a 7fbb 9a93 02be b52e 133e 595e a33e
00000270: 8c8c a1be f7f9 b63e 42b7 393e 2146 30bd
00000280: a94c c7be 7366 5e3e b646 843d 61e5 81bd
00000290: 97a5 133e d693 c7be 8f93 94be 3339 96bd
000002a0: f0dd 4e3e fb55 133e 1b28 453e 095f 143d
000002b0: e238 70be 93c8 b6be bf61 87be 7b8a 3dbe
000002c0: f0d4 aa3e d31a 213e 80e0 583d dda5 853e
000002d0: 3867 c63d f7b0 a33d 8a7b 603e 71dd 29be
000002e0: 1c5f b63e 63a3 0b3e d149 e7be 8005 85be
000002f0: b67a c23e 9064 673c 60ff bdbe 572a 133e
00000300: 0bf1 7b3d 0500 d3bd 43ce db3d 01c1 86be
00000310: e908 a73e 098f 30be de45 ce3e a5a8 833e
00000320: 8fce 293c 0222 943e 650f cc3d 4264 89be
00000330: 1d9d 5a3e b63d 9fbe a2ac 7b3e 149d 6abe
00000340: 8de2 033e efa5 713e ba45 213e 148f 99bd
00000350: a919 ae3e 1684 1b3e 2f78 bcbe 88aa 16be
00000360: a0e6 52bd 46d3 7ebe 5b34 cc3c 4b02 bf3e
00000370: c3e9 2a3e 849a 643e f4ac 793d 04c9 83be
00000380: f86c b7bd 684f cfbd dd57 2dbd 302e 443e
00000390: bf62 a6bc 8ab9 773e 66c4 ad3e c7e9 7ebe
000003a0: 3e3f 18bd e642 973e 5098 99be f5ef bebe
000003b0: 30a5 8fbd 3f7d ab3e 09a5 82be 0d84 413e
000003c0: 03cf 96bd 327e bb3e 85bf 6dbe 2074 b9be
000003d0: da64 473d 3bfd 32be d0d2 b7be 6266 c13e
000003e0: 7156 183e 7df5 a83e ee64 c03d 45bb 31be
000003f0: 4abf 96be b404 a33d fc47 613e 8665 4d3e

transformer.embed.lin.bias f4 [72]
-0.34566638 0.30575904 0.23476197 0.1315108 -0.10825805 -0.009308143 -0.33793274 -0.29258746
0.058210906 -0.24008627 0.22507674 0.31283268 0.22189286 0.26494455 0.3685281 0.15159798
-0.038025446 -0.24848391 -0.0066509247 0.07522855 0.37593243 0.07092033 0.23667286 0.3028326
-0.2550099 -0.19437931 0.16274369 0.05348616 0.124584965 0.20859121 0.19831194 -0.3853063
-0.26029128 0.37962422 -0.23196407 -0.014156792 0.25353056 -0.17388922 -0.04662449 -0.21731779
0.06701503 0.036322962 -0.028740676 0.024195885 -0.12071594 -0.056754198 0.09259668 -0.32964987
0.35196587 0.31636575 -0.38287988 0.2130426 -0.23274682 0.296111 0.39416173 0.00025173835
0.00024633092 -0.114498846 0.3873602 0.2770201 0.11549482 -0.10588027 -0.11408928 -0.30378053
0.39127415 -0.28697443 0.14032845 0.35558516 0.063486345 -0.24716908 0.26497987 -0.31786388
00000000: 2ffb b0be 738c 9c3e 7165 703e c4aa 063e
00000010: 66b6 ddbd 2e81 18bc 8505 adbe 06ce 95be
00000020: 8f6e 6e3d 2dd9 75be 847a 663e 9b2b a03e
00000030: e237 633e d0a6 873e b7af bc3e 803c 1b3e
00000040: 92c0 1bbd 9172 7ebe 00f0 d9bb 6d11 9a3d
00000050: 377a c03e ae3e 913d 5f5a 723e e00c 9b3e
00000060: a890 82be 5f0b 47be 48a6 263e 4e14 5b3d
00000070: 6726 ff3d ef98 553e 4912 4b3e de46 c5be
00000080: e644 85be 1b5e c23e fd87 6dbe e4f1 67bc
00000090: c2ce 813e 0410 32be 52f9 3ebd 8e88 5ebe
000000a0: 2d3f 893d 63c7 143d 9171 ebbc 7336 c63c
000000b0: eb39 f7bd 1777 68bd 54a3 bd3d dec7 a8be
000000c0: df34 b43e b1fa a13e d508 c4be d727 5a3e
000000d0: 2f55 6ebe dc9b 973e 91cf c93e c0fb 8339
000000e0: fa25 8139 5f7e eabd 1354 c63e 94d5 8d3e
000000f0: 8c88 ec3d c1d7 d8bd a4a7 e9bd 1f89 9bbe
00000100: 1655 c83e 50ee 92be 43b2 0f3e 420f b63e
00000110: 2105 823d e419 7dbe 71ab 873e 0ebf a2be

transformer.embed.pos_embed.weight f4 [120, 72]
-0.39895612 -1.4961871 -0.3325519 0.9632182 -0.22654676 0.6147365 0.2919491 1.3607123
-0.56354696 -0.34622738 0.123711325 2.2753642 0.9600674 0.8040459 0.15677719 -0.8506145
-0.44082192 -0.3260816 0.8117563 0.56241447 1.706024 -1.1509866 -1.4475104 -0.3031742
-1.2686665 -0.29893148 -0.19342418 -0.25664556 -0.005533427 -1.2887838 0.18435076 0.034175493
0.008377472 1.3517358 1.0054836 0.20954528 0.088410914 2.2576606 -1.2537497 -0.5878514
0.38059577 1.31354 0.25246918 -0.083482735 0.760387 -0.082561694 0.17947595 -0.1345852
0.5538728 0.6247721 1.5633594 0.26822203 -1.8966805 -1.2529893 0.38661134 0.11721253
-0.2509572 -0.28653947 -0.2407774 0.5609089 -0.62543154 -0.4777519 -0.33869568 0.87918854
-0.2867128 -0.33401734 1.2578939 0.9326361 -0.74471545 0.34515753 -0.23820037 1.0809379
-0.61977965 0.56534624 -0.25155514 -0.0993725 -0.104395084 0.745769 0.9260357 2.450299
-0.82821816 -2.036214 -0.6791352 0.2078582 1.4844986 -0.35192886 0.962074 -1.2379304
0.032464836 0.8546539 1.6537979 0.61206454 -0.24179879 0.4074276 1.6353465 0.23912989
2.6548755 1.1435015 -0.2999855 0.34479186 -0.041090872 -1.0525243 2.3754907 0.4457972
0.78360015 0.9093072 -1.0986818 -0.21594527 -0.06675839 -1.4001495 -0.24445885 1.4209832
1.5531437 -0.58763313 -0.8067332 -0.5723192 -0.6095707 0.70751345 -0.59297234 1.6872591
-0.78542477 2.245062 0.28890648 0.06052796 -0.62482464 2.112481 -0.20797239 -0.6097655
1.1970856 0.8921989 1.3196194 -0.20866258 -0.7902307 1.449294 -1.3781769 0.6818011
-0.36718193 0.34557366 0.21275921 0.11117276 0.9064355 -1.4999995 -0.8720195 1.2327485
0.7429965 -1.3452805 -2.366 0.7312463 1.2813607 0.82009715 1.0527968 0.70956653
-0.51765734 -2.8464148 0.98405373 0.74053806 -2.5657215 -0.50788105 0.28851506 1.5371736
1.6717513 0.70730674 -2.2251437 0.9738315 -0.56633955 0.87916625 -0.624641 1.0887016
0.114986524 1.5762811 1.0576417 -0.86516666 -0.12601332 0.25629616 1.379075 -1.4628127
-1.7217481 -0.2214628 -0.6317945 0.30652174 0.8708355 0.50023574 -0.533428 0.3467294
0.38743544 1.0625918 -1.2925835 1.1859328 0.5906125 0.2678797 0.48611274 2.217895
0.36176836 0.9790188 -1.6672331 -0.9147044 0.7421335 -2.19843 -0.12979242 0.08495129
0.9260845 -0.7033881 1.2056971 -0.24848731 0.9029531 -0.0880939 -0.2743439 -2.5407112
-0.070993245 0.27965868 2.5330234 -0.045342296 -0.12855648 -0.31976864 -0.9698808 0.81913394
-1.1845998 1.120465 0.976173 -1.2384967 0.19855726 -0.9794899 0.04733369 -1.1069825
-0.7532315 -0.71344846 -1.166395 -2.3398454 -0.14865516 -0.5747376 1.3675658 0.4160294
-0.36260673 0.8085576 1.2934158 0.9337826 2.2125075 -0.35119843 -1.011118 1.6516128
-0.025357042 -1.278375 -0.4521854 1.4322673 -1.1033807 -1.1160595 -0.5604999 1.5906171
0.6434391 0.77912676 -0.24472503 0.55338407 -1.8990673 1.6126921 0.24282213 0.5923903
00000000: fa43 ccbe 0f83 bfbf 3e44 aabe 7895 763f
00000010: e0fb 67be 5f5f 1d3f 5a7a 953e d22b ae3f
00000020: 9d44 10bf b744 b1be 5d5c fd3d 919f 1140
00000030: fac6 753f f4d5 4d3f 338a 203e dfc1 59bf
00000040: 69b3 e1be 2bf4 a6be 43cf 4f3f 65fa 0f3f
00000050: ff5e da3f 8753 93bf 0548 b9bf a639 9bbe
00000060: aa63 a2bf 8c0d 99be fd10 46be 0c67 83be
00000070: c051 b5bb def6 a4bf 72c6 3c3e 9afb 0b3d
00000080: aa41 093c ae05 ad3f b0b3 803f 0a93 563e
00000090: c810 b53d 837d 1040 df7a a0bf 6e7d 16bf
000000a0: 73dd c23e 1422 a83f a443 813e fff8 aabd
000000b0: b9a8 423f 1b16 a9bd 8bc8 373e b4d0 09be
000000c0: 9cca 0d3f 10f1 1f3f 291c c83f 6654 893e
000000d0: 6dc6 f2bf f461 a0bf ecf1 c53e 1f0d f03d
000000e0: 767d 80be 4db5 92be 5a8e 76be ba97 0f3f
000000f0: 481c 20bf e69b f4be 8569 adbe 8012 613f
00000100: 05cc 92be 5204 abbe ab02 a13f 3dc1 6e3f
00000110: aca5 3ebf 7db8 b03e ccea 73be 2c5c 8a3f
00000120: e1a9 1ebf 88ba 103f d6cb 80be cf83 cbbd
00000130: 17cd d5bd b8ea 3e3f ad10 6d3f b3d1 1c40
00000140: 1b06 54bf 5551 02c0 cedb 2dbf c8d8 543e
00000150: 0d04 be3f 0530 b4be 7b4a 763f 8174 9ebf
00000160: d9f9 043d 99ca 5a3f a6af d33f 43b0 1c3f
00000170: 1a9a 77be 5a9a d03e 0953 d13f 77de 743e
00000180: 7be9 2940 425e 923f b397 99be 8f88 b03e
00000190: e74e 28bd 1eb9 86bf 0a08 1840 883f e43e
000001a0: 059a 483f 5bc8 683f 9ba1 8cbf c220 5dbe
000001b0: 9fb8 88bd 1938 b3bf 6c53 7abe c7e2 b53f
000001c0: 6acd c63f 206f 16bf 1186 4ebf 8383 12bf
000001d0: d30c 1cbf 9a1f 353f 09cd 17bf 1bf8 d73f
000001e0: 9911 49bf 19af 0f40 8deb 933e 2bec 773d
000001f0: 82f4 1fbf e432 0740 b7f6 54be 9819 1cbf
00000200: 1a3a 993f 2667 643f 4ae9 a83f a5ab 55be
00000210: 8f4c 4abf 7782 b93f 1a68 b0bf 848a 2e3f
00000220: 45ff bbbe 08ef b03e 8ddd 593e 8bae e33d
00000230: 280c 683f fcff bfbf ac3c 5fbf b4ca 9d3f
00000240: 0535 3e3f 2732 acbf 8b6c 17c0 f532 3b3f
00000250: a103 a43f e3f1 513f 0cc2 863f 27a6 353f
00000260: 3185 04bf a92b 36c0 f2ea 7b3f e793 3d3f
00000270: c834 24c0 7e04 02bf 3fb8 933e 1bc2 c43f
00000280: f2fb d53f 0e12 353f c168 0ec0 054d 793f
00000290: a1fb 10bf 0a11 613f 79e8 1fbf 935a 8b3f
000002a0: 0e7e eb3d 94c3 c93f ce60 873f 907b 5dbf
000002b0: a309 01be 4039 833e 8885 b03f 723d bbbf
000002c0: 3e62 dcbf 25c7 62be 49bd 21bf 6bf0 9c3e
000002d0: 13ef 5e3f 730f 003f bd8e 08bf 8486 b13e
000002e0: f05d c63e 0203 883f 6073 a5bf a5cc 973f
000002f0: 6132 173f 8727 893e c5e3 f83e fef1 0d40
00000300: b439 b93e faa0 7a3f e567 d5bf 112a 6abf
00000310: 76fc 3d3f 14b3 0cc0 4ee8 04be f1fa ad3d
00000320: e013 6d3f 3e11 34bf 4854 9a3f 7573 7ebe
00000330: ef27 673f 936a b4bd ce76 8cbe 039b 22c0
00000340: e864 91bd 6c2f 8f3e 0e1d 2240 d8b8 39bd
00000350: 4fa4 03be b7b8 a3be 1c4a 78bf c3b2 513f
00000360: f7a0 97bf 666b 8f3f 79e6 793f 0f87 9ebf
00000370: 9852 4b3e dabf 7abf f9e0 413d 9ab1 8dbf
00000380: c8d3 40bf 8fa4 36bf 6e4c 95bf 07c0 15c0
00000390: 0f39 18be 0122 13bf 650c af3f ce01 d53e
000003a0: 97a7 b9be a2fd 4e3f a68e a53f 600c 6f3f
000003b0: b999 0d40 48d0 b3be 516c 81bf 0c68 d33f
000003c0: 92b9 cfbc cba1 a3bf d884 e7be 8954 b73f
000003d0: 943b 8dbf 0adb 8ebf ec7c 0fbf 5799 cb3f
000003e0: 6db8 243f da74 473f 3399 7abe 94aa 0d3f
000003f0: a314 f3bf b26c ce3f 5da6 783e e4a6 173f

transformer.embed.norm.gamma f4 [72]
1.0038397 0.99990505 1.0056255 1.0037252 1.0073239 1.0044024 0.9999737 0.9931453
1.0005739 1.0004876 1.0039155 1.0013238 0.99875194 1.002338 1.0040514 1.0070219
0.98797107 1.0000764 1.0077584 0.9855522 1.0034795 0.9934932 0.99724036 0.995116
0.99967027 1.0012709 1.0124218 0.99714434 1.0004507 0.99936867 1.0035357 1.00139
1.006936 0.99711317 0.9916827 0.99761105 0.9966313 1.0008602 0.9947294 0.9978564
1.0040811 1.0028828 0.9890546 0.9964527 0.99773264 0.99446696 0.99995023 1.0033767
1.00153 1.0032542 1.003804 0.99621874 0.99903244 1.0003206 0.9964118 1.0017345
0.99824995 0.9985654 0.9995813 1.0008898 1.001954 1.002176 0.9988908 1.0013629
0.99926794 0.99861026 1.0072328 1.0048178 0.99684805 1.001311 0.9989924 0.999424
00000000: d27d 803f c7f9 7f3f 56b8 803f 117a 803f
00000010: fdef 803f 4290 803f 47fe 7f3f c53e 7e3f
00000020: ce12 803f fa0f 803f 4e80 803f 612b 803f
00000030: 35ae 7f3f 9d4c 803f c284 803f 18e6 803f
00000040: aceb 7c3f 8102 803f 3afe 803f 264d 7c3f
00000050: 0472 803f 9255 7e3f 254b 7f3f ecbf 7e3f
00000060: 64ea 7f3f a529 803f 0a97 813f da44 7f3f
00000070: c50e 803f a0d6 7f3f dc73 803f 8c2d 803f
00000080: 47e3 803f cf42 7f3f ebde 7d3f 7063 7f3f
00000090: 3b23 7f3f 301c 803f 96a6 7e3f 8473 7f3f
000000a0: bb85 803f 775e 803f af32 7d3f 8617 7f3f
000000b0: 686b 7f3f 6395 7e3f bdfc 7f3f a66e 803f
000000c0: 2332 803f a26a 803f a67c 803f 3108 7f3f
000000d0: 97c0 7f3f 810a 803f d814 7f3f d638 803f
000000e0: 4f8d 7f3f fba1 7f3f 8fe4 7f3f 281d 803f
000000f0: 0740 803f 4e47 803f 4fb7 7f3f a92c 803f
00000100: 06d0 7f3f eca4 7f3f 01ed 803f df9d 803f
00000110: 6f31 7f3f f52a 803f f7bd 7f3f 40da 7f3f

transformer.embed.norm.beta f4 [72]
-0.0032562406 0.0009937345 0.0010758047 0.000520452 0.0029030475 0.00045939747 0.001254816 0.007718087
-0.0004946508 0.0044456534 0.008028948 -0.0029381844 -0.00080773234 0.0014282926 -0.008831219 -0.0037618938
0.011320988 0.0008123722 0.0017414351 -0.009842128 0.00017795792 -0.0025144962 -0.0020101531 -0.006378921
0.00043112802 -0.0026901646 0.0024760778 -0.00018283482 0.0017043791 -0.001493782 0.002514258 -2.2521455e-05
-0.0051455977 -0.0006983944 0.0070685106 -0.0049353987 -0.0038208738 0.0019607968 -0.0015415871 0.0033370142
-0.00305954 -0.001741259 -0.0013628054 -0.0004047362 0.0019065734 0.0050028176 0.0060410122 -0.0019847285
0.0021798178 0.0030737924 -0.0039596963 -0.006488726 0.0010491346 0.0003171536 -0.004610024 -0.000654275
-0.000516787 0.0013950133 -0.00072050415 -0.0020114565 -0.005727929 -0.0018745261 0.00034937527 -0.0003037893
0.0006632296 0.00067026075 0.004298123 -0.0011587274 0.00046383715 0.00064998056 -0.0053777792 0.0027978679
00000000: a766 55bb 3240 823a 0402 8d3a f16e 083a
00000010: 0e41 3e3b 49db f039 a378 a43a 02e8 fc3b
00000020: 74ab 01ba d8ac 913b d98b 033c 8e8e 40bb
00000030: 00be 53ba 8c35 bb3a d1b0 10bc 1b8a 76bb
00000040: aa7b 393c 60f5 543a de40 e43a e040 21bc
00000050: 379a 3a39 3fca 24bb c6bc 03bb 4506 d1bb
00000060: 0609 e239 794d 30bb b145 223b 59b7 3fb9
00000070: 7965 df3a 02cb c3ba 40c6 243b 75ec bcb7
00000080: 679c a8bb 7414 37ba f79e e73b 20b9 a1bb
00000090: a067 7abb b680 003b 140f caba cfb1 5a3b
000000a0: 9082 48bb f53a e4ba 29a0 b2ba c632 d4b9
000000b0: fde5 f93a adee a33b aff3 c53b 3812 02bb
000000c0: 46db 0e3b ae71 493b 57c0 81bb 619f d4bb
000000d0: 1e83 893a a347 a639 af0f 97bb a783 2bba
000000e0: fd78 07ba e1d8 b63a 37e0 3cba a4d2 03bb
000000f0: 5ab1 bbbb a9b2 f5ba 5b2c b739 e945 9fb9
00000100: 96dc 2d3a 70b4 2f3a 45d7 8c3b 71e0 97ba
00000110: 2b2f f339 7563 2a3a 1538 b0bb 6f5c 373b

transformer.attn.proj_q.weight f4 [72, 72]
-0.004650926 -0.0123656085 -0.049697883 0.089480504 -0.026558317 0.094316654 -0.07317396 -0.007940154
0.08811131 -0.09526427 0.042456463 -0.102335356 -0.03158858 -0.08291501 -0.11080937 -0.05719328
0.035774987 0.045441814 -0.07490023 -0.08667301 0.06724296 -0.04451902 0.09807435 0.10746764
-0.06810931 0.06876458 0.06858302 0.020061309 0.1161643 0.073191985 -0.11464364 -0.010606224
0.04307614 0.01267876 0.025206957 -0.049004983 -0.051783673 0.115541704 -0.10463608 0.094588734
-0.082339235 -0.012723811 0.0990566 0.13096322 -0.09032229 0.10929017 0.072746165 0.098241515
0.004944517 0.010814326 0.064157575 0.05105745 0.018905908 0.08823372 -0.08338915 -0.08714832
0.0853061 -0.08626176 0.10117396 0.05114344 -0.02505 -0.09033894 -0.02042749 0.10343666
0.09792709 0.088728085 -0.11380553 0.10764004 0.0021435258 0.097615264 0.051198084 -0.11055568
0.098572284 -0.04885946 0.017385079 -0.066275135 -0.07864152 0.004497872 -0.09588627 0.011822113
0.052154258 -0.08722471 0.040035043 -0.052383587 -0.007050657 -0.084287114 0.011952865 -0.101589814
0.023991758 -0.010921375 -0.0865973 -0.013657247 -0.052030746 -0.0027432884 -0.050805237 -0.083371334
0.09409831 0.026470397 -0.043382294 0.03307402 -0.059306543 0.06501964 -0.037644643 -0.113784984
0.07533274 -0.017464034 0.08803559 -0.05547341 -0.0388561 -0.019732306 -0.10721792 -0.068467304
0.07223101 -0.10765592 0.045879815 -0.0074431566 0.021809204 0.032860793 0.10222361 0.0956665
-0.0073122866 -0.069671385 0.09785204 -0.00396894 -0.025308203 -0.030273892 0.063258216 -0.06948069
-0.04038856 0.036970306 0.10979378 0.05607646 0.056527548 -0.0954608 0.10960471 0.021910058
-0.051597707 -0.12289188 0.06689835 -0.08200471 0.13244995 0.051373392 0.09089439 -0.09338621
0.0065105828 0.04153515 -0.116930105 0.05177857 -0.004601468 -0.028217997 -0.031961966 -0.084018365
0.06322053 -0.06959426 -0.0043036165 0.038320754 -0.08992786 0.11516819 -0.0287608 0.08515769
0.014673823 0.05945982 -0.08607825 0.060770694 0.07051356 -0.023061248 -0.020059455 0.010570907
0.016468532 0.049541004 0.012605456 -0.0991164 -0.008703185 -0.037262168 -0.09451379 0.017084826
-0.03486463 -0.11309427 -0.015048902 0.00065783336 -0.06258233 0.030028122 0.102396786 0.056227285
0.1005197 -0.109688684 -0.0077125747 0.09653678 -0.059648287 0.006309183 -0.05106383 -0.10334872
-0.007995072 -0.04113326 0.06285749 0.031791374 -0.07560005 -0.08067669 0.034417953 -0.03240145
0.032551304 -0.102638505 -0.08398231 0.031356275 0.078147344 -0.018013394 0.054677945 -0.020021746
0.031224258 -0.058845278 -0.010233731 0.10999607 0.12800944 -0.08175651 -0.08618907 0.007942609
0.079732634 -0.04503923 0.09940166 0.021096544 0.067165814 -0.049693868 0.069274046 0.054930955
0.056682993 0.06336592 0.09573304 -0.103287 -0.021377826 -0.06931407 -0.09036156 0.026030535
-0.116306305 -0.06992652 -0.092676945 0.02068874 -0.06784115 0.0344772 0.07678459 0.024831472
0.04978764 0.006380627 0.025525318 -0.08322239 0.057612345 -0.07193257 -0.11615529 -0.021056978
0.092538394 0.019308569 -0.10156138 0.08909067 0.0860542 -0.040349435 0.07837608 0.11520808
00000000: cc66 98bb 1f99 4abc 0290 4bbd 8e41 b73d
00000010: d490 d9bc 1729 c13d 3bdc 95bd 6b17 02bc
00000020: b473 b43d ea19 c3bd d4e6 2d3d 3395 d1bd
00000030: 0763 01bd 58cf a9bd 06f0 e2bd 8043 6abd
00000040: cb88 123d 3221 3a3d 4b65 99bd 9e81 b1bd
00000050: adb6 893d 9359 36bd 34db c83d fe17 dc3d
00000060: e57c 8bbd 72d4 8c3d 4175 8c3d 9d57 a43c
00000070: 8ce7 ed3d aee5 953d 49ca eabd bac5 2dbc
00000080: 9b70 303d 93ba 4f3c d27e ce3c 73b9 48bd
00000090: 1e1b 54bd 21a1 ec3d 714b d6bd bdb7 c13d
000000a0: 79a1 a8bd 8877 50bc 30de ca3d 391b 063e
000000b0: e5fa b8bd 86d3 df3d f1fb 943d d932 c93d
000000c0: 9d05 a23b 922e 313c 0c65 833d 9e21 513d
000000d0: 90e0 9a3c e1b3 b43d eec7 aabd d27a b2bd
000000e0: f7b4 ae3d 01aa b0bd 4b34 cf3d c97b 513d
000000f0: a835 cdbc 9f03 b9bd 8d57 a7bc 99d6 d33d
00000100: 008e c83d 12b7 b53d e012 e9bd 6272 dc3d
00000110: 657a 0c3b 83ea c73d 15b5 513d 046b e2bd
00000120: 44e0 c93d db20 48bd 276b 8e3c 42bb 87bd
00000130: ce0e a1bd e362 933b 0560 c4bd 89b1 413c
00000140: b49f 553d dea2 b2bd c9fb 233d 2c90 56bd
00000150: 3309 e7bb b99e acbd f3d5 433c 520e d0bd
00000160: 5d8a c43c 91ef 32bc ed59 b1bd a5c2 5fbc
00000170: 311e 55bd bec8 33bb 2719 50bd 97be aabd
00000180: 9db6 c03d 72d8 d83c a2b1 31bd a078 073d
00000190: 6beb 72bd 0429 853d 4531 1abd 1a08 e9bd
000001a0: 0d48 9a3d bc10 8fbc 014c b43d 1638 63bd
000001b0: 9327 1fbd a5a5 a1bc 1295 dbbd 9638 8cbd
000001c0: daed 933d b57a dcbd 79ec 3b3d b9e5 f3bb
000001d0: 37a9 b23c 0a99 063d 9d5a d13d ccec c33d
000001e0: e89b efbb dfaf 8ebd a666 c83d e20d 82bb
000001f0: 2653 cfbc f400 f8bc 868d 813d e44b 8ebd
00000200: 7a6e 25bd 2d6e 173d 90db e03d 6eb0 653d
00000210: 6e89 673d f480 c3bd 6f78 e03d b97c b33c
00000220: 1e58 53bd bdae fbbd 0102 893d 16f2 a7bd
00000230: f6a0 073e e86c 523d d726 ba3d 4541 bfbd
00000240: ba56 d53b c320 2a3d 0d79 efbd c415 543d
00000250: e9c7 96bb 6e29 e7bc 8dea 02bd d211 acbd
00000260: c479 813d 6f87 8ebd 5a05 8dbb 39f6 1c3d
00000270: 192c b8bd 4ddd eb3d c59b ebbc 2867 ae3d
00000280: 796a 703c 248c 733d cb49 b0bd b1ea 783d
00000290: 6a69 903d f1ea bcbc ba53 a4bc 9931 2d3c
000002a0: 04e9 863c 82eb 4a3d 1d87 4e3c 8afd cabd
000002b0: ce97 0ebc 37a0 18bd 7290 c1bd 7af5 8b3c
000002c0: 37ce 0ebd f89d e7bd ab8f 76bc 7372 2c3a
000002d0: 2a2b 80bd 89fd f53c 68b5 d13d 954e 663d
000002e0: 46dd cd3d 76a4 e0bd c4b9 fcbb 13b5 c53d
000002f0: c351 74bd 43bd ce3b 4e28 51bd 7ea8 d3bd
00000300: c3fd 02bc 597b 28bd 6dbb 803d ac37 023d
00000310: 33d4 9abd d239 a5bd d7f9 0c3d 62b7 04bd
00000320: 8454 053d 2334 d2bd ebfe abbd 706f 003d
00000330: b70b a03d d390 93bc fbf5 5f3d a504 a4bc
00000340: 04ca ff3c bf07 71bd 61ab 27bc 9f45 e13d
00000350: e814 033e f56f a7bd e583 b0bd b721 023c
00000360: dd4a a33d 0e7b 38bd 1993 cb3d a9d2 ac3c
00000370: 3b8e 893d cc8b 4bbd 8ddf 8d3d 48ff 603d
00000380: 6d2c 683d fec5 813d af0f c43d 2288 d3bd
00000390: 8d20 afbc 89f4 8dbd 7b0f b9bd fd3d d53c
000003a0: 0032 eebd a335 8fbd 69cd bdbd 6f7b a93c
000003b0: 4df0 8abd f737 0d3d 3d41 9d3d 5f6b cb3c
000003c0: 20ee 4b3d 9414 d13b 791a d13c 8070 aabd
000003d0: ecfa 6b3d 6251 93bd d3e2 edbd af7f acbc
000003e0: c584 bd3d 012d 9e3c 6aff cfbd 2b75 b63d
000003f0: 2f3d b03d 7345 25bd a383 a03d 37f2 eb3d

transformer.attn.proj_q.bias f4 [72]
-0.008198309 -0.03140441 -0.0006530821 0.034757644 -0.07251509 0.045654863 -0.032938067 0.06124659
-0.025642106 -0.08731382 0.009627441 -0.07127757 -0.04422159 -0.026436044 0.113650545 -0.093540646
0.0004775969 0.1205505 0.07002976 0.09274022 -0.054578453 -0.05652146 0.07103494 -0.090740755
0.093521416 0.045481775 0.014938988 -0.049486157 -0.037283327 0.074972086 -0.054277517 -0.10543248
0.06950926 -0.04574837 0.022700531 -0.086573444 0.075283304 -0.046674985 0.042419065 0.025033727
-0.061856266 -0.08992453 0.034392495 0.09173526 -0.026436394 -0.029483667 0.0050845016 0.059319414
-0.05550216 -0.077675045 0.018323464 0.012267233 0.030744411 0.08049695 0.11658082 -0.04585582
0.098650396 0.06561451 -0.07062624 -0.113225706 0.04327036 -0.12293579 -0.027077064 0.005872339
0.025529357 -0.00971223 0.09864179 0.13439286 -0.040524386 0.046792097 -0.084820054 -0.10278176
00000000: 3352 06bc e9a1 00bd 9933 2bba 085e 0e3d
00000010: cb82 94bd 9800 3b3d 11ea 06bd b4dd 7a3d
00000020: 650f d2bc 97d1 b2bd 6abc 1d3c faf9 91bd
00000030: b321 35bd 6790 d8bc 9ec1 e83d 3d92 bfbd
00000040: f965 fa39 2ee3 f63d c36b 8f3d 96ee bd3d
00000050: a88d 5fbd 0c83 67bd c47a 913d 4ad6 b9bd
00000060: 2888 bf3d 194b 3a3d a8c2 743c ffb1 4abd
00000070: 67b6 18bd f78a 993d 1a52 5ebd fcec d7bd
00000080: df5a 8e3d a562 3bbd 77f6 b93c 6b4d b1bd
00000090: 222e 9a3d 452e 3fbd 9dbf 2d3d 8813 cd3c
000000a0: ff5c 7dbd 5a2a b8bd 25df 0c3d b2df bb3d
000000b0: 2391 d8bc bb87 f1bc e49b a63b eaf8 723d
000000c0: 3c56 63bd 1814 9fbd 171b 963c 81fc 483c
000000d0: b4db fb3c 96db a43d edc1 ee3d 50d3 3bbd
000000e0: 3809 ca3d e660 863d 7da4 90bd e1e2 e7bd
000000f0: 433c 313d c2c5 fbbd b8d0 ddbc c06c c03b
00000100: f122 d13c 0c20 1fbc b504 ca3d 489e 093e
00000110: e6fc 25bd 12a9 3f3d 23b6 adbd 3e7f d2bd

transformer.attn.proj_k.weight f4 [72, 72]
0.112392776 0.06784473 -0.007610603 0.007165152 0.11756413 -0.09788146 -0.015057128 -0.062203526
-0.07519781 0.11677115 -0.04160781 -0.07041945 -0.13928713 -0.018419743 -0.019977795 0.07175656
0.040421184 -0.106241666 -0.026482917 0.0024460417 0.019887762 -0.07356035 0.14773175 0.024440017
-0.13359341 -0.05470974 0.07064695 0.0059576635 -0.113748975 0.050804876 0.021122934 -0.054563113
0.0038928483 0.035371497 0.02989356 -0.13147098 0.023808181 0.01008045 -0.081121944 0.12799183
0.08729497 0.06768072 -0.109874204 -0.008871919 -0.10283043 0.058700036 0.068619445 -0.058751877
0.07831767 0.07350872 -0.07074708 0.08850208 -0.04910985 -0.016249355 -0.10921735 -0.018665707
0.10595726 0.016612412 -0.07658354 -0.08311549 -0.15690713 -0.05964838 -0.08485825 -0.07002418
-0.105400726 -0.07165333 0.04018134 -0.010229535 -0.05722569 -0.025438353 -0.072215796 0.14562385
0.06409074 0.010300511 -0.0297006 -0.05285889 -0.06731484 -0.02481162 0.01570401 -0.09134995
-0.019088794 0.11252372 0.09663625 -0.020997036 -0.08970433 -0.04644351 0.053190038 0.08539782
0.042829633 0.09180966 0.10112157 0.0023089964 0.019434772 -0.05495104 -0.098904476 0.044082846
-0.002460613 -0.07720253 0.10097294 -0.049714103 0.058854103 0.033154268 -0.095003314 -0.07251004
-0.048882604 0.023632666 -0.040544365 -0.007776475 0.026329493 0.024914248 -0.04633254 -0.09050631
0.0386112 -0.0994684 -0.004978287 -0.06329293 -0.07973383 0.10944399 0.057259806 0.104189366
0.03228261 -0.064088665 0.016948067 -0.016910508 -0.048001193 -0.013913224 0.107470766 -0.10288064
0.04357851 0.06825184 0.031521052 0.1186226 -0.09026243 -0.10318166 0.039342675 0.0812978
-0.014952842 0.02520853 -0.08612952 0.030292993 0.04915977 -0.10937372 0.014431842 0.09075884
0.10908963 -0.01007161 -0.041338623 -0.010222182 0.0065338933 -0.11562332 -0.057000846 -0.08302921
-0.027625257 -0.037489623 -0.110161714 0.032734197 -0.13747878 -0.049737297 0.045289878 0.013242089
0.05325123 -0.005075991 -0.10288546 -0.03721879 0.088290624 0.068249345 0.0644915 0.10509479
0.082144335 0.14291635 -0.059563957 0.025533233 0.10703252 0.053846784 0.050304305 0.1300327
-0.008253244 -0.020826181 -0.08519622 -0.06600196 -0.06300106 0.10781148 0.07014145 -0.0019941216
0.0029935578 -0.08504787 0.10665337 0.100975215 -0.11956003 0.092392065 -0.06635521 0.026289647
-0.003711553 0.027788647 -0.08594023 -0.009930737 -0.06671452 0.06743813 -0.07311903 0.046695635
-0.08634746 0.059578743 -0.03531763 0.056358054 0.023484483 -0.059555255 -0.07767601 0.03544135
0.0915497 0.12845257 -0.045551155 0.0417168 -0.005544421 0.15241256 0.08643679 0.11399043
-0.1281903 0.01005208 0.023936637 -0.025296353 -0.079288684 -0.04541371 0.086589664 -0.08577834
0.07786579 -0.029902155 0.013689695 -0.030748518 -0.04093427 -0.0670912 0.09431308 -0.010151033
-0.0744036 0.081274696 0.098997906 0.05767674 0.038640995 0.12812923 -0.08462162 -0.073627695
-0.099032186 -0.07916938 -0.07681929 -0.029124286 0.12577064 -0.00989153 -0.011095621 0.033008695
-0.026870228 0.04494031 0.06034702 -0.042996086 -0.0046198918 0.09815732 -0.08978132 -0.09472909
00000000: 2f2e e63d 2ef2 8a3d 5d62 f9bb a7c9 ea3b
00000010: 76c5 f03d 1376 c8bd 2cb2 76bc 20c9 7ebd
00000020: 4f01 9abd b625 ef3d f36c 2abd 1338 90bd
00000030: 49a1 0ebe 00e5 96bc 79a8 a3bc 1af5 923d
00000040: af90 253d 3b95 d9bd b4f2 d8bc c54d 203b
00000050: a9eb a23c cfa6 96bd fe46 173e 6e36 c83c
00000060: b6cc 08be 5217 60bd 59af 903d 8138 c33b
00000070: 39f5 e8bd c618 503d 010a ad3c 927d 5fbd
00000080: 281f 7f3b b4e1 103d 57e3 f43c 54a0 06be
00000090: 6009 c33c 7928 253c 4323 a6bd 4a10 033e
000000a0: b5c7 b23d 309c 8a3d ba05 e1bd 865b 11bc
000000b0: c398 d2bd 736f 703d 5a88 8c3d cfa5 70bd
000000c0: 0465 a03d bd8b 963d d8e3 90bd 9440 b53d
000000d0: 6927 49bd 5e1d 85bc 59ad dfbd d3e8 98bc
000000e0: 1f00 d93d c116 883c d5d7 9cbd 7438 aabd
000000f0: 43ac 20be dc51 74bd 2aca adbd d668 8fbd
00000100: 56dc d7bd fbbe 92bd 3095 243d c899 27bc
00000110: 7c65 6abd 1864 d0bc e0e5 93bd 6b1e 153e
00000120: 0242 833d 79c3 283c ac4e f3bc 9082 58bd
00000130: 5ddc 89bd bd41 cbbc b2a5 803c af15 bbbd
00000140: 1a60 9cbc d672 e63d 3ae9 c53d fa01 acbc
00000150: e7b6 b7bd 8d3b 3ebd ccdd 593d 0de5 ae3d
00000160: 206e 2f3d b406 bc3d d318 cf3d 8852 173b
00000170: ac35 9f3c 5714 61bd 6e8e cabd 3790 343d
00000180: 3c42 21bb 5c1c 9ebd e7ca ce3d 04a1 4bbd
00000190: 0011 713d c5cc 073d 1991 c2bd 2580 94bd
000001a0: 2039 48bd 4b99 c13c d911 26bd cdd1 febb
000001b0: f3b0 d73c f718 cc3c 31c7 3dbd 5f5b b9bd
000001c0: c726 1e3d 17b6 cbbd e620 a3bb b99f 81bd
000001d0: 7e4b a3bd 2c24 e03d 4289 6a3d 3c61 d53d
000001e0: c53a 043d eb40 83bd acd6 8a3c e887 8abc
000001f0: e69c 44bd 4bf4 63bc a219 dc3d 16b3 d2bd
00000200: 617f 323d 9fc7 8b3d 381c 013d 68f0 f23d
00000210: 82db b8bd e850 d3bd c925 213d 767f a63d
00000220: c4fc 74bc 1e82 ce3c ac64 b0bd 0329 f83c
00000230: c15b 493d 54ff dfbd 8873 6c3c c5df b93d
00000240: 626a df3d 6503 25bc b052 29bd f07a 27bc
00000250: 451a d63b ebcb ecbd b879 69bd 380b aabd
00000260: 5d4e e2bc b88e 19bd 779c e1bd 4b14 063d
00000270: 3dc7 0cbe 56b9 4bbd e181 393d 59f5 583c
00000280: f61d 5a3d 8054 a6bb 9db5 d2bd bb72 18bd
00000290: b7d1 b43d 50c6 8b3d 1f14 843d f03b d73d
000002a0: 4a3b a83d aa58 123e 56f9 73bd 122b d13c
000002b0: de33 db3d 728e 5c3d e30b 4e3d 4b27 053e
000002c0: 9d38 07bc ab9b aabc 5b7b aebd 092c 87bd
000002d0: b306 81bd 44cc dc3d 52a6 8f3d cfaf 02bb
000002e0: 912f 443b 942d aebd 156d da3d 18cc ce3d
000002f0: e4db f4bd 0d38 bd3d 3ee5 87bd 635d d73c
00000300: 873d 73bb 04a5 e33c 6e01 b0bd 88b4 22bc
00000310: 9fa1 88bd 011d 8a3d 6ebf 95bd ec43 3f3d
00000320: f0d6 b0bd d708 743d 38a9 10bd b4d7 663d
00000330: 8862 c03c 36f0 73bd 9a14 9fbd f32a 113d
00000340: 697e bb3d 1289 033e d993 3abd 3cdf 2a3d
00000350: f9ad b5bb 0a12 1c3e c605 b13d d173 e93d
00000360: 5144 03be 7bb1 243c c416 c43c 4c3a cfbc
00000370: 1b62 a2bd ba03 3abd ec55 b13d 8eac afbd
00000380: 1978 9f3d 5df5 f4bc be4a 603c 51e4 fbbc
00000390: b1aa 27bd 1c67 89bd 3727 c13d 8550 26bc
000003a0: ea60 98bd 5973 a63d 6abf ca3d 723e 6c3d
000003b0: 0546 1e3d 4f34 033e 1a4e adbd 1eca 96bd
000003c0: 63d1 cabd 8e23 a2bd 6f53 9dbd 0e96 eebc
000003d0: 05ca 003e 1510 22bc 68ca 35bc 2034 073d
000003e0: f41e dcbc 5513 383d 702e 773d aa1c 30bd
000003f0: 7662 97bb b406 c93d 45df b7bd 5301 c2bd

transformer.attn.proj_k.bias f4 [72]
-0.04913386 -0.039132793 0.06780514 0.06402126 -0.017762138 0.047488857 -0.037136953 0.04646496
0.046509422 0.053095307 -0.037136465 0.041364834 0.02362772 0.08365933 0.024284381 0.005105448
0.077856936 0.11578568 -0.068258084 0.04243749 0.074141 0.00029213334 -0.026934456 -0.08352843
-0.060641892 -0.10165265 -0.08429155 -0.09633198 0.08982317 0.04088718 0.116950855 0.0042659645
0.0010485578 0.055023856 -0.089920044 -0.029439244 0.057887655 0.10183329 0.077622585 0.027511032
0.028074179 -0.038725484 0.07806269 -0.003970485 0.043810215 -0.024801463 0.02084127 -0.11754304
-0.019084673 0.08576975 0.009861611 0.11187703 -0.09892635 -0.053522762 -0.09974862 0.0651028
-0.09192388 -0.018777385 0.072809644 -0.034681257 0.022321684 -0.06529026 -0.004535921 -0.047426224
-0.055061024 -0.018202415 0.08033579 0.0694616 -0.057849556 0.072031006 0.09987007 -0.0332304
00000000: 9640 49bd b549 20bd 6cdd 8a3d 941d 833d
00000010: e781 91bc ad83 423d eb1c 18bd 0b52 3e3d
00000020: aa80 3e3d 777a 593d 681c 18bd 2c6e 293d
00000030: ec8e c13c 9555 ab3d 0af0 c63c 9a4b a73b
00000040: 7573 9f3d 0b21 ed3d e5ca 8bbd efd2 2d3d
00000050: 3dd7 973d 7929 9939 a6a5 dcbc f410 abbd
00000060: a263 78bd 442f d0bd 0ca1 acbd b349 c5bd
00000070: 36f5 b73d 5179 273d ee83 ef3d 81c9 8b3b
00000080: c36f 893a b260 613d 0028 b8bd 922a f1bc
00000090: 9b1b 6d3d f98d d03d 97f8 9e3d d15e e13c
000000a0: d2fb e53c 9d9e 1ebd 55df 9f3d d81a 82bb
000000b0: 5772 333d 702c cbbc 50bb aa3c 68ba f0bd
000000c0: 7657 9cbc 0da8 af3d 9892 213c c91f e53d
000000d0: e699 cabd af3a 5bbd 0149 ccbd 9e54 853d
000000e0: 9642 bcbd 08d3 99bc 391d 953d ef0d 0ebd
000000f0: f7db b63c e6b6 85bd 10a2 94bb 0042 42bd
00000100: ab87 61bd 3b1d 95bc 1787 a43d e241 8e3d
00000110: a8f3 6cbd fe84 933d ae88 cc3d 9a1c 08bd

transformer.attn.proj_v.weight f4 [72, 72]
-0.11604247 0.0055208146 0.030494364 -0.04555937 -0.005383942 0.017108494 0.08967487 0.08241854
0.06952946 -0.028238744 0.08542238 0.073883034 -0.085284226 0.002875616 -0.040982608 0.0010821067
-0.0732427 0.088373475 0.10042968 -0.084994785 -0.11016465 0.02501364 0.045646045 0.07994502
-0.0795917 -0.064454906 0.075895265 0.038515463 0.054473825 -0.037200917 -0.049707294 0.07631993
0.030702079 0.03276008 -0.08371495 -0.01307422 0.08230955 0.06481513 -0.10025541 0.0896223
-0.039316185 -0.02305711 0.08329256 -0.0911691 -0.0038710162 0.06041441 -0.06390875 -0.08894653
0.065444976 0.110226944 -0.018278506 0.041447293 -0.12109653 0.08013678 -0.06397634 0.109948434
0.10891953 0.048524816 -0.011655146 -0.0844598 0.05340557 0.032238174 0.08378348 -0.09432832
0.059263427 -0.10796797 0.10635101 -0.023017943 0.0038450125 -0.080646224 0.08199656 -0.11632447
-0.09627954 -0.01581519 0.0032828627 0.0934079 0.030545106 0.10870208 0.040736355 0.053849094
-0.11113134 0.06414639 -0.09014572 0.07060337 -0.020920586 0.03309824 0.06689266 0.11164218
-0.115361355 -0.06869176 -0.006698411 -0.07070165 -0.065155655 0.031863883 -0.12080164 -0.05853021
0.05610698 0.06559834 -0.03571439 -0.022525607 -0.0005061052 0.057560213 0.010891503 0.033152595
-0.043148026 0.10806856 -0.092954546 -0.030077236 -0.071500234 0.008237621 -0.057899483 0.052864052
0.036001157 -0.0060364795 0.005301386 -0.04547565 0.052647673 -0.052629814 0.064598806 0.066354014
0.045028966 -0.09351813 -0.07908535 -0.074721485 0.05412222 0.007772757 -0.0025852304 0.021432148
0.0021676305 -0.09268196 -0.0009999778 -0.0034471825 0.084272236 0.06227219 0.11014182 0.058847494
-0.0508868 0.085592 0.07402274 -0.08485043 -0.10151104 0.0068099173 -0.015372995 -0.108662575
0.00073399564 -0.04171295 0.10375986 -0.02454959 0.0340833 -0.04973984 0.025083777 -0.04382306
0.014327889 -0.10335226 -0.121938854 0.073901065 0.07285852 0.040444702 0.11251081 0.001740307
-0.026657356 0.06330558 -0.10164162 0.045064557 -0.05266251 -0.046102695 0.027551414 0.11946749
-0.08778515 0.115713984 -0.077131175 0.08780852 0.087807015 0.11527324 -0.02550946 0.11067485
0.1063991 0.071581066 0.026367527 0.0974419 0.072293974 0.043268654 0.038375203 -0.05162345
0.11614702 -0.008349896 -0.04601781 -2.472716e-05 0.11134916 -0.07102654 0.012295058 -0.01295412
-0.07694632 0.09258848 -0.069373995 0.0857703 0.0048670373 -0.052092887 0.10870239 0.04520085
0.067758806 -0.11848028 -0.03996128 -0.021212742 0.08067131 -0.0041902647 -0.010891767 0.03806138
-0.05744057 -0.000981428 0.012357331 -0.049212024 0.09018231 0.10530425 -0.07107761 -0.012556613
-0.04930503 0.10152299 0.028163293 -0.088170104 0.08477721 0.06653947 0.016901564 0.038860645
-0.07840415 0.031201357 0.0691991 0.08798388 -0.06384305 0.08904794 -0.053853683 0.11069517
0.0051426985 -0.04592794 -0.021902766 -0.02557807 0.02594556 -0.05413427 -0.057386227 -0.054739457
-0.035276227 0.030484581 -0.08692518 0.013884014 0.058067165 0.03135238 0.022006994 -0.021753265
-0.07703414 -0.017357145 -0.10376363 -0.065678276 0.047147933 -0.01928434 0.0060707317 -0.082207896
00000000: ada7 edbd f3e7 b43b 51cf f93c 769c 3abd
00000010: c76b b0bb 1d27 8c3c 75a7 b73d 0dcb a83d
00000020: 7665 8e3d f054 e7bc eef1 ae3d fd4f 973d
00000030: 7fa9 aebd d574 3c3b 61dd 27bd 7ad5 8d3a
00000040: 4500 96bd 27fd b43d 13ae cd3d bf11 aebd
00000050: 019e e1bd 68e9 cc3c 59f7 3a3d 37ba a33d
00000060: f900 a3bd ef00 84bd fa6e 9b3d 64c2 1d3d
00000070: f21f 5f3d fd5f 18bd e099 4bbd a04d 9c3d
00000080: ed82 fb3c 6f2f 063d be72 abbd 4135 56bc
00000090: e991 a83d cbbd 843d b552 cdbd e58b b73d
000000a0: 020a 21bd 44e2 bcbc 4a95 aa3d ddb6 babd
000000b0: e0b0 7dbb 1a75 773d 97e2 82bd 9929 b6bd
000000c0: 0408 863d aabe e13d cebc 95bc a3c4 293d
000000d0: 7501 f8bd c11e a43d 0706 83bd a52c e13d
000000e0: 3411 df3d f5c1 463d 3af5 3ebc 42f9 acbd
000000f0: cdbf 5a3d 2d0c 043d ac96 ab3d 352f c1bd
00000100: 35be 723d 501e ddbd 8fce d93d 2090 bcbc
00000110: 9bfc 7b3b d929 a5bd d0ed a73d 863b eebd
00000120: 352e c5bd db8e 81bc 4c25 573b a44c bf3d
00000130: bb39 fa3c 329f de3d 2adb 263d de90 5c3d
00000140: d498 e3bd 2f5f 833d 529e b8bd 8098 903d
00000150: a661 abbc 0592 073d 05ff 883d a8a4 e43d
00000160: 9342 ecbd 44ae 8cbd 587e dbbb 07cc 90bd
00000170: 5470 85bd b483 023d da66 f7bd 60bd 6fbd
00000180: 6fd0 653d 6c58 863d 4149 12bd 9f87 b8bc
00000190: 25ac 04ba 42c4 6b3d 4672 323c 04cb 073d
000001a0: fcbb 30bd 0d53 dd3d f45e bebd 8964 f6bc
000001b0: b76e 92bd 16f7 063c 0228 6dbd fa87 583d
000001c0: f375 133d a9cd c5bb 40b7 ad3b ad44 3abd
000001d0: 16a5 573d 5c92 57bd 614c 843d 9de4 873d
000001e0: 4b70 383d 6f86 bfbd 80f7 a1bd 9407 99bd
000001f0: 43af 5d3d 9db2 fe3b f86c 29bb 7992 af3c
00000200: ce0e 0e3b 0ad0 bdbd b011 83ba 20ea 61bb
00000210: ec96 ac3d 2011 7f3d 0992 e13d 120a 713d
00000220: ad6e 50bd dc4a af3d 3c99 973d 10c6 adbd
00000230: 05e5 cfbd ba25 df3b 04df 7bbc 7c8a debd
00000240: 9d69 403a 33db 2abd 0d80 d43d 391c c9bc
00000250: ee9a 0b3d 01bc 4bbd 7e7c cd3c cf7f 33bd
00000260: 86bf 6a3c 5aaa d3bd 14bb f9bd 7159 973d
00000270: d936 953d 58a9 253d 116c e63d 031b e43a
00000280: 8760 dabc 5ba6 813d 7b29 d0bd 9d95 383d
00000290: a5b4 57bd 2ed6 3cbd 81b3 e13c 5fab f43d
000002a0: b3c8 b3bd 74fb ec3d f3f6 9dbd f4d4 b33d
000002b0: 2ad4 b33d 6014 ec3d 37f9 d0bc 7fa9 e23d
000002c0: c5e7 d93d 1899 923d b600 d83c 9e8f c73d
000002d0: dd0e 943d 793a 313d 512f 1d3d 1c73 53bd
000002e0: 7dde ed3d 01ce 08bc 2c7d 3cbd 2c6d cfb7
000002f0: 070b e43d 5d76 91bd 3671 493c 843d 54bc
00000300: 0896 9dbd 079f bd3d f413 8ebd 57a8 af3d
00000310: ab7b 9f3b 5a5f 55bd 5c9f de3d 8724 393d
00000320: 21c5 8a3d caa5 f2bd 70ae 23bd 58c6 adbc
00000330: 0037 a53d 7d4e 89bb 6273 32bc 40e6 1b3d
00000340: ce46 6bbd 42a3 80ba 6776 4a3c 8c92 49bd
00000350: 81b1 b83d c1a9 d73d 2391 91bd 41ba 4dbc
00000360: 12f4 49bd 49eb cf3d b5b6 e63c 8792 b4bd
00000370: ad9f ad3d d845 883d 2675 8a3c 572c 1f3d
00000380: 5b92 a0bd fd99 ff3c 42b8 8d3d e430 b43d
00000390: 25c0 82bd c45e b63d ae95 5cbd 26b4 e23d
000003a0: 1584 a83b f01e 3cbd 6e6d b3bc 1a89 d1bc
000003b0: c88b d43c e5bb 5dbd d20d 6bbd 7b36 60bd
000003c0: ce7d 10bd cdba f93c d405 b2bd c779 633c
000003d0: d6d7 6d3d 5a6b 003d 0348 b43c e733 b2bc
000003e0: 13c4 9dbd 9230 8ebc 0782 d4bd 5582 86bd
000003f0: 311e 413d 31fa 9dbc fdec c63b 9d5c a8bd

transformer.attn.proj_v.bias f4 [72]
0.018360522 -0.0019006208 0.05148672 -0.10940623 -0.10149411 -0.0009354342 0.11363818 0.07806683
-0.031872757 0.08218689 0.042346608 -0.026189245 -0.09082462 0.108579405 -0.013221659 0.09267767
-0.06655067 -0.072817415 -0.028685873 -0.08117683 -0.08820691 0.0075874887 0.12168243 -0.115411706
-0.09937549 -0.10334411 -0.0049845316 -0.043315016 -0.06810049 0.02993776 0.014222733 0.047520436
-0.007949644 0.028428903 -0.09549253 0.042096093 -0.014165751 0.097330876 0.027465241 -0.049416076
-0.02786731 0.065474704 -0.054241788 -0.024097241 -0.09693364 0.0564029 -0.091721274 0.100193515
0.11101102 -0.07482435 0.029473165 0.09479566 0.11393314 -0.0636728 -0.050264433 0.09941319
-0.077228114 0.02234131 0.0152298985 -0.09079381 -0.013611239 0.07500629 -0.026255324 -0.035245385
-0.020837732 -0.024658054 -0.039961033 0.0055059805 0.011945765 -0.03134512 -0.007910164 -0.034151714
00000000: ce68 963c 401e f9ba bde3 523d 6010 e0bd
00000010: 25dc cfbd ed37 75ba 22bb e83d 81e1 9f3d
00000020: 028d 02bd 9a51 a83d a373 2d3d d48a d6bc
00000030: 4202 babd e15e de3d a89f 58bc cacd bd3d
00000040: b84b 88bd 4c21 95bd a3fe eabc 0a40 a6bd
00000050: d3a5 b4bd 78a0 f83b a334 f93d f95c ecbd
00000060: 6085 cbbd 14a6 d3bd 4855 a3bb 166b 31bd
00000070: 4578 8bbd 0940 f53c 7706 693c caa4 423d
00000080: 393f 02bc bbe3 e83c 9691 c3bd f46c 2c3d
00000090: 7717 68bc 6955 c73d c9fe e03c 8368 4abd
000000a0: fc49 e4bc 9a17 863d a32c 5ebd 9467 c5bc
000000b0: 2585 c6bd ba06 673d 5dd8 bbbd 4232 cd3d
000000c0: bf59 e33d 823d 99bd b571 f13c 3a24 c23d
000000d0: c755 e93d e366 82bd 14e2 4dbd 2499 cb3d
000000e0: c629 9ebd 1f05 b73c d386 793c 1bf2 b9bd
000000f0: ad01 5fbc e69c 993d 6815 d7bc 775d 10bd
00000100: e4b3 aabc b0ff c9bc 2eae 23bd 836b b43b
00000110: 2cb8 433c be63 00bd a299 01bc abe2 0bbd

transformer.proj.weight f4 [72, 72]
-0.044905107 0.05337998 0.028450377 0.054698154 -0.09521069 -0.046992734 0.03830371 0.051230434
-0.017723536 0.02066477 0.011043092 -0.09109179 0.027734917 -0.119146585 0.07457625 -0.0041719084
-0.07993456 0.07649694 -0.10210565 -0.060432214 0.0529789 0.022905944 -0.014258856 -0.092430726
0.111603744 -0.057638112 -0.012299914 -0.03893016 -0.088713296 -0.047081895 0.09059873 0.11097557
-0.111561455 -0.072178215 -0.004886139 0.0001849002 -0.043301743 0.06593608 -0.108913556 -0.014110869
-0.09528213 0.08837977 -0.08881799 0.11186803 -0.06333505 0.024344014 -0.046099644 0.093231514
0.05502493 0.094797224 -0.061208773 -0.0039622183 0.08503494 -0.11153118 0.057625502 0.026645126
-0.10329089 0.049368907 -0.05832128 0.117353834 -0.01057256 0.06529794 -0.08974077 -0.025950758
0.10581511 -0.08181599 -0.07109918 0.0038258485 0.07087052 -0.029309927 0.059349798 0.05527974
0.014575488 -0.020699697 0.088539094 -0.077895 -0.024665024 0.07384476 -0.075971186 0.086190246
0.068945974 0.10458173 -0.042373907 -0.08674305 0.023248522 0.032630514 0.03480791 0.0011828204
-0.046186607 -0.063354924 0.089083426 -0.08078272 0.027688632 -0.048389617 0.022877617 -0.04399745
0.009056702 -0.067205384 -0.09690115 0.108307794 -0.06588315 -0.02185001 0.02785203 0.002320223
0.07472628 0.068734445 -0.04991331 -0.11065393 0.11197156 0.10165237 -0.019210793 -0.11129382
0.046784695 -0.04603238 0.09491751 0.028275931 -0.03774185 -0.06527982 0.10520703 -0.05946414
0.025299096 -0.08510297 0.063612394 0.054246474 -0.07879135 -0.070103966 -0.027671402 0.04962511
-0.017041327 -0.049198456 -0.11497846 0.00503069 -0.057268333 0.004402625 0.05856468 0.11998599
-0.085236356 0.08780378 0.07985087 0.05731655 -0.06557555 -0.043858297 0.01966473 -0.009565113
-0.07335308 0.062001254 -0.033180226 0.09686309 -0.053505626 0.062232982 0.08352262 0.07625437
0.09000667 -0.05709137 0.07351941 0.09352797 0.10022645 -0.07343617 0.026278814 0.107955724
0.025575794 0.080293044 0.007872772 0.11770348 -0.09762017 0.06857778 -0.013848771 0.078031994
-0.08817176 0.030659212 0.050002683 -0.015789842 -0.03874511 -0.018214947 -0.08627727 -0.033989493
0.086737916 -0.054059196 -0.06685263 -0.023145648 -0.07543304 0.04146514 -0.06020617 -0.013494093
-0.06490008 0.065494716 0.06613011 0.018711586 -0.039688494 -0.08884235 -0.052376833 -0.018302819
0.09451116 -0.07354909 -0.08322351 -0.09032493 0.093771935 0.11020864 -0.08165292 -0.08548621
-0.06243971 -0.06384793 0.038991157 -0.06351588 0.02284272 -0.046059854 0.0101209525 -0.046344694
-0.08546076 -0.026880285 0.017344061 0.08150729 -0.011180462 -0.008903236 0.10738815 -0.11271451
0.0033926254 -0.044116035 -0.08220098 0.016059507 0.10509666 0.08592537 0.0015738468 -0.052972708
0.03881389 0.09080734 -0.025879664 0.07585067 -0.0020705739 -0.07189047 -0.06979447 0.05801331
0.043850638 -0.10559537 0.10756247 0.06999278 -0.012457185 -0.02974052 0.10042485 -0.091933705
0.025156198 0.08407434 -0.0862255 -0.108010404 0.0057937875 0.042089064 -0.08991993 0.11763409
-0.09629291 0.011611884 0.10665287 -0.113912135 0.10026594 -0.11036086 -0.11370184 -0.054061685
00000000: 6bee 37bd f7a4 5a3d c410 e93c 2c0b 603d
00000010: d2fd c2bd 747b 40bd 5ae4 1c3d 01d7 513d
00000020: f330 91bc 2a49 a93c 16ee 343c 558e babd
00000030: 5634 e33c 2003 f4bd 6fbb 983d 81b4 88bb
00000040: bbb4 a3bd 6daa 9c3d c41c d1bd c587 77bd
00000050: 6700 593d 3fa5 bb3c fa9d 69bc 524c bdbd
00000060: 8190 e43d f115 6cbd 9485 49bc 3b75 1fbd
00000070: 51af b5bd f2d8 40bd d48b b93d 2947 e33d
00000080: 557a e4bd 2cd2 93bd e81b a0bb c5e1 4139
00000090: 2b5d 31bd 7f09 873d 120e dfbd 4631 67bc
000000a0: 4723 c3bd 7400 b53d 35e6 b5bd 111b e53d
000000b0: cfb5 81bd 196d c73c fbd2 3cbd 2af0 be3d
000000c0: d261 613d 0c25 c23d 0db6 7abd 7fd5 81bb
000000d0: cc26 ae3d 766a e4bd b808 6c3d e146 da3c
000000e0: 2d8a d3bd 0d37 4a3d 4be2 6ebd 3557 f03d
000000f0: 8838 2dbc edba 853d 02ca b7bd af96 d4bc
00000100: 98b5 d83d 248f a7bd 729c 91bd 16bb 7a3b
00000110: 9024 913d 5f1b f0bc c618 733d 026d 623d
00000120: 07ce 6e3c 6992 a9bc fc53 b53d 6a87 9fbd
00000130: 4e0e cabc ec3b 973d c896 9bbd 8384 b03d
00000140: 8c33 8d3d f22e d63d 4390 2dbd 57a6 b1bd
00000150: af73 be3c 93a7 053d bd92 0e3d de08 9b3a
00000160: 2b2e 3dbd 3ac0 81bd 5f71 b63d 6971 a5bd
00000170: 45d3 e23c 3134 46bd d769 bb3c ac36 34bd
00000180: 9062 143c faa2 89bd 1c74 c6bd 7ad0 dd3d
00000190: bfed 86bd cbfe b2bc f129 e43c e20e 183b
000001a0: 180a 993d a5c4 8c3d e671 4cbd 879e e2bd
000001b0: 5851 e53d 1e2f d03d f45f 9dbc 04ee e3bd
000001c0: 4fa1 3f3d 738c 3cbd 1d64 c23d eda2 e73c
000001d0: 3397 1abd 6db1 85bd c976 d73d ac90 73bd
000001e0: 0d40 cf3c 774a aebd 3747 823d 8d31 5e3d
000001f0: 5c5d a1bd ab92 8fbd 23af e2bc b343 4b3d
00000200: 419a 8bbc 5284 49bd d479 ebbd 7dd8 a43b
00000210: 3392 6abd e543 903b 85e1 6f3d 37bb f53d
00000220: 6690 aebd 78d2 b33d da88 a33d c2c4 6a3d
00000230: 794c 86bd c2a4 33bd ee17 a13c feb6 1cbc
00000240: 243a 96bd 07f5 7d3d fde7 07bd 2860 c63d
00000250: b728 5bbd 03e8 7e3d e80d ab3d 402b 9c3d
00000260: 6b55 b83d a4d8 69bd 5891 963d 988b bf3d
00000270: 8643 cd3d b465 96bd ab46 d73c e417 dd3d
00000280: 5484 d13c ae70 a43d cdfc 003c 860e f13d
00000290: 15ed c7bd 8272 8c3d f5e5 62bc 3dcf 9f3d
000002a0: 6593 b4bd 0729 fb3c 9dcf 4c3d b359 81bc
000002b0: 31b3 1ebd 8337 95bc 23b2 b0bd 9138 0bbd
000002c0: a6a3 b13d 2d6d 5dbd 08ea 88bd f19b bdbc
000002d0: a37c 9abd 5ad7 293d bf9a 76bd 5416 5dbc
000002e0: 55ea 84bd 1822 863d 396f 873d 0a49 993c
000002f0: 6790 22bd faf2 b5bd 1789 56bd cbef 95bc
00000300: 118f c13d e8a0 96bd 1671 aabd 47fc b8bd
00000310: 800b c03d 11b5 e13d a539 a7bd 6513 afbd
00000320: c8c0 7fbd b4c2 82bd 31b5 1f3d 9d14 82bd
00000330: a820 bb3c 42a9 3cbd 5ad2 253c efd3 3dbd
00000340: 0d06 afbd 0b34 dcbc 2215 8e3c 4bed a63d
00000350: 422e 37bc e1de 11bc 52ee db3d ddd6 e6bd
00000360: cf56 5e3b 04b3 34bd fd58 a8bd 3a8f 833c
00000370: eb3c d73d a4f9 af3d 8949 ce3a e9f9 58bd
00000380: 50fb 1e3d 33f9 b93d 9701 d4bc 9957 9b3d
00000390: 77b2 07bb 503b 93bd 67f0 8ebd 5d9f 6d3d
000003a0: ba9c 333d 6342 d8bd b649 dc3d 6058 8f3d
000003b0: 3919 4cbc 64a2 f3bc 8bab cd3d bd47 bcbd
000003c0: 5f14 ce3c 2b2f ac3d ff96 b0bd 8f34 ddbd
000003d0: d0d9 bd3b 9565 2c3d f127 b8bd 24ea f03d
000003e0: 3835 c5bd c63f 3e3c d26c da3d c44a e9bd
000003f0: 3b58 cd3d e004 e2bd 83dc e8bd c96f 5dbd

transformer.proj.bias f4 [72]
0.07786297 -0.0121364705 0.019567575 -0.10123635 -0.08765799 -0.10990175 -0.09218665 0.0068989587
0.08536527 0.05467592 0.0763707 -0.115390874 0.0021321035 0.11008613 -0.123346314 -0.07019718
0.013411585 0.010995387 0.033771295 -0.110661365 -0.09817306 0.027205812 -0.050386246 -0.09261119
-0.114690766 -0.085525684 0.04561175 0.010415179 -0.011401518 -0.017218182 0.064807564 0.10497618
0.10457603 -0.096537195 0.0974404 0.096705005 -0.08835084 0.05103506 -0.082629144 -0.0714949
0.021029845 -0.108507715 0.04097725 -0.052477047 -0.04492072 0.016836291 0.01921869 0.028500067
-0.038188774 0.08997345 -0.05840791 0.024394242 0.122143075 0.059620634 -0.09396726 0.0744234
-0.0042401003 0.021814581 0.09652368 0.099697955 0.07667033 -0.11088435 0.069373414 0.09137497
0.090820596 -0.066626385 0.0727618 0.115367346 -0.0492916 -0.12014648 0.0009891724 -0.07823291
00000000: 9f76 9f3d 0cd8 46bc 2e4c a03c 0155 cfbd
00000010: 0886 b3bd 2b14 e1bd 5bcc bcbd a910 e23b
00000020: fdd3 ae3d dcf3 5f3d 3e68 9c3d 0d52 ecbd
00000030: c3ba 0b3b d674 e13d fe9c fcbd 8ac3 8fbd
00000040: 44bc 5b3c ff25 343c c553 0a3d 6da2 e2bd
00000050: f50e c9bd b9de de3c cf61 4ebd f0aa bdbd
00000060: fee2 eabd 1728 afbd 63d3 3a3d 6da4 2a3c
00000070: 6fcd 3abc 250d 8dbc d4b9 843d c0fd d63d
00000080: f52b d63d 4bb5 c5bd d58e c73d 460d c63d
00000090: 49f1 b4bd 240a 513d 7839 a9bd eb6b 92bd
000000a0: c846 ac3c 4b39 debd c3d7 273d 2cf2 56bd
000000b0: cafe 37bd 43ec 893c 8470 9d3c f978 e93c
000000c0: d56b 1cbd 0044 b83d 223d 6fbd 6fd6 c73c
000000d0: 2626 fa3d c434 743d e871 c0bd 4c6b 983d
000000e0: 8af0 8abb 7eb4 b23c 35ae c53d 712e cc3d
000000f0: 5505 9d3d 5617 e3bd a613 8e3d cd22 bb3d
00000100: 2600 ba3d 6a73 88bd 2304 953d b745 ec3d
00000110: fde5 49bd 5c0f f6bd 1ea7 813a 9338 a0bd
