saved/pretrain_base_blind_user_20_120/limu_v1.pt (torch, 259775 bytes, 29 tensors)

transformer.embed.lin.weight f4 [72, 6]
0	0xbe46ab46	-0.19401273
1	0x3e3dfa90	0.18552613
2	0xbe849a35	-0.258989
3	0xbe299e19	-0.16564216
4	0xbeabb90c	-0.33539617
5	0xbe2e46ad	-0.17019148
6	0xbeb43eea	-0.3520425
7	0x3e7b8790	0.24563432
8	0xbe0e3b30	-0.13889766
9	0xbe26da50	-0.16294217
10	0x3cc2beb3	0.023772573
11	0x3e9f713e	0.31141084
12	0xbea5fa46	-0.32417506
13	0x3ec24f37	0.3795106
14	0x3c203c7e	0.009780047
15	0xbd6879c8	-0.056756765
16	0xbee3c50c	-0.44486272
17	0x3eccdb25	0.40010944
18	0xbdb78676	-0.08961193
19	0x3e420830	0.18948436
20	0x3e968728	0.2939999
21	0xbde8f736	-0.11375277
22	0xbea2418f	-0.31690642
23	0x3ee6017c	0.44923007
24	0xbdadb3ab	-0.084815346
25	0x3d897218	0.06711215
26	0x3ecaa367	0.3957779
27	0x3e5bbed0	0.21459508
28	0x3eb3ea53	0.35139713
29	0x3e483451	0.19551207
30	0xbef01931	-0.4689422
31	0x3da951c0	0.08267546
32	0xbe5b93a7	-0.21443044
33	0x3db43a51	0.088001855
34	0xbea3cf98	-0.3199432
35	0xbe3291a1	-0.17438366
36	0xbe8ae891	-0.2713056
37	0x3eb789c5	0.35847297
38	0xbec9f14a	-0.394419
39	0x3e9fae09	0.31187466
40	0x3e3a3efd	0.1818809
41	0xbaf275f3	-0.0018498286
42	0x3f0519e5	0.51992637
43	0x3a0f1fb9	0.0005459744
44	0xbe0c55f5	-0.13704665
45	0xbcc8ae76	-0.024497252
46	0xbd00b67e	-0.031424038
47	0xbe26ade9	-0.16277279
48	0xbd45b66e	-0.04826968
49	0xbca652c9	-0.020303147
50	0x3e1a2cbc	0.15056127
51	0x3dd7c4f0	0.1053561
52	0x3ecc9f5e	0.39965338
53	0xbe951c66	-0.2912323
54	0x3f0882b2	0.53324425
55	0xbeb865bd	-0.3601512
56	0x3de54577	0.1119489
57	0x3d670c8e	0.056408457
58	0xbe8cc848	-0.27496552
59	0x3ed30a80	0.41218948
60	0x3e0e1a06	0.13877115
61	0xbe5c142c	-0.2149207
62	0xbd414a69	-0.047190104
63	0xbd529f5a	-0.0514215
64	0xbdd065d8	-0.10175675
65	0x3e4811e8	0.1953808
66	0xbe97433f	-0.29543492
67	0xbe217c56	-0.15770087
68	0xbeb3ad8a	-0.35093337
69	0x3e2638b3	0.16232567
70	0xbe233fca	-0.15942302
71	0xbd1df7f8	-0.03856656
72	0x3e8697da	0.2628773
73	0xbe6ca89a	-0.23111191
74	0x3e2bf3d8	0.16792238
75	0x3ea31559	0.31852224
76	0xbe48e29a	-0.19617692
77	0xbd132fc4	-0.035934225
78	0x3d902c7f	0.07039737
79	0x3e9792e1	0.29604247
80	0x3daa7dad	0.08324752
81	0xbebfd329	-0.3746579
82	0xbd565d5d	-0.052335132
83	0xbe9c6f12	-0.3055349
84	0x3ebea2fa	0.37233716
85	0x3e97d297	0.29652855
86	0x3e06fe79	0.13183011
87	0x3ec036b3	0.37541732
88	0xbd113947	-0.035455015
89	0xbdc07b6a	-0.09398539
90	0xbe9d8f66	-0.30773467
91	0xbe9a60df	-0.30152032
92	0x3e69f152	0.22845963
93	0xbe0740d8	-0.1320833
94	0xbe0bcd60	-0.13652563
95	0xbe309201	-0.17243196
96	0xbe216969	-0.15762867
97	0x3ec5b429	0.38614014
98	0xbe52dd6d	-0.2059228
99	0xbe932abe	-0.28743547
100	0x3e5c5a55	0.21518834
101	0xbebb9969	-0.3664048
102	0x3e43bc5f	0.19114827
103	0xbe8dd3a1	-0.27700523
104	0xbec71ea7	-0.38890573
105	0x3ec890af	0.39172885
106	0xbe8dcafd	-0.2769393
107	0xbe97ac72	-0.29623753
108	0xbe11d619	-0.14241828
109	0x3e03d544	0.12874323
110	0x3d8d421c	0.06897375
111	0xbe9b872a	-0.3037656
112	0x3f09c1e7	0.53811496
113	0xbec05323	-0.37563428
114	0x3cc99123	0.02460534
115	0xbe8a3421	-0.26992896
116	0x3e4c1001	0.1992798
117	0x3d04989c	0.032372102
118	0xbee60a48	-0.4492972
119	0xbdb2a370	-0.087225795
120	0x3d87b50d	0.066263296
121	0x3e7e71ab	0.24848048
122	0xbe7693ce	-0.2407982
123	0xbe85ffd5	-0.26171747
124	0x3dad28b2	0.08455028
125	0xbe124dfc	-0.14287561
126	0x3e3d2dd4	0.18474513
127	0xbe86d736	-0.26336068
128	0x3bcecd38	0.006311085
129	0x3e517a53	0.20456819
130	0x3d84d2fe	0.06485556
131	0xbf036f4e	-0.5134171
132	0x3ccba857	0.024860544
133	0xbea4e402	-0.32205206
134	0x3eb78c3f	0.35849187
135	0xbe13a458	-0.14418161
136	0x3dfca6f4	0.12336531
137	0x3cb44769	0.022006707
138	0xbe4bcd6c	-0.19902581
139	0xbd269dec	-0.04067795
140	0xbc1f7f74	-0.009734977
141	0xbe998404	-0.29983532
142	0x3e1e1336	0.15437016
143	0x3ea4fa82	0.32222372
144	0xbe187695	-0.14888985
145	0x3ed5648d	0.41678277
146	0xbed40e9d	-0.414174
147	0x3d85b086	0.0652781
148	0xbe239158	-0.15973413
149	0xbe0a496a	-0.13504568
150	0xbeaeaae9	-0.3411477
151	0xbea751c0	-0.32679558
152	0x3b41fc46	0.002959983
153	0xbddb7fcd	-0.107177354
154	0x3e372252	0.17884186
155	0x3eb55431	0.35415795
156	0xbe8ba883	-0.27277002
157	0x3ec64dcf	0.38731238
158	0x3e4d767f	0.20064734
159	0xbd993a34	-0.074818045
160	0xbee893bb	-0.4542521
161	0x3ea866a1	0.328908
162	0x3dead807	0.11466985
163	0xbd9abcab	-0.07555517
164	0x3e1159b0	0.1419437
165	0xbe89cc03	-0.2691346
166	0xbe61731b	-0.22016566
167	0x3d6e8fc1	0.058242563
168	0x3e3fdcd8	0.18736589
169	0x3e14f283	0.14545636
170	0x3e38e483	0.1805592
171	0xbcdabc0e	-0.026701
172	0xbe8d181c	-0.27557456
173	0xbeefe126	-0.46851462
174	0xbe97facb	-0.29683527
175	0xbe4ddb68	-0.20103228
176	0x3eb0708b	0.34460863
177	0x3dcfe1c0	0.1015048
178	0x3d55742c	0.052112743
179	0x3e4dee55	0.20110448
180	0x3dc725dd	0.09724019
181	0x3d85268c	0.06501493
182	0x3e50ed95	0.2040313
183	0xbe256627	-0.1615225
184	0x3ec03412	0.37539726
185	0xbc463215	-0.012096901
186	0xbefb6443	-0.4909993
187	0xbe73618c	-0.2376768
188	0x3ed26624	0.41093552
189	0x3d2a2ee5	0.04154863
190	0xbec0a2c4	-0.3762418
191	0x3dedd44a	0.116127566
192	0x3e0b277a	0.13589278
193	0xbd9831dd	-0.07431386
194	0x3de6d2f6	0.11270706
195	0xbe4ec784	-0.20193297
196	0x3eb0b2dd	0.34511462
197	0xbdaad280	-0.08340931
198	0x3ed8a071	0.42309907
199	0x3e4045ab	0.18776576
200	0xbc8deb9d	-0.017324263
201	0x3e626e8a	0.2211248
202	0x3d9e4be1	0.077293165
203	0xbea63d7f	-0.32468793
204	0x3e512c56	0.20427069
205	0xbe988ce4	-0.2979499
206	0x3e8a05e8	0.2695763
207	0xbe74f920	-0.23923159
208	0x3e031f82	0.12804988
209	0x3e8fd6da	0.28093606
210	0x3e425573	0.18977909
211	0xbdb27845	-0.08714346
212	0x3ebdbdf3	0.37058982
213	0x3db58c6f	0.08864676
214	0xbeb5eeb2	-0.35533673
215	0xbe500049	-0.20312609
216	0xbd042899	-0.03226528
217	0xbe7e124e	-0.2481167
218	0xbcceb31a	-0.025231887
219	0x3eb36d1a	0.35044175
220	0x3e027688	0.12740529
221	0x3e4f0f42	0.20220664
222	0x3da99372	0.08280076
223	0xbe84212c	-0.25806558
224	0xbdc90efe	-0.09817313
225	0xbde9e06f	-0.114197604
226	0xbdc7458e	-0.097300634
227	0x3e67d955	0.226415
228	0x3c0ae868	0.0084782615
229	0x3e8f418d	0.279797
230	0x3ebb4f28	0.3658383
231	0xbe989546	-0.29801387
232	0xbdaa0637	-0.08301967
233	0x3eb82bb0	0.3597083
234	0xbead0af0	-0.33797407
235	0xbebf627a	-0.3737982
236	0xbd9a724a	-0.0754133
237	0x3ea223f1	0.31668046
238	0xbe672c41	-0.22575475
239	0x3e3458b4	0.17611963
240	0xbd428fc7	-0.047500398
241	0x3eb0aa03	0.3450471
242	0xbe842a5e	-0.25813574
243	0xbeac1426	-0.33609122
244	0x3dcc479c	0.09974596
245	0xbe9fec62	-0.31235033
246	0xbebbc90d	-0.36676827
247	0x3ec2fa2d	0.38081494
248	0x3e2c7e43	0.1684504
249	0x3e34ab9d	0.1764359
250	0x3d840f87	0.06448274
251	0xbe96605a	-0.29370385
252	0xbe9f8612	-0.31156975
253	0x3db2b6b5	0.08726255
254	0x3e63477d	0.2219524
255	0x3de7f6a1	0.113263376

transformer.embed.lin.bias f4 [72]
0	0xbeba0b6c	-0.3633684
1	0x3e92c951	0.28669217
2	0x3e6d591b	0.23178522
3	0x3dfd13da	0.12357302
4	0xbe005837	-0.12533651
5	0x3a2f0b7d	0.0006677432
6	0xbeab7ded	-0.3349451
7	0xbe948b85	-0.29012695
8	0x3d844a3e	0.06459473
9	0xbe719a7d	-0.23594089
10	0x3e774ce0	0.24150419
11	0x3ea512e1	0.32240966
12	0x3e5f6bda	0.21818486
13	0x3e910ebd	0.28331557
14	0x3ebb299a	0.36555177
15	0x3e20a22f	0.15686868
16	0xbd228b21	-0.039683465
17	0xbe8086ae	-0.25102752
18	0xba828ee4	-0.0009960798
19	0x3d94b53a	0.07261129
20	0x3eca091f	0.39460084
21	0x3d8f5c19	0.06999988
22	0x3e690de8	0.22759211
23	0x3e9c81d0	0.3056779
24	0xbe8d44ee	-0.27591652
25	0xbe47a291	-0.19495608
26	0x3e266859	0.16250743
27	0x3d6cfb29	0.057856712
28	0x3e042a98	0.12906873
29	0x3e5a3f18	0.21313131
30	0x3e3eb9d4	0.18625575
31	0xbec65cc9	-0.38742664
32	0xbe80e6cd	-0.25176087
33	0x3ec8123d	0.39076415
34	0xbe7e6cdf	-0.24846219
35	0xbc18e760	-0.009332508
36	0x3e7e50ba	0.24835482
37	0xbe34211a	-0.17590752
38	0xbd33dd1b	-0.043912034
39	0xbe5ce972	-0.21573427
40	0x3d8d80f2	0.0690936
41	0x3d2f8204	0.042848602
42	0xbcb723df	-0.022355972
43	0x3ce2de89	0.027694004
44	0xbe0dcadd	-0.13846917
45	0xbd99150a	-0.07474716
46	0x3db72077	0.08941739
47	0xbea56d81	-0.32310107
48	0x3eae7ccf	0.34079596
49	0x3ea16d97	0.31528923
50	0xbec0b72a	-0.37639743
51	0x3e620474	0.22072011
52	0xbe68c9bd	-0.22733207
53	0x3e9b0bf7	0.30282566
54	0x3ec94acc	0.39314878
55	0xbb768ad1	-0.0037619362
56	0x3bc96190	0.0061456636
57	0xbdf468f1	-0.119340785
58	0x3ec2ab82	0.38021475
59	0x3e908266	0.28224486
60	0x3de44e60	0.11147761
61	0xbdcfca35	-0.1014599
62	0xbde28d26	-0.11062078
63	0xbe9954e5	-0.29947582
64	0x3ecbf863	0.39837942
65	0xbe9028a4	-0.28156006
66	0x3e0db93f	0.13840197
67	0x3eb6350c	0.35587347
68	0x3d98dae9	0.07463629
69	0xbe856d4d	-0.26059952
70	0x3e88298f	0.26594207
71	0xbea40d1c	-0.32041252

transformer.embed.pos_embed.weight f4 [120, 72]
0	0xbed18bee	-0.4092707
1	0xbfc1a6d0	-1.5129032
2	0xbea8e88c	-0.3298992
3	0x3f774d72	0.9660255
4	0xbe63cd19	-0.22246207
5	0x3f1e4e94	0.6183865
6	0x3ea09ecc	0.31371152
7	0x3fb030c9	1.3764888
8	0xbf120075	-0.5703195
9	0xbeae7fad	-0.34081784
10	0x3de8776a	0.113509014
11	0x40120ff9	2.282225
12	0x3f720544	0.94539285
13	0x3f531203	0.8244936
14	0x3e1fd173	0.15607242
15	0xbf68e765	-0.9097808
16	0xbed002a6	-0.4062702
17	0xbea46901	-0.32111362
18	0x3f5379d8	0.82607794
19	0x3f101615	0.56283695
20	0x3fdd1544	1.7272115
21	0xbf9588bb	-1.1682352
22	0xbfbafbf8	-1.4608145
23	0xbe9bf628	-0.3046124
24	0xbfa359f6	-1.2761829
25	0xbe90780b	-0.28216586
26	0xbe3d8092	-0.18506077
27	0xbe854374	-0.26028025
28	0xbcb70a43	-0.02234376
29	0xbfa6b281	-1.3023225
30	0x3e2cefad	0.16888304
31	0x3d23cf20	0.03999245
32	0x3d0f76ef	0.035025533
33	0x3faffb58	1.3748579
34	0x3f817529	1.011388
35	0x3e708056	0.23486456
36	0x3d9827b8	0.07429451
37	0x40117d0a	2.2732568
38	0xbfa09cad	-1.2547814
39	0xbf12f115	-0.5739911
40	0x3ec89c0d	0.39181557
41	0x3fa9ba5b	1.3259996
42	0x3e66813b	0.22510235
43	0xbdb978ce	-0.09056245
44	0x3f48035a	0.78130114
45	0xbda85fe3	-0.08221414
46	0x3e2f0ad0	0.17093968
47	0xbe13fee3	-0.144527
48	0x3f07eb58	0.5309348
49	0x3f21617c	0.63039374
50	0x3fcb8523	1.5900005
51	0x3e54b4be	0.20772073
52	0xbff135c0	-1.8844528
53	0xbfa22eaf	-1.2670497
54	0x3ec091ff	0.37611386
55	0x3dee5041	0.11636401
56	0xbe6d48e1	-0.23172332
57	0xbe9f03a9	-0.3105748
58	0xbe83e679	-0.25761774
59	0x3f111527	0.566729
60	0xbf229bd7	-0.6351904
61	0xbeea0368	-0.45705724
62	0xbeb279de	-0.34858602
63	0x3f64534f	0.8918962
64	0xbe915d4f	-0.283915
65	0xbeacd06b	-0.3375276
66	0x3f9f889c	1.2463565
67	0x3f72eae4	0.94889665
68	0xbf40ad4d	-0.75264436
69	0x3eb3375d	0.35003176
70	0xbe7f257e	-0.24916646
71	0x3f8dd6d5	1.1081187
72	0xbf20c200	-0.6279602
73	0x3f0d1044	0.55102944
74	0xbe6b0827	-0.22952329
75	0xbdc6ae07	-0.09701162
76	0xbdc5d443	-0.09659626
77	0x3f4722dd	0.7778757
78	0x3f7456d2	0.9544498
79	0x401c2cb6	2.440229
80	0xbf554a44	-0.83316445
81	0xc002aaad	-2.0416672
82	0xbf2fbe43	-0.6864969
83	0x3e67e0ad	0.22644301
84	0x3fbc83f1	1.4727765
85	0xbea6d204	-0.32582104
86	0x3f792c86	0.9733356
87	0xbfa16594	-1.2609124
88	0x3d8952c4	0.067052394
89	0x3f5d8d04	0.865433
90	0x3fd22820	1.6418495
91	0x3f1e3080	0.61792755
92	0xbe635214	-0.22199279
93	0x3ec8986e	0.39178795
94	0x3fce9aeb	1.6141027
95	0x3e86843e	0.26272768
96	0x4027f388	2.624239
97	0x3f954fad	1.166494
98	0xbe91abb9	-0.28451326
99	0x3eb3c432	0.35110623
100	0xbd66c9bd	-0.056344736
101	0xbf85b6e7	-1.0446442
102	0x40170abc	2.3600302
103	0x3ee8b1c6	0.4544813
104	0x3f4a92a7	0.79130024
105	0x3f6a01ed	0.9140919
106	0xbf8c4b0b	-1.0960401
107	0xbe546a64	-0.2074371
108	0xbd72f6d6	-0.059317432
109	0xbfb26a6d	-1.3938729
110	0xbe77beb6	-0.24193844
111	0x3fb88276	1.4414814
112	0x3fc5c4a5	1.5450636
113	0xbf16f566	-0.589682
114	0xbf5469d7	-0.82974
115	0xbf15ec2a	-0.5856348
116	0xbf1b7013	-0.60717887
117	0x3f2c72df	0.6736278
118	0xbf1adf83	-0.604973
119	0x3fd6a21f	1.6768225
120	0xbf4f74f1	-0.81037813
121	0x40111ff0	2.2675743
122	0x3e98d14b	0.29847178
123	0x3d6b9964	0.05751933
124	0xbf1e0849	-0.6173139
125	0x4006e67d	2.107818
126	0xbe51d10c	-0.20489901
127	0xbf1d777f	-0.6151046
128	0x3f9b868c	1.2150435
129	0x3f5d1bec	0.8637073
130	0x3fa5bdeb	1.2948583
131	0xbe451d4f	-0.19249462
132	0xbf4d7c3f	-0.8026771
133	0x3fba8240	1.4570999
134	0xbfb5614c	-1.4170318
135	0x3f313d86	0.692345
136	0xbeb57861	-0.35443404
137	0x3ea6f60d	0.32609597
138	0x3e4aa98f	0.19791244
139	0x3de53f43	0.11193707
140	0x3f6b187d	0.9183424
141	0xbfbe12a6	-1.4849441
142	0xbf6339b4	-0.88759923
143	0x3fa15231	1.2603208
144	0x3f3e80d1	0.7441531
145	0xbfab04aa	-1.3360798
146	0xc016abbd	-2.354232
147	0x3f3c112d	0.7346371
148	0x3fa58124	1.2930036
149	0x3f56896b	0.83803433
150	0x3f8db1fb	1.106994
151	0x3f3603c9	0.71099526
152	0xbf08d3c9	-0.5344816
153	0xc0378e47	-2.868059
154	0x3f78f45b	0.97247857
155	0x3f3d320b	0.73904485
156	0xc0273af8	-2.6129742
157	0xbefac446	-0.4897787
158	0x3e9ee8f7	0.31037113
159	0x3fbdb15c	1.4819751
160	0x3fdb7b21	1.7146951
161	0x3f3bb27f	0.7331924
162	0xc00f6b2c	-2.2409163
163	0x3f75987a	0.95935786
164	0xbf0eaa92	-0.5572902
165	0x3f5c5acf	0.8607606
166	0xbf22855a	-0.6348473
167	0x3f8d4c59	1.1038924
168	0x3dcaaa0a	0.098957136
169	0x3fce8309	1.6133739
170	0x3f8aa1eb	1.0830663
171	0xbf5ce197	-0.8628172
172	0xbe1aaa6e	-0.15104076
173	0x3e7e8009	0.24853529
174	0x3faf455e	1.3693044
175	0xbfba33ea	-1.4547093
176	0xbfd46c37	-1.6595525
177	0xbe83e066	-0.2575714
178	0xbf20d90e	-0.628312
179	0x3e9ea137	0.30982372
180	0x3f62e183	0.88625354
181	0x3f036677	0.51328224
182	0xbf061345	-0.5237315
183	0x3eb61e7b	0.3557013
184	0x3ecc4b3a	0.39901143
185	0x3f8840db	1.0644792
186	0xbfa852d8	-1.3150282
187	0x3f97e902	1.1867983
188	0x3f18d859	0.5970512
189	0x3e801351	0.25014737
190	0x3ef424bb	0.47684273
191	0x400e6586	2.2249465
192	0x3eaacd0f	0.33359572
193	0x3f7e8af5	0.9943078
194	0xbfd4e7aa	-1.6633198
195	0xbf73ceb7	-0.95237297
196	0x3f44a8b3	0.76819915
197	0xc00da451	-2.213154
198	0xbe05387e	-0.13009831
199	0x3d9616a0	0.07328534
200	0x3f762b6c	0.96160007
201	0xbf39d497	-0.7259001
202	0x3f98a127	1.192418
203	0xbe7686ac	-0.2407481
204	0x3f63feb8	0.89060545
205	0xbdacf5e4	-0.084453374
206	0xbe9aed51	-0.30259183
207	0xc0219be1	-2.525139
208	0xbd8358ef	-0.06413447
209	0x3e83b0f4	0.25720942
210	0x40229184	2.5401316
211	0xbd117f0b	-0.03552155
212	0xbe0447e3	-0.12918048
213	0xbe9bee10	-0.30455065
214	0xbf7ee4e0	-0.99567986
215	0x3f55d433	0.83526915
216	0xbf9b1fb8	-1.2119055
217	0x3f8e35f9	1.1110221
218	0x3f80819b	1.0039552
219	0xbf9bea74	-1.2180924
220	0x3e32254a	0.17397037
221	0xbf6b5f01	-0.9194184
222	0x3dd01ea9	0.10162098
223	0xbf8f9626	-1.1217697
224	0xbf40c1a6	-0.75295484
225	0xbf41e683	-0.7574236
226	0xbf8dde11	-1.1083394
227	0xc0138756	-2.3051353
228	0xbe200bf7	-0.15629564
229	0xbf060a81	-0.5235978
230	0x3fb4211b	1.4072603
231	0x3ec30ede	0.3809728
232	0xbebc52c3	-0.36781892
233	0x3f540ac4	0.8282893
234	0x3fa0514a	1.2524807
235	0x3f6a9d50	0.9164629
236	0x400f6f55	2.2411702
237	0xbeb82b20	-0.35970402
238	0xbf8332e2	-1.0249903
239	0x3fd84eef	1.6899089
240	0xbdc53b93	-0.096305035
241	0xbfa2d9fd	-1.2722775
242	0xbedde404	-0.43338025
243	0x3fb96aa9	1.4485675
244	0xbf8a2a11	-1.0794088
245	0xbf8c3d90	-1.0956287
246	0xbf11be59	-0.5693107
247	0x3fc81292	1.5630667
248	0x3f23b520	0.6394825
249	0x3f4a066b	0.78916043
250	0xbe8f6306	-0.28005236
251	0x3f0a977f	0.54137415
252	0xbfe7dd9f	-1.8114508
253	0x3fcdb7f1	1.607176
254	0x3e753575	0.23946173
255	0x3f1a733a	0.6033207

transformer.embed.norm.gamma f4 [72]
0	0x3f806b5e	1.0032766
1	0x3f76fd5f	0.96480364
2	0x3f82248e	1.0167406
3	0x3f81b19a	1.0132325
4	0x3f87d27b	1.0611109
5	0x3f813738	1.0094976
6	0x3f7cdf90	0.9877863
7	0x3f7d65e0	0.98983574
8	0x3f840e24	1.0316815
9	0x3f81cde6	1.014096
10	0x3f839484	1.0279698
11	0x3f816f91	1.0112172
12	0x3f7a1b2b	0.97697705
13	0x3f822472	1.0167372
14	0x3f80c092	1.0058768
15	0x3f82ec0a	1.0228283
16	0x3f7dc53a	0.9912907
17	0x3f80e4dc	1.0069842
18	0x3f8c4588	1.0958719
19	0x3f7eff1d	0.9960802
20	0x3f830c43	1.0238117
21	0x3f83556a	1.0260441
22	0x3f7b335b	0.9812524
23	0x3f80e636	1.0070255
24	0x3f8093be	1.0045087
25	0x3f80a411	1.0050069
26	0x3f84a540	1.036293
27	0x3f75e536	0.96052873
28	0x3f82efd4	1.022944
29	0x3f7edd99	0.9955688
30	0x3f796b8f	0.97429746
31	0x3f81543a	1.0103829
32	0x3f7f6adc	0.9977243
33	0x3f7af9bf	0.9803733
34	0x3f85c73a	1.0451424
35	0x3f82fc04	1.0233159
36	0x3f7edb11	0.9955302
37	0x3f7fdc24	0.9994528
38	0x3f8e46b1	1.1115323
39	0x3f7c16db	0.98472375
40	0x3f8306b3	1.023642
41	0x3f7b7a5d	0.98233587
42	0x3f71ee36	0.94504106
43	0x3f889537	1.0670537
44	0x3f828d39	1.0199348
45	0x3f838cae	1.0277307
46	0x3f881030	1.062994
47	0x3f7b219a	0.98098147
48	0x3f80665f	1.0031241
49	0x3f7c8a5c	0.9864862
50	0x3f7dbf31	0.9911986
51	0x3f7c205f	0.98486894
52	0x3f80e708	1.0070505
53	0x3f816713	1.0109581
54	0x3f7f9b48	0.99846315
55	0x3f809c3e	1.0047681
56	0x3f7b3539	0.98128086
57	0x3f7f6136	0.9975771
58	0x3f807e89	1.0038615
59	0x3f7eb6ea	0.99497855
60	0x3f854041	1.0410234
61	0x3f857253	1.0425514
62	0x3f7fb2a5	0.99881965
63	0x3f7d6125	0.98976356
64	0x3f812fdb	1.0092729
65	0x3f7f77cc	0.9979217
66	0x3f807179	1.0034629
67	0x3f80ceec	1.0063148
68	0x3f8030ee	1.0014932
69	0x3f8177cb	1.0114683
70	0x3f819ad0	1.012537
71	0x3f81e2f9	1.0147392

transformer.embed.norm.beta f4 [72]
0	0x3c709db3	0.014686036
1	0xbcabdd79	-0.02097963
2	0xbc868d3f	-0.016424773
3	0xbc25d363	-0.010121199
4	0x3a5e1ca7	0.00084728975
5	0xba60d1f0	-0.0008576205
6	0x3cab8bc5	0.02094067
7	0x3cb122d9	0.021623062
8	0xba27e554	-0.0006404717
9	0x3cf2536e	0.029580798
10	0x3ad8b6ee	0.001653401
11	0xbbe4f049	-0.006986652
12	0xbc0db8e2	-0.0086500365
13	0xbc0d0dff	-0.008609294
14	0xbc314e99	-0.010821962
15	0xbca82cf8	-0.020529255
16	0x3b827716	0.0039814813
17	0x3c5a7cd7	0.013335428
18	0xbb3d8be6	-0.0028922497
19	0xbc9a7906	-0.018856537
20	0x3b4b70c3	0.0031042553
21	0xbb1a7dd0	-0.0023573525
22	0xbd01e832	-0.03171558
23	0xbc9a08a6	-0.018802952
24	0x3ccc48f9	0.02493714
25	0x3d017cf0	0.03161329
26	0xba52e984	-0.0008045661
27	0xbaa9be1a	-0.0012950331
28	0xbccc657c	-0.024950735
29	0xbc570a81	-0.013125063
30	0xbc8398b1	-0.01606402
31	0x3cb5c6e8	0.022189572
32	0x3cfcaf06	0.030845176
33	0xbd08ecd3	-0.03342898
34	0x3bec6c03	0.0072150244
35	0x3c2cb56b	0.0105413
36	0xbcd3974d	-0.025828982
37	0x3b2b93b5	0.002618057
38	0xbb37fc6d	-0.0028074041
39	0x3c982f6d	0.018577302
40	0xbc1877d7	-0.009305916
41	0xbba760d8	-0.00510798
42	0x3ab31fa3	0.0013666045
43	0xbb0463d1	-0.0020201097
44	0x3c07a230	0.008278415
45	0x3c0999e8	0.0083985105
46	0x3c1002ce	0.008789731
47	0x3c9ad3f9	0.018899905
48	0xbc43f9ab	-0.011961381
49	0xbca3001d	-0.019897515
50	0x3cf2fdd9	0.02966206
51	0xbcf53263	-0.029931253
52	0x3d07df21	0.033171777
53	0xbc8998a3	-0.016796416
54	0xbbb7b846	-0.005606684
55	0xbb8bf5f2	-0.0042712623
56	0x3b89fb58	0.0042108707
57	0x3bdd21b4	0.0067484025
58	0xbb6f8253	-0.0036546185
59	0xbcb39996	-0.021923821
60	0xbc65e6c2	-0.014032068
61	0x3c4fd71d	0.012685564
62	0x3ba35a98	0.004985165
63	0x3cbf4956	0.023350399
64	0xb9d93f0b	-0.00041436436
65	0x3beda635	0.0072524794
66	0x3a955629	0.0011393476
67	0xbcc820f8	-0.024429783
68	0xbb94fae1	-0.0045465087
69	0x3c0222e5	0.00794289
70	0xbbbb9ad0	-0.005725242
71	0x3c05e937	0.0081732785

transformer.attn.proj_q.weight f4 [72, 72]
0	0x3c32ccb2	0.010913061
1	0xbc0ee4bc	-0.008721527
2	0xbcbdf6d2	-0.023188982
3	0x3dc43bcc	0.09581718
4	0xbd022743	-0.031775724
5	0x3d149222	0.036272176
6	0xbd8b93f9	-0.06815333
7	0x3b4811b0	0.003052812
8	0xbb55b209	-0.0032607338
9	0xbd8b32fd	-0.067968346
10	0x3d6fd902	0.058556564
11	0xbdfe55be	-0.12418698
12	0xbd3fdb6c	-0.046840116
13	0xbd909505	-0.07059673
14	0xbe01d4b3	-0.12678795
15	0xbda0ca8d	-0.078511335
16	0x3d2c081b	0.041999917
17	0x3d100ca5	0.03516831
18	0xbdc63f4c	-0.09680042
19	0xbdd75150	-0.10513556
20	0x3d643d8c	0.05572276
21	0xbdd8acc3	-0.10579827
22	0x3dbf11e5	0.09329585
23	0x3dce54cd	0.10074768
24	0xbd7208f4	-0.05909057
25	0x3dae7ba2	0.08519675
26	0x3d92dff0	0.07171619
27	0x3d79ef92	0.061019488
28	0x3dd04cf3	0.10170927
29	0x3d601380	0.054706097
30	0xbde71dcd	-0.11284981
31	0x3a440659	0.00074777525
32	0x3d7a6fe4	0.061141863
33	0xbb8a4a1b	-0.00422026
34	0x3d5e4928	0.054268986
35	0xbd88ba6c	-0.06676182
36	0xbd8b8d30	-0.06814039
37	0x3e15bb53	0.1462224
38	0xbcb1c38a	-0.021699686
39	0x3dbf9ad1	0.09355701
40	0xbd4c4e99	-0.049879644
41	0xbd7a5292	-0.0611139
42	0x3d3f13bf	0.04664969
43	0x3e0487f5	0.12942488
44	0xbdb8087f	-0.089859955
45	0x3e04546b	0.12922828
46	0x3d52259a	0.05130539
47	0x3deddc35	0.11614267
48	0x3a93382e	0.0011231953
49	0xbb87963f	-0.004137784
50	0x3d853132	0.06503524
51	0x3d3d79c4	0.046258703
52	0x3d2e7482	0.04259158
53	0x3dae3ef6	0.085081026
54	0xbdbc09e9	-0.09181578
55	0xbe3a3a3e	-0.1818628
56	0x3db06880	0.08613682
57	0xbd9c9927	-0.07646399
58	0x3db8b913	0.09019675
59	0x3d0d8779	0.034553025
60	0xbdbceb4c	-0.09224567
61	0xbe04ab98	-0.12956083
62	0xba3af2a6	-0.00071314943
63	0x3ddfcdf6	0.10927956
64	0x3dcf2acb	0.10115584
65	0x3db76958	0.089556396
66	0xbdd201b0	-0.10254228
67	0x3dd407d0	0.103530526
68	0xbcd58135	-0.026062587
69	0x3dd5b847	0.10435539
70	0x3d4f2a98	0.05057773
71	0xbdacdb18	-0.08440226
72	0x3dae8cbf	0.08522939
73	0xbd360ac0	-0.044443846
74	0x3d0c4cac	0.034252807
75	0xbc9f3629	-0.019435005
76	0xbdbe846a	-0.093026
77	0xbdd7c2cc	-0.105352014
78	0xbdfd732d	-0.12375484
79	0xbafebc13	-0.0019434713
80	0x3d57c26e	0.052675657
81	0xbd3b25e9	-0.04569045
82	0x3da505b4	0.080577284
83	0xbd76a827	-0.060218956
84	0xbc220b14	-0.009890337
85	0xbdad4374	-0.08460131
86	0xbcad57c5	-0.021160016
87	0xbd7c2db1	-0.061567012
88	0xbbbe8784	-0.0058144946
89	0xbd3469a3	-0.044046056
90	0xbe0652cc	-0.13117522
91	0x3c9b7ed7	0.01898138
92	0xbd985830	-0.074386954
93	0xbd90e2e8	-0.07074529
94	0xbc9a1af6	-0.018811684
95	0xbd84a0da	-0.064759925
96	0x3d95a0d2	0.07306065
97	0x3d9929d1	0.07478679
98	0xbd539042	-0.051651247
99	0x3db396f0	0.087690234
100	0xbd73c2da	-0.059511997
101	0x3db93ab1	0.090443976
102	0xbc8d96a0	-0.017283738
103	0xbdace2a1	-0.084416635
104	0x3da93f6e	0.082640514
105	0xbd314e64	-0.04328765
106	0x3e07d8f3	0.13266353
107	0xbbe44f2a	-0.006967445
108	0xbd00b243	-0.031420004
109	0x3c8e7b82	0.017392877
110	0xbb533c48	-0.0032231975
111	0xbd5d39bb	-0.054010134
112	0x3cb85da2	0.022505585
113	0xbe3ea0a6	-0.1861597
114	0x3befa205	0.0073130154
115	0xbb1be231	-0.0023785944
116	0xb9ae9afc	-0.0003330334
117	0x3c9d5d6c	0.019209586
118	0xbc4c9376	-0.012486329
119	0x3dd374ca	0.1032501
120	0x3bcba179	0.0062143174
121	0xbd7d5402	-0.061847694
122	0x3d9f4e79	0.07778639
123	0x3d2bc710	0.041937888
124	0xbc882917	-0.016621156
125	0xbd0ce2e8	-0.034396082
126	0x3d97d01c	0.074127406
127	0xbd2b65f0	-0.041845262
128	0xbdac4688	-0.0841189
129	0x3ca8121e	0.020516451
130	0x3ddfb260	0.10922694
131	0x3cfdfb91	0.031003745
132	0xbccb5a52	-0.024823342
133	0xbe0949ce	-0.1340706
134	0x3d9e13a3	0.07718589
135	0x3cb98911	0.022648366
136	0xbd2d5ec7	-0.042326715
137	0xbdf1ddc6	-0.11809878
138	0xbc97c379	-0.018525826
139	0xbda66731	-0.08125151
140	0x3e11bff6	0.14233384
141	0x3d7af404	0.061267868
142	0x3dc2d1ba	0.095126584
143	0xbda1632b	-0.07880243
144	0x3cb45254	0.022011913
145	0x3d44e4b7	0.048069682
146	0xbde5032f	-0.11182248
147	0x3d32ef25	0.043685097
148	0x3c870e9f	0.016486464
149	0xbcb88941	-0.022526385
150	0xbcdf6f22	-0.027274672
151	0xbd9262cc	-0.0714775
152	0xbd5e780c	-0.054313704
153	0xbd96e23f	-0.07367372
154	0xbd0f6575	-0.035008866
155	0x3cb78a32	0.022404764
156	0xbdd3532b	-0.103185974
157	0x3df6b7f5	0.12046806
158	0xbcb712ba	-0.022347797
159	0x3d97cfce	0.074126825
160	0x3d06b13e	0.032883875
161	0x3d9217eb	0.07133468
162	0xbd2a5c04	-0.04159166
163	0x3d682798	0.056678385
164	0x3da63c86	0.08117013
165	0xbdadefea	-0.084930256
166	0xbd1716c7	-0.036886957
167	0x3c952a60	0.018208683
168	0x3d005268	0.03132859
169	0x3d4bda30	0.049768627
170	0x3d370f79	0.04469249
171	0xbdc25a1a	-0.09489842
172	0xbcde1c84	-0.027113207
173	0xbd4d9729	-0.050192986
174	0xbdcacf43	-0.09902813
175	0x3c89eeeb	0.016837558
176	0xbd02a433	-0.031894874
177	0xbdef58e1	-0.11686874
178	0xbc06fbb7	-0.008238724
179	0xbb6b5670	-0.0035909675
180	0xbdab2e89	-0.08358485
181	0x3c4761f6	0.012169352
182	0x3e113067	0.1417862
183	0x3d0e4435	0.034733016
184	0x3e18d20b	0.14923875
185	0xbdbfc9a7	-0.09364634
186	0xbd39701a	-0.045272924
187	0x3e148b79	0.1450633
188	0xbd8187e3	-0.063247465
189	0x3c85d899	0.016338633
190	0xbde7cc53	-0.113182686
191	0xbdd04cbc	-0.10170886
192	0xbc81f7e8	-0.015865281
193	0xbd583370	-0.05278343
194	0x3d88eb5d	0.06685517
195	0x3cd51ce7	0.026014758
196	0xbd90202f	-0.070373885
197	0xbd97500e	-0.07388316
198	0x3cb424e2	0.021990243
199	0xbdadff91	-0.08496011
200	0x3d59309f	0.053024884
201	0xbdd39d83	-0.10332777
202	0xbdbba0b1	-0.09161509
203	0x3cfd5b95	0.030927459
204	0x3daa79d2	0.08324017
205	0xbcd4d2f4	-0.025979497
206	0x3d8068bd	0.06269977
207	0xbc8a42e5	-0.0168776
208	0x3d01b68e	0.03166824
209	0xbd515c40	-0.051113367
210	0x3d2ed2a1	0.04268134
211	0x3dd96be8	0.106162846
212	0x3e1347be	0.14382836
213	0xbd9fede2	-0.078090444
214	0xbdcebf24	-0.10095051
215	0x3cbeb0d9	0.023277687
216	0x3d9072fe	0.07053183
217	0xbd70849b	-0.058720212
218	0x3d99eab4	0.07515469
219	0x3c651a94	0.0139833875
220	0x3da816e3	0.0820749
221	0xbd4a8cf0	-0.049450815
222	0x3d999d50	0.07500708
223	0x3d6676ac	0.056265518
224	0x3e51149a	0.20418015
225	0x3d62ee1b	0.055402856
226	0x3dc29725	0.09501485
227	0xbdca5ad2	-0.09880604
228	0xbc394c8e	-0.011309756
229	0xbda1c65d	-0.07899163
230	0xbd9c891e	-0.076433405
231	0x3c7d9384	0.015477065
232	0xbddb5df3	-0.10711279
233	0xbd780288	-0.06054929
234	0xbd1057ce	-0.035239987
235	0x3cd5edd0	0.026114374
236	0xbd8d1d6b	-0.06890377
237	0x3dbb13b8	0.091346204
238	0x3d8e015c	0.06933853
239	0x3cd0adb4	0.025473453
240	0x3d512558	0.051061004
241	0xbc774227	-0.015091456
242	0x3c344278	0.0110021755
243	0xbdc4bca1	-0.096062906
244	0x3d885101	0.06656075
245	0xbd87741c	-0.06613943
246	0xbdefe396	-0.117133304
247	0xbcfc8c2e	-0.030828562
248	0x3dc512a2	0.096226946
249	0x3d1ba329	0.0379974
250	0xbde6e0d1	-0.11273349
251	0x3dcbd18d	0.09952078
252	0x3db916eb	0.090375744
253	0xbd53991c	-0.05165969
254	0x3d0c8271	0.034304086
255	0x3deb2b0c	0.1148282

transformer.attn.proj_q.bias f4 [72]
0	0xbc573baf	-0.013136788
1	0xbc479931	-0.01218252
2	0xbc965862	-0.018352691
3	0x3ced7778	0.028987631
4	0xbd924406	-0.07141881
5	0x3d0ce4cb	0.03439788
6	0xbd3812c8	-0.044939786
7	0x3d9eb0e4	0.07748583
8	0xbd676b9f	-0.05649912
9	0xbd6e47c1	-0.0581739
10	0x3d2c920d	0.042131472
11	0xbd9bb846	-0.07603507
12	0xbd28d732	-0.04122085
13	0xbd275844	-0.04085566
14	0x3defda7b	0.11711594
15	0xbde610a4	-0.11233643
16	0x3cdbd240	0.026833653
17	0x3e146145	0.1449023
18	0x3d6cbb92	0.05779607
19	0x3dd31fb6	0.10308783
20	0xbd414332	-0.047183223
21	0xbd800284	-0.0625048
22	0x3d1d3af0	0.038386285
23	0xbe0a4638	-0.13503349
24	0x3df2d8ed	0.118577816
25	0x3d5dbd87	0.054135825
26	0x3c5f2e96	0.013621947
27	0xbd4bbf6d	-0.049743105
28	0xbd25d9f0	-0.040491045
29	0x3d9d33a7	0.076758675
30	0xbd94bb87	-0.072623305
31	0xbdea2e40	-0.11434603
32	0x3c8eee94	0.017447747
33	0xbd5982d1	-0.053103272
34	0x3cc0b73c	0.023524873
35	0xbdb551f9	-0.08853526
36	0x3de3c4ff	0.111215584
37	0x3bce32c9	0.006292675
38	0x3d14b1e3	0.03630246
39	0x3d2b9a81	0.041895393
40	0xbd3b4bf0	-0.045726717
41	0xbd88e449	-0.06684167
42	0xbb27098b	-0.0025487866
43	0x3e282d50	0.16423535
44	0xbd2eb8c6	-0.042656682
45	0xbcefd000	-0.029273987
46	0x3c72882a	0.014802972
47	0x3d89ccb5	0.06728498
48	0xbe4f48e8	-0.20242655
49	0xbd7b9eae	-0.061430626
50	0x3d32718a	0.04356531
51	0xbcf8d739	-0.030376064
52	0x3c0f4019	0.008743309
53	0x3dbeda64	0.093189985
54	0x3de81c03	0.11333468
55	0xbcd897b4	-0.026439525
56	0x3db687de	0.08912633
57	0x3d8b942f	0.06815373
58	0xbda205fb	-0.07911297
59	0xbde1abda	-0.11019106
60	0x3d11c4a8	0.035587937
61	0xbe14cafc	-0.14530557
62	0xbcfcceb3	-0.03086028
63	0xbccbc0b7	-0.024872167
64	0xbbc6759b	-0.0060565
65	0xbcfd4583	-0.030916935
66	0x3e0dbf89	0.13842596
67	0x3ddba01b	0.10723897
68	0xbd1a6783	-0.037696373
69	0x3d90bf24	0.07067707
70	0xbda210ba	-0.079133466
71	0xbdc93afd	-0.09825704

transformer.attn.proj_k.weight f4 [72, 72]
0	0x3d96fba4	0.073722154
1	0x3d871f8e	0.065978155
2	0xbd170df1	-0.03687853
3	0x3d1e172c	0.038596317
4	0x3d5bc3bd	0.053653467
5	0xbd87cf1f	-0.06631302
6	0xbd393c11	-0.0452233
7	0xbdac230f	-0.084051244
8	0xbdd484e1	-0.10376907
9	0x3e1f592f	0.15561365
10	0x3d4da44b	0.05020551
11	0xbcbdd8fd	-0.023174757
12	0xbde1b592	-0.1102096
13	0x3c095cb5	0.0083839195
14	0x3ccd1d5a	0.02503841
15	0x3d9c60f6	0.07635681
16	0x3cdf091c	0.027226023
17	0xbdad4829	-0.08461029
18	0xbd276303	-0.04086591
19	0xbc13d58b	-0.009023081
20	0x3c8cce27	0.017188145
21	0xbd93ab76	-0.07210438
22	0x3dcf5528	0.10123664
23	0x3d332a6b	0.043741625
24	0xbe4ecd06	-0.20195398
25	0xbdad4478	-0.08460325
26	0x3e0c2666	0.13686523
27	0x3bc5cd16	0.006036411
28	0xbe0761ee	-0.13220951
29	0x3d30e2f3	0.043185186
30	0xbc6ec05c	-0.014572229
31	0xbd790cd6	-0.060803257
32	0xbd143689	-0.03618482
33	0x3e01da81	0.12681009
34	0xbcf4ce08	-0.0298834
35	0xbd98384e	-0.07432614
36	0x3bd78648	0.006577287
37	0xbd4fa3ab	-0.050693195
38	0xbdd5b75f	-0.10435366
39	0x3e18b36e	0.14912197
40	0x3db50c4f	0.08840238
41	0x3d724e42	0.059156664
42	0xbdbcec6c	-0.092247814
43	0x3c45d39d	0.012074378
44	0xbdd2d47f	-0.10294437
45	0x3c0d12e6	0.008610463
46	0x3da3581a	0.079757884
47	0xbdc6ca11	-0.0970651
48	0x3dee3d4b	0.116327845
49	0x3dbe5f71	0.09295548
50	0xbd910d80	-0.07082653
51	0x3d468bf5	0.048473317
52	0xbd8f8d9b	-0.07009431
53	0x3c7ee119	0.015556597
54	0xbe1010e6	-0.14068946
55	0xbd6d0d90	-0.057874262
56	0x3e041ce0	0.1290164
57	0x3c3a295a	0.011362398
58	0xbc5a74d5	-0.013333519
59	0xbd3b1d5a	-0.04568229
60	0xbe14140a	-0.1446077
61	0xbcec2062	-0.028824035
62	0xbdc0821e	-0.09399818
63	0xbdaff60d	-0.08591852
64	0xbd9ad821	-0.075607546
65	0xbda52701	-0.0806408
66	0x3d4c3443	0.04985453
67	0x3d957de2	0.07299401
68	0xbdc565a1	-0.09638525
69	0xbe054281	-0.1301365
70	0xbd6ac8af	-0.057320293
71	0x3e104cfa	0.14091864
72	0x3cd660e1	0.026169242
73	0x3c573ad2	0.013136582
74	0xbd669ab7	-0.05629989
75	0xbd53f9ed	-0.05175202
76	0xbd83ac9d	-0.06429408
77	0xbca8322d	-0.020531738
78	0xbb8cb017	-0.0042934525
79	0xbdb77acc	-0.089589685
80	0xbb8be5f7	-0.0042693573
81	0x3dde7074	0.108612925
82	0x3df736e9	0.1207102
83	0xbbf2ec7e	-0.007413446
84	0xbd797288	-0.06090024
85	0xbd1de9a4	-0.038552895
86	0x3d98f1ab	0.074679695
87	0x3dc1dcde	0.09465955
88	0x3d1238a1	0.035698537
89	0x3db38996	0.08766477
90	0x3dd10d61	0.1020763
91	0x3cc8a7d7	0.024494095
92	0x3befbb77	0.0073160487
93	0xbd2cd3d6	-0.04219421
94	0xbda125fb	-0.07868572
95	0x3d8ddc6f	0.0692681
96	0xbd053b71	-0.03252739
97	0xbd901669	-0.070355244
98	0x3e064078	0.1311053
99	0xbd5dd206	-0.054155372
100	0x3d361a6d	0.044458795
101	0x3d97e66f	0.074169986
102	0xbde38ee7	-0.11111241
103	0xbdc71c5f	-0.09722208
104	0xbda50316	-0.08057229
105	0x3d6b4bf6	0.05744549
106	0xbd81f3b7	-0.06345313
107	0x3bb7deb1	0.0056112637
108	0x3d05e512	0.03268916
109	0x3bccc7c6	0.006249401
110	0xbd9ab346	-0.07553725
111	0xbd8ece70	-0.069729686
112	0x3cf43c08	0.029813781
113	0xbdbb86d8	-0.09156579
114	0x3addb41e	0.0016914641
115	0xbd3da387	-0.04629853
116	0xbdcc8a26	-0.09987287
117	0x3da8ab5b	0.082358085
118	0x3d4e8d61	0.0504278
119	0x3d722fb5	0.05912753
120	0x3d4ad412	0.049518652
121	0xbd7208eb	-0.059090536
122	0xbb445233	-0.002995622
123	0x3b7490c7	0.003731774
124	0xbd9a5a0e	-0.07536708
125	0xb8222ce6	-3.8665625e-05
126	0x3dbf8a51	0.09352554
127	0xbdb714c7	-0.0893951
128	0x3cfa100a	0.030525226
129	0x3d6ef047	0.058334615
130	0x3d5a1726	0.053244732
131	0x3e2a03c1	0.16602995
132	0xbda29609	-0.07938773
133	0xbdafb6b6	-0.08579771
134	0x3cf3704d	0.029716635
135	0x3da2538e	0.07926093
136	0xbcacceb4	-0.021094657
137	0x3c96e246	0.018418442
138	0xbdd1e1c8	-0.102481425
139	0x3d83a58a	0.064280584
140	0x3d5aa4f2	0.05337996
141	0xbe024e69	-0.12725224
142	0x3c608649	0.013703891
143	0x3dac2ef2	0.084073916
144	0x3dee09b2	0.11622943
145	0x3ca5b7ce	0.020229246
146	0xbd579063	-0.052627932
147	0xbcf74228	-0.030182913
148	0xbccaff4a	-0.024779934
149	0xbe5cdb36	-0.21567997
150	0xbd9d3178	-0.07675451
151	0xbdb1ef2e	-0.08688198
152	0xbcbd0c63	-0.023077196
153	0xbd5bdbdc	-0.05367647
154	0xbd7c25b0	-0.06155938
155	0x3d01caf4	0.03168769
156	0xbdf3cf3c	-0.11904761
157	0xbcd58b10	-0.026067287
158	0x3df8f30d	0.12155733
159	0x3cd7b414	0.026330985
160	0x3ccc6fb0	0.0249556
161	0x3d18b99e	0.037286393
162	0xbddb8e89	-0.10720546
163	0xbbdbca6d	-0.0067074806
164	0x3d7997f4	0.06093593
165	0x3d726084	0.059174076
166	0xbc4eed11	-0.012629763
167	0x3df7c57c	0.12098214
168	0x3ce0bd33	0.027433967
169	0x3c9b956a	0.018992145
170	0xbd81efd6	-0.06344573
171	0x3d830262	0.06396939
172	0x3e11802c	0.1420905
173	0x3c9ea288	0.01936461
174	0x3d03fa71	0.03222126
175	0x3e31bffb	0.17358391
176	0xbceb8e03	-0.02875424
177	0xbca0c93b	-0.019627204
178	0xbd782c93	-0.060589384
179	0x3c81b204	0.015831955
180	0xbc6c92e3	-0.014439317
181	0x3da9c337	0.082891874
182	0x3dd8578a	0.10563572
183	0x3c49d392	0.012318509
184	0xbd03f3c3	-0.03221489
185	0xbdbbc4ba	-0.09168382
186	0x3e0173d2	0.12641838
187	0x3df3026e	0.11865698
188	0xbe017ef5	-0.12646087
189	0x3cdbf258	0.026848957
190	0xbdb3817e	-0.08764933
191	0xbcd4864c	-0.025942944
192	0xbcc80592	-0.024416719
193	0x3db1944a	0.08670862
194	0xbdc41a50	-0.09575331
195	0xbcac6c48	-0.021047726
196	0xbd9b85fe	-0.07593916
197	0x3c598ecf	0.013278677
198	0xbdf653a1	-0.1202767
199	0x3da274f4	0.07932463
200	0xbd49365a	-0.0491241
201	0x3da06af0	0.07832897
202	0x3afffd80	0.0019530505
203	0x3d82ad15	0.06380669
204	0x3d1720bf	0.036896463
205	0xbca17adb	-0.019711902
206	0xbe01548c	-0.12629908
207	0xbd57b98d	-0.05266719
208	0x3dd22b44	0.102621585
209	0x3e2896dd	0.164638
210	0x3e081245	0.1328822
211	0x3cbd3f89	0.023101585
212	0x3b2809fa	0.0025640712
213	0x3e0cbedd	0.13744684
214	0x3e14b5c6	0.14522466
215	0x3d3dc1a6	0.046327256
216	0xbe22a1af	-0.1588199
217	0x3cfc6d9f	0.03081399
218	0x3cfe4c9a	0.031042386
219	0x3b7c3ba8	0.0038487706
220	0xbde6ddac	-0.11272749
221	0xbc6b104f	-0.01434715
222	0x3ccd711d	0.02507835
223	0xbe323481	-0.17402841
224	0x3dbaf822	0.09129359
225	0xbcd7225e	-0.026261505
226	0x3dbf44f2	0.09339322
227	0xbbf1aa9f	-0.007375076
228	0xbca31385	-0.019906769
229	0xbd305989	-0.043054137
230	0x3dc52396	0.09625928
231	0x3adcc943	0.0016844649
232	0xbda23c48	-0.07921654
233	0x3d53e297	0.051729765
234	0x3dc134e2	0.09433915
235	0x3dc70cde	0.09719251
236	0x3d51704e	0.051132493
237	0x3e0dc004	0.1384278
238	0xbd5a86d0	-0.053351223
239	0xbc9a6397	-0.018846316
240	0xbe1fd42b	-0.1560828
241	0xbd230040	-0.03979516
242	0xbd1b64ee	-0.03793805
243	0xbce56e5f	-0.02800673
244	0x3de65609	0.11246879
245	0x3d0668b5	0.0328147
246	0xbcf9c65d	-0.030490095
247	0xbc7b538b	-0.015339742
248	0xbd9c2661	-0.07624508
249	0x3d94db79	0.072684236
250	0x3cefaa4a	0.029256005
251	0xbd820f4a	-0.063505724
252	0x3abe5931	0.0014522431
253	0x3dccac35	0.099937834
254	0xbdea5607	-0.1144219
255	0xbdb78377	-0.08960622

transformer.attn.proj_k.bias f4 [72]
0	0xbd4978b4	-0.049187377
1	0xbd1fdcb3	-0.039028835
2	0x3d8aeb2d	0.067831375
3	0x3d82a478	0.06379026
4	0xbc9066f0	-0.01762721
5	0x3d403415	0.04692467
6	0xbd188a39	-0.037241194
7	0x3d3dbb8d	0.04632144
8	0x3d3f2318	0.046664327
9	0x3d578213	0.052614283
10	0xbd1a23f2	-0.037631936
11	0x3d2875fb	0.04112814
12	0x3cb87eb3	0.022521352
13	0x3daafdd0	0.08349192
14	0x3cc8e8a4	0.024524994
15	0x3baa2031	0.005191826
16	0x3d9e0757	0.07716244
17	0x3debcc27	0.11513548
18	0xbd8b71dd	-0.06808827
19	0x3d2dfea1	0.04247916
20	0x3d97da43	0.07414677
21	0x399c1b4a	0.0002977497
22	0xbcdc5908	-0.026897922
23	0xbdaae204	-0.0834389
24	0xbd78c8cc	-0.06073837
25	0xbdd0560d	-0.10172663
26	0xbdac9916	-0.08427636
27	0xbdc543c8	-0.09632069
28	0x3db7f7a9	0.08982784
29	0x3d277656	0.04088434
30	0x3deff434	0.117165
31	0x3b89949a	0.004198623
32	0x3a4dffa3	0.0007858222
33	0x3d61cdbe	0.05512785
34	0xbdb80b32	-0.0898651
35	0xbcf1c675	-0.029513577
36	0x3d6d6141	0.057954077
37	0x3dd0f029	0.10202057
38	0x3d9f0c7a	0.077660516
39	0x3ce23929	0.027615147
40	0x3ce702f8	0.028199658
41	0xbd1e90ca	-0.0387123
42	0x3d9ff58b	0.078105055
43	0xbb82cc2d	-0.003991625
44	0x3d32ec85	0.043682594
45	0xbccac67c	-0.024752848
46	0x3caa9f36	0.02082787
47	0xbdf0c25f	-0.11755823
48	0xbc9bbe1a	-0.019011546
49	0x3dafeeac	0.08590445
50	0x3c20f00e	0.0098228585
51	0x3de4d179	0.11172766
52	0xbdcada6b	-0.09904941
53	0xbd5b644b	-0.053562444
54	0xbdcc4cb1	-0.09975565
55	0x3d864c64	0.06557539
56	0xbdbc244e	-0.09186612
57	0xbc9a97e3	-0.018871253
58	0x3d952c11	0.072837956
59	0xbd0e12d5	-0.03468593
60	0x3cb625e8	0.022234872
61	0xbd860fef	-0.06546008
62	0xbb910744	-0.004425915
63	0xbd4350dd	-0.04768454
64	0xbd5f026e	-0.054445677
65	0xbc98fd91	-0.018675597
66	0x3da4b66d	0.080426075
67	0x3d8de43d	0.069282986
68	0xbd6ce375	-0.057834107
69	0x3d93692f	0.071977966
70	0x3dcc0bfa	0.09963222
71	0xbd07bdf1	-0.033140127

transformer.attn.proj_v.weight f4 [72, 72]
0	0xbdef3947	-0.11680847
1	0xbc865427	-0.016397549
2	0x3c84af03	0.016196733
3	0xbd5fd48c	-0.05464606
4	0x39bdef5b	0.00036227223
5	0x3cc8e27e	0.024522062
6	0x3dc6c95f	0.09706377
7	0x3dae0ea7	0.084988885
8	0x3d96eb4e	0.073690996
9	0xbcc76080	-0.024338007
10	0x3dab6b62	0.08370091
11	0x3d9a1898	0.07524222
12	0xbd9eed4d	-0.07760105
13	0xba38de89	-0.00070522033
14	0xbd1d0565	-0.038335223
15	0xba3cf25b	-0.00072077446
16	0xbdadf7e1	-0.08494545
17	0x3dc15c77	0.094414644
18	0x3dcff530	0.10154188
19	0xbd8fd391	-0.07022775
20	0xbdea42d9	-0.114385314
21	0x3d46040d	0.048343707
22	0x3d45b9be	0.04827284
23	0x3d9d245b	0.0767295
24	0xbd97c1fe	-0.07410048
25	0xbd852926	-0.06501989
26	0x3da2445c	0.07923195
27	0x3d0da469	0.034580622
28	0x3d814edf	0.063138716
29	0xbd23e3ec	-0.040012285
30	0xbd614f5e	-0.05500733
31	0x3d9ebd7e	0.077509865
32	0x3c957767	0.018245412
33	0x3d0ab09d	0.033859838
34	0xbdaf5959	-0.085619636
35	0xbc0be3d6	-0.008538207
36	0x3dc691d0	0.0969578
37	0x3d6e0669	0.058111582
38	0xbe057ff1	-0.13037087
39	0x3dc1607f	0.09442233
40	0xbd2ba97b	-0.041909676
41	0xbc6d1123	-0.014469418
42	0x3d9bb452	0.07602753
43	0xbdd22245	-0.10260443
44	0xbc0796ec	-0.008275729
45	0x3d735dce	0.05941563
46	0xbd6c9dd0	-0.05776769
47	0xbdc8d6e3	-0.098066114
48	0x3d5de3e7	0.054172423
49	0x3df75f48	0.1207872
50	0xbbcc7238	-0.006239202
51	0x3d403970	0.046929777
52	0xbe08a6aa	-0.13344827
53	0x3d90dd47	0.07073455
54	0xbda0fbd9	-0.07860536
55	0x3de3d5b2	0.111247435
56	0x3dc6635d	0.09686921
57	0x3d62237b	0.055209618
58	0xbc9c7340	-0.019097924
59	0xbda6cc0b	-0.08144387
60	0x3d5ccd2d	0.05390661
61	0x3d5b92ae	0.05360668
62	0x3db27e5f	0.087155096
63	0xbdbeefdc	-0.09323093
64	0x3d5916d0	0.05300027
65	0xbdda348d	-0.106545545
66	0x3de6d90e	0.11271869
67	0xbb4f3d1e	-0.0031622122
68	0x3c30bf4e	0.010787798
69	0xbd9261c8	-0.071475565
70	0x3dbb8347	0.091558985
71	0xbdf6b807	-0.12046819
72	0xbdd3d0fc	-0.10342595
73	0xbd5aec87	-0.053448226
74	0x3c348502	0.01101804
75	0x3dc40b81	0.09572507
76	0x3ccc917e	0.02497172
77	0x3de386ae	0.111096725
78	0x3d09b203	0.03361703
79	0x3d3f6cc0	0.04673457
80	0xbda3442c	-0.07971987
81	0x3dacb781	0.08433438
82	0xbdc76fbe	-0.0973811
83	0x3dc0879e	0.09400867
84	0x3a5d13ce	0.0008433432
85	0xbac83ad2	-0.0015276319
86	0x3d61c013	0.055114817
87	0x3e07212a	0.13196245
88	0xbdfe0c7b	-0.12404724
89	0xbdb20768	-0.08692819
90	0xbd993cc6	-0.07482295
91	0xbd2273a0	-0.03966105
92	0xbd95ac2a	-0.07308228
93	0x3d17f873	0.037102174
94	0xbdee514b	-0.11636599
95	0xbd91230c	-0.07086763
96	0x3d69e3c0	0.057101965
97	0x3da76152	0.08172859
98	0xbcf798f5	-0.030224303
99	0xbd16a86c	-0.036781713
100	0x3c3ec206	0.0116429385
101	0x3d897de8	0.06713468
102	0xbca9c19b	-0.020722201
103	0x3ce40d7e	0.027838465
104	0xbdbfa8da	-0.09358378
105	0x3dbea4d8	0.09308785
106	0xbdd9fde5	-0.1064413
107	0xbcddcbb8	-0.02707468
108	0xbd380e2b	-0.044935387
109	0x3b0e5d1c	0.0021722978
110	0xbd896c91	-0.067101605
111	0x3d852be2	0.065025106
112	0x3bbc1356	0.0057396097
113	0x3a6c1313	0.0009005528
114	0x3ce21c14	0.02760128
115	0xbd82f9c3	-0.063952945
116	0x3d9235e1	0.07139183
117	0xbd735578	-0.05940768
118	0x3dc43bd7	0.09581726
119	0x3d8e0f08	0.06936461
120	0x3d4a8f1c	0.049452886
121	0xbd92b789	-0.07163913
122	0xbda24460	-0.07923198
123	0xbdaed91b	-0.08537503
124	0x3d25e774	0.040503934
125	0xbbbcdf12	-0.0057638967
126	0xbc186cd6	-0.009303292
127	0x3d0375fe	0.032094948
128	0x3c092481	0.00837052
129	0xbdb49923	-0.08818271
130	0x3a30675c	0.0006729269
131	0x3be4d609	0.006983523
132	0x3def70dc	0.11691448
133	0x3d5935bf	0.053029772
134	0x3dced3d5	0.100989975
135	0x3ce8c328	0.02841337
136	0xbd08595b	-0.03328834
137	0x3df00640	0.11719942
138	0x3cd0504f	0.02542892
139	0xbdc6e29e	-0.097111925
140	0xbdf82ea1	-0.12118269
141	0x3d4fcc6a	0.050732054
142	0x3cbe7b70	0.023252219
143	0xbdd6874a	-0.10475023
144	0x3c886196	0.016648095
145	0xbdab2965	-0.08357505
146	0x3de4b531	0.11167372
147	0xbd54822c	-0.051881954
148	0x3d05ea7e	0.032694332
149	0xbd6943d8	-0.056949466
150	0x3d18c124	0.03729357
151	0xbcaa445e	-0.020784553
152	0x3d1404b4	0.036137298
153	0xbdd667f7	-0.104690485
154	0xbe03f44c	-0.1288616
155	0x3d98eb9b	0.07466813
156	0x3db4729c	0.088109225
157	0x3d387387	0.04503205
158	0x3e01cadf	0.12675045
159	0xbc2481c1	-0.010040701
160	0xbcb1be2c	-0.021697126
161	0x3d9f6f9f	0.07784962
162	0xbdedc02a	-0.11608918
163	0x3d5be986	0.053689502
164	0xbd52c143	-0.05145384
165	0xbd3c6be5	-0.046001334
166	0x3cc86d35	0.024466136
167	0x3df183b8	0.117927015
168	0xbdc41068	-0.09573442
169	0x3df0b6e4	0.117536336
170	0xbdd0391f	-0.10167145
171	0x3d9785f3	0.07398596
172	0x3db66419	0.08905811
173	0x3debcf0c	0.115141004
174	0xbcb1ab74	-0.0216882
175	0x3dd1816c	0.102297634
176	0x3db26ee4	0.08712557
177	0x3daddb18	0.084890544
178	0x3cc575a0	0.02410394
179	0x3db9e5c1	0.09077025
180	0x3d9548a0	0.07289243
181	0x3d45d21b	0.048296075
182	0x3cc65886	0.024212133
183	0xbd14e174	-0.03634782
184	0x3dec0406	0.11524205
185	0xbc7a0e58	-0.015262209
186	0xbcfd7af0	-0.03094241
187	0x3c18144c	0.009282183
188	0x3dc08457	0.09400242
189	0xbd9ed4f9	-0.07755465
190	0x3c583515	0.0131962495
191	0xbc873cfb	-0.01650857
192	0xbdbb108c	-0.091340154
193	0x3dd7f181	0.1054411
194	0xbd850100	-0.06494331
195	0x3d9812e3	0.07425477
196	0x3b4a19eb	0.0030838202
197	0xbd3c74e5	-0.046009917
198	0x3dc2e62b	0.09516557
199	0x3d0ff98e	0.035150103
200	0x3d87a2d0	0.06622851
201	0xbdf64230	-0.12024343
202	0xbdb6238a	-0.08893497
203	0x3aeb88a3	0.0017969798
204	0x3db1846c	0.086678356
205	0xb98d99ab	-0.00027008107
206	0xbc8fac7c	-0.017538302
207	0x3d64c4d9	0.05585179
208	0xbd8e4067	-0.069458775
209	0x3c8aec1c	0.016958289
210	0x3c10f2a5	0.008846913
211	0xbd6df992	-0.058099337
212	0x3dc7a51a	0.097482875
213	0x3e05e6f3	0.13076381
214	0xbda464fd	-0.080270745
215	0xbc0364a3	-0.008019599
216	0xbd4778ae	-0.048699073
217	0x3dc7d6d1	0.0975777
218	0x3cf4600c	0.029830955
219	0xbdaaeda8	-0.083461106
220	0x3d801cb7	0.06255477
221	0x3da09033	0.07840004
222	0xba0810f4	-0.00051905145
223	0x3cc5eec7	0.02416171
224	0xbda419eb	-0.08012756
225	0x3cb9c28c	0.022675775
226	0x3d71e907	0.059060123
227	0x3db56270	0.08856666
228	0xbd62aede	-0.055342548
229	0x3dce3e6f	0.10070502
230	0xbd987583	-0.074442886
231	0x3dd7a74a	0.10529955
232	0x3b6f2fe0	0.0036497042
233	0xbd1d6d3c	-0.038434252
234	0xbb6de921	-0.0036302286
235	0xbc5730c4	-0.013134185
236	0x3d22601f	0.03964245
237	0xbcaf5163	-0.021401113
238	0xbd63d978	-0.055627316
239	0xbd867df9	-0.06566996
240	0xbd2c8097	-0.04211482
241	0x3caed882	0.021343473
242	0xbdbb8804	-0.09156802
243	0x3c8f8b21	0.017522397
244	0x3d8df5ce	0.06931649
245	0x3cff3666	0.031153869
246	0x3d04ab71	0.03239006
247	0xbc954cf8	-0.018225178
248	0xbda42552	-0.08014931
249	0xbcaf2779	-0.021381127
250	0xbddd16df	-0.10795378
251	0xbd593f90	-0.053039134
252	0x3cf5b1c3	0.02999199
253	0xbcd25757	-0.025676413
254	0xbc3aa5a7	-0.011392034
255	0xbda6c94c	-0.08143863

transformer.attn.proj_v.bias f4 [72]
0	0x3c3073b2	0.010769771
1	0x3b6bb29a	0.003596461
2	0x3d27b283	0.040941726
3	0xbde68408	-0.11255652
4	0xbdaaf210	-0.08346951
5	0xba7a3774	-0.00095450063
6	0x3deae1f5	0.11468879
7	0x3da39acb	0.07988509
8	0xbd1947ae	-0.037421875
9	0x3da0b544	0.07847074
10	0x3d17052f	0.036870178
11	0xbc999d21	-0.018751683
12	0xbdab55ac	-0.0836595
13	0x3dc9fcf2	0.098626986
14	0xbc6d0fb2	-0.014469074
15	0x3dbc6dec	0.092006534
16	0xbd8bda04	-0.068286926
17	0xbd78a66d	-0.06070559
18	0xbcf7c1dc	-0.030243807
19	0xbdaaa0de	-0.08331464
20	0xbda2662e	-0.079296455
21	0x3c5e8f54	0.013583977
22	0x3de6f689	0.112774916
23	0xbdd339e7	-0.10313778
24	0xbdc3f8dc	-0.095689505
25	0xbdccb4db	-0.09995433
26	0xbb561df8	-0.0032671671
27	0xbd2d4532	-0.042302318
28	0xbd86faf1	-0.06590832
29	0x3ce155be	0.027506705
30	0x3cd36705	0.02580596
31	0x3d0ce138	0.034394473
32	0xbb801ecd	-0.0039099217
33	0x3d0d5ab4	0.03451033
34	0xbdc99134	-0.098421484
35	0x3d37bf78	0.044860333
36	0xbc7388de	-0.014864175
37	0x3db296b0	0.087201476
38	0x3cc32560	0.023821533
39	0xbd3ce0ae	-0.04611271
40	0xbceba9f8	-0.02876757
41	0x3d861026	0.06546049
42	0xbd4f78e1	-0.05065239
43	0xbcb725f0	-0.022356957
44	0xbdc59642	-0.096478
45	0x3d4c4b8f	0.049876746
46	0xbdbb6190	-0.09149468
47	0x3dc6b9cb	0.09703406
48	0x3dd06a9d	0.10176585
49	0xbda10689	-0.078625746
50	0x3d0a6e44	0.033796564
51	0x3ddde132	0.10833968
52	0x3dd1a998	0.102374256
53	0xbd714745	-0.05890586
54	0xbd5cad52	-0.05387623
55	0x3ddb8606	0.10718922
56	0xbd968e8d	-0.07351408
57	0x3ca9a3d1	0.020707997
58	0x3c2e6aaf	0.010645553
59	0xbdbe0bf8	-0.092796266
60	0xbc1a6b2a	-0.009424964
61	0x3d9ddf01	0.0770855
62	0xbd2481ea	-0.04016296
63	0xbd124583	-0.035710823
64	0xbca47350	-0.020074517
65	0xbcce168c	-0.025157236
66	0xbd2dc561	-0.042424563
67	0xbaf3a4b0	-0.0018588509
68	0x3c795cf8	0.015219919
69	0xbce3b724	-0.02779729
70	0xbb18e638	-0.002333058
71	0xbd09aa57	-0.033609714
