saved/classifier_base_gru_blind_user_20_120/limu_gru_v1.pt (torch, 40112 bytes, 14 tensors)

gru0.weight_ih_l0 f4 [60, 72]
00000000: 2eed f4bd 017f 843e a0f9 383e 035d d2be
00000010: fcac ddbd 48b7 6a3d 052d 8dbf fc21 183e
00000020: e218 70bf d21b e13e b158 bbbe 4ed0 2f3f
00000030: 3c4b 9ebc a23e 783f 72da 0ebe 15db 5abe
00000040: 9fe2 06bf 7a2f 0c3b 3988 84be 3217 b83e
00000050: 1243 883c a162 783e 2522 d33d fc16 623d
00000060: 27fd 063e be92 193e 53c7 5c3e 9db1 96bd
00000070: 6ebb 453f 3e47 8d3e dad7 9abe 39c8 dabd
00000080: c1f0 2dbd 7468 99bd 16b6 c63d cb42 22be
00000090: 459c 72be 310a fb3e 3d7d c9be 44b6 af3e
000000a0: 3c68 0cbe ed7f 133e c2e7 993f 1bfe 6fbd
000000b0: 5e6c 1cbe e470 97be 2794 573e 83a8 a4bd
000000c0: 5486 ba3d 7bb4 abbe ae18 923c 3189 243d
000000d0: b4cd 2a3e 1496 0f3f 55b2 873e eefd c1bd
000000e0: 5d9b 3ebc 8f03 bc3c 3144 d0be 17da 3a3f
000000f0: 8de3 8cbe d0df a43e 2317 a8be 3a48 1bbc
00000100: 52d8 ac3e b9e8 3d3c 401a c9be 8e7d 1b3f
00000110: 0715 f2be 722f 583d 3b75 a0be c85d 793e
00000120: ab1c 27be 03bc cdbd 3410 2e3f a417 323f
00000130: 1a53 debe 4456 f5bd a251 b33e 7615 533e
00000140: 323b 103e 256f 8cbd 5341 50be 9423 fb3e
00000150: 0d47 f43e 11f7 e4bd 84cd bb3e 339f ffbd
00000160: e90c cc3d 9918 293e ff3e 48be 35a4 e9bc
00000170: 3a60 b0bd add5 21be f45d 783e 5171 ec3e
00000180: 577c b1be 6fd1 6f3e 3051 41bf 0e44 37bd
00000190: 1453 de3e 4f6e 5ebe f2a9 df3c d48b 483d
000001a0: 9dd9 a0bf 6c5e 943e 90e8 153e 15f8 f2bd
000001b0: e08c a7be d03d 763d 6361 12be 98c8 b3be
000001c0: 57ac 24be 1369 173b b1b9 afbe 83c5 a0be
000001d0: e1c7 923e a21d 7a3e 191c 18be fdf0 28be
000001e0: e2b7 f4bb 358e 43be f149 27bf 61a8 b03e
000001f0: c9b0 523e 1bcb e93e b97c 203e a245 6fbe
00000200: a372 173f 1a95 553d 7023 40be 319f c53e
00000210: 8166 6fbe 8199 1dbf c47e fa3e 2d58 b63b
00000220: b639 283e 3c23 bf3e d08a 91bd a3c7 13be
00000230: e8e0 33be 19cb 0e3e f34d 16bd f9f3 353e
00000240: 1b53 853c 9c1b ca3e 042d c5bd f3f9 a33e
00000250: b2bb 31be 9875 2b3e ce96 4abe ffc7 1abd
00000260: bfce 1dbc 49d7 913e d65a b13e e22c 1b3f
00000270: 2f09 5ebd f1e8 30bd 5301 3b3e 71e8 a0be
00000280: 7245 34bf 689c 74bd 2510 e5bc 7076 a8bc
00000290: bedf 09bc 64a3 943e 6854 73be 20a8 b83e
000002a0: 3455 273f 6f35 c13d 22da 3fbe defc ee3d
000002b0: 747d 81be 53ac 90bc b5e8 82be 970d 5a3d
000002c0: 91c5 603f 9478 9dbd d068 70be 26b7 fbbd
000002d0: 3840 9e3d aa0f 86bf f4cb d53d 8828 793e
000002e0: 9961 b13e ec89 8bbf 3680 70be 07e4 ed3e
000002f0: 60c4 bf3e b142 993d 5659 4dbe cd4d 06be
00000300: 9de0 86bd 8de4 96bd 7b5e 25be 736c 70bf
00000310: d02f 1b3f 8114 c1be 7971 a63e ffb6 843d
00000320: f4c2 2dbe 832e c9be 3531 9abe 1ccb 38bf
00000330: 2ce0 9abe af51 8bbd 75a2 21bf 82c8 153f
00000340: eca5 f13e 40f0 033d 9e16 ce3d 4449 9dbd
00000350: e4dd a23d 4020 35bd 6073 9cbd d090 f9be
00000360: 4885 08be d7d3 a2be 7b54 7dbe 8542 80be
00000370: 3ee1 10be 61c3 733e d83b d03e 2cd5 84be
00000380: 100f 003f 7d2f 9d3e 98df 0dbc 3c81 21bf
00000390: 5379 233e 96cd 863e e288 0bbe cfa3 a5be
000003a0: 5dea 1b3e 84ed d63d 0796 75be de77 c0be
000003b0: ffe8 833e e8e4 d03e fe55 083f 3e4b c03e
000003c0: f666 713d 2ef1 be3e 5d72 17be d3de e9be
000003d0: 4782 a1be 44f2 e83c 97ce ddbd a270 2c3e
000003e0: 526b 2c3e 4cf3 363e 01f8 9ebe 9e0d 813d
000003f0: 7eee a1bd 8c2c 613e 08f5 43bf d700 723d
-0.11959301 0.25878146 0.18063974 -0.41086587 -0.1082401 0.057303697 -1.1029364 0.14856714
-0.9378797 0.43966538 -0.36591104 0.6867722 -0.019322984 0.9697057 -0.13950518 -0.21372636
-0.52689546 0.0021390603 -0.2588518 0.35955197 0.016633544 0.24256374 0.10309247 0.0551977
0.13182507 0.14997384 0.21560411 -0.07358096 0.7723912 0.27593416 -0.30242807 -0.10682721
-0.04246593 -0.07490626 0.09702699 -0.15845792 -0.23692425 0.49031213 -0.39353362 0.34318745
-0.13711637 0.14404269 1.2023852 -0.058591943 -0.15275714 -0.29578316 0.2105261 -0.080399536
0.09107652 -0.33536133 0.017834034 0.0401699 0.16680032 0.56088376 0.26503244 -0.09472261
-0.011633721 0.022950916 -0.40677026 0.7298903 -0.27517357 0.32202005 -0.32830152 -0.009477669
0.3375879 0.01159113 -0.3927784 0.60738456 -0.47281668 0.052779622 -0.3133944 0.24352181
-0.1631953 -0.10045626 0.67993474 0.6956732 -0.43422776 -0.119793445 0.35023218 0.20613655
0.14085081 -0.06857137 -0.20337419 0.4905058 0.47710457 -0.11179937 0.36680233 -0.12481537
0.099634 0.1651329 -0.19555281 -0.028520683 -0.08612104 -0.15804167 0.2425459 0.46180204
-0.34665176 0.23419736 -0.7551451 -0.044742636 0.4342276 -0.21721767 0.027302716 0.048961475
-1.256641 0.28978288 0.14639497 -0.11863724 -0.32724667 0.060117543 -0.14294963 -0.35113978
-0.16081367 0.00231034 -0.3432136 -0.3140069 0.2866812 0.24425367 -0.14854468 -0.1649818
-0.0074682096 -0.19097216 -0.653472 0.34503463 0.2057525 0.4566277 0.15672578 -0.23366407
0.59159297 0.052144147 -0.18763518 0.38598016 -0.23378946 -0.61562353 0.4892484 0.0055647106
0.16428265 0.3733157 -0.071065545 -0.14431624 -0.17566264 0.13944663 -0.036695432 0.1776885
0.01627498 0.3947419 -0.09627727 0.32026634 -0.17356756 0.16744077 -0.1978409 -0.037788387
-0.009631812 0.28484562 0.34639615 0.6061536 -0.054207977 -0.0431909 0.18262224 -0.3142734
-0.70418465 -0.059719473 -0.0279618 -0.020564288 -0.008415161 0.29030907 -0.23762667 0.3606577
0.65364385 0.0943402 -0.18735555 0.11669324 -0.25291026 -0.017660296 -0.25568166 0.053235617
0.8780146 -0.07689014 -0.23477483 -0.12290792 0.077270925 -1.047353 0.104392916 0.24331868
0.34644774 -1.0901465 -0.23486409 0.46463034 0.3745451 0.074834235 -0.2005361 -0.13115616
-0.0658581 -0.07367811 -0.16149323 -0.9391548 0.6061983 -0.37710956 0.32508448 0.06480216
-0.169689 -0.39293298 -0.30115667 -0.7218492 -0.30249155 -0.06802689 -0.63138515 0.58509076
0.471969 0.032211542 0.10062908 -0.0767999 0.079524785 -0.04422021 -0.076391935 -0.48743296
-0.13332093 -0.31802246 -0.24739258 -0.2505075 -0.14148423 0.23805 0.40670657 -0.25943887
0.50022984 0.30700293 -0.008659266 -0.6308782 0.1596425 0.26328725 -0.13626435 -0.3235154
0.15226121 0.10494521 -0.23983012 -0.3759145 0.257637 0.40799642 0.53256214 0.37557405
0.05893608 0.3729338 -0.1478972 -0.45677814 -0.31544706 0.028435834 -0.108304195 0.16839841
0.16837814 0.17866248 -0.31048587 0.063014254 -0.07906817 0.2198965 -0.76545763 0.059082832

gru0.weight_hh_l0 f4 [60, 20]
00000000: 3e64 3dbf 6288 e1be e853 dcbe a5fa 063f
00000010: fd47 18bf 313d 843e 3cc7 6cbe 3632 6d3f
00000020: d956 c0be 32ae e9be ab39 003e 9ddb 10be
00000030: 37a6 6cbf 3dc3 a1be 78b6 023a efc5 5c3a
00000040: b47c 973e 7db6 93bd f55a e8bd 19f6 d6bd
00000050: d491 0c3e 390b f8be 4ded 183f 6f9b 863e
00000060: 7a4e 0fbe 2785 90be 07f5 a53d e1e7 973e
00000070: 5d6d d93e b438 da3e ee04 e9bd 0adc f8be
00000080: 24e0 8cbe c517 8b3d eeaf f9bd 4993 20bf
00000090: 9fc0 9a3e 8ddc 5dbe 9596 973e 06dd 05bf
000000a0: decf c5be 481e 2d3e d374 3bbd 8fd6 343e
000000b0: 7055 123f 2ff8 bdbe 0551 f6be b138 5abd
000000c0: 9935 38bd 22b9 4ebf 1c51 5f3e 9d23 113e
000000d0: cb19 fdbe a3ba 81bd 2dd7 e1be 984a e5bd
000000e0: 3cb7 633e feb7 373f 2542 c0bd ce24 5b3f
000000f0: 8236 7c3e 9741 a53e c0a4 6fbe b55d 443f
00000100: 6d9f d6be 41fe 6c3e 6618 793e b19c 5f3e
00000110: 2275 183e 6e99 753e 470d 7a3c ff3a 1d3d
00000120: d7a6 913f fcfb 573e ddbc a23e 129e 25be
00000130: aced 85bd eb16 b6be b2f1 b4bc 9575 c63d
00000140: 06f0 ba3e 697d d53e 32bb 36bf ad67 cd3e
00000150: a83d 0abf 22d2 97bc f37a 2ebf 9503 f73c
00000160: b592 21be 0384 4a3f 1b87 ee3e 36d4 fbbe
00000170: e87f 4c3f 63ba 58be ae8c eaba 7f81 a13e
00000180: b308 7f3e 6a54 783d de81 7ebe 90a6 2e3e
00000190: 3f67 3c3e 5001 9b3f 9f88 6cbe e876 5f3d
000001a0: 89d9 84bd 4055 073d 486e ffbe 2fe6 d0be
000001b0: f93f a33e 3eed 09bb e1cc a63e 7b57 fb3e
000001c0: 779b 373f 7cf0 673e c637 6e3e 09d1 8d3c
000001d0: 6459 fa3d 16ff 0a3f 65b3 063f 7ef5 623d
000001e0: 6d75 7e3e fa97 523e 2cbe 7abe 43cb 953e
000001f0: 5896 38be 122c 2f3d a620 08bf 02a0 8b3d
00000200: 33a7 e7be 3f3b 053f 9ed6 7bbf 55bc 353e
00000210: 8fd6 8cbf a494 103e fa79 d2bd dc55 a3be
00000220: 5c15 6ebf dee8 bfbe 3ce5 3cbe 5012 78be
00000230: e9bd 583e 5201 b13e ed72 d7be 5338 5d3f
00000240: 6b6d 4c3f ae8d 15be c3a5 01bf 614d 17be
00000250: 91f2 b13c d211 25bd bad4 0bbf b7ae 413e
00000260: 737b e33e 295e 973c 89cd 00be 79cd 3cbd
00000270: cb01 d53e cd21 f23d 4497 573e 3524 ccbd
00000280: 4df9 95be d487 00bf 4e6f 273f ec55 acbf
00000290: 8fbe 74bf e711 933e 2ec4 94be b5d7 2cbd
000002a0: aff2 26bd 95e7 23bf 90a8 8f3e 5373 d6bd
000002b0: 483f cfbd 241a 18be 53d3 6b3e 81e3 783f
000002c0: 979d 143e 2414 8c3e 7957 44be f63e a63d
000002d0: 5697 ed3e 8428 683e 2162 583e 0471 a33e
000002e0: 7d9c 2ebf 3f66 183e 9c4e 083f 1357 0dbe
000002f0: d3f5 cb3c c632 da3e 136d 8a3e d0f8 01be
00000300: 5c50 f5be 2e4e 503e f27d 13bd 7de3 463b
00000310: 0c62 823e f808 2dbd b4f6 933e 3a4a 9abe
00000320: 59a0 53bd d35d 65bf 12eb 3fbd 65ca 343f
00000330: 5eee 87be 473f 99be b678 223e 9413 733e
00000340: 3361 753d ed2c 3fbd 89ed f3be b678 533e
00000350: 63c8 26be 0d2b af3b 09df 05be 568a 31bf
00000360: d119 2cbe 4caa 18bd 7477 f33d 5486 0b3e
00000370: 78f3 003d 3a21 12bf 9b01 1a3f a6d9 703f
00000380: be23 c33d c7f3 c7bd 3db2 19be 1092 b63e
00000390: 2d21 263e 4cf4 0d3f fcda 703e bfe3 ecbd
000003a0: 4fc4 d03e 1347 b7be 35cf 57bf ad8c 2fbe
000003b0: c255 a53e 63f7 8fbe ba86 3bbd 9e34 32bf
000003c0: 0498 9a3e 7c92 38bf 8e26 cebe 5fdb 013d
000003d0: 7656 0d3d 787a ba3e 3f06 ed3d 02b0 baba
000003e0: e953 69be a015 7d3d ebac 1f3f 71dc cbbd
000003f0: 2e5b fabd 0a39 103d bf30 fbbd 69ea 51be
-0.7398108 -0.44049364 -0.43032765 0.52726203 -0.59484845 0.25827935 -0.23122877 0.9265474
-0.3756626 -0.45640713 0.12521999 -0.14146276 -0.92441124 -0.31594267 0.00049862964 0.00084218284
0.29587328 -0.07212541 -0.11345474 -0.10496158 0.13727504 -0.48446062 0.5973709 0.2629046
-0.1399478 -0.28226587 0.08103376 0.29669097 0.4246625 0.42621386 -0.113778934 -0.48605376
-0.27514756 0.06791643 -0.12191759 -0.6272474 0.30225083 -0.21666165 0.29607072 -0.5229038
-0.38635153 0.16906083 -0.04576571 0.17659973 0.5716162 -0.37103412 -0.48108688 -0.05327672
-0.04497299 -0.8075124 0.21808285 0.14173742 -0.4943374 -0.06334426 -0.4410948 -0.11195868
0.22237867 0.71765125 -0.09387616 0.85603034 0.24630168 0.32276604 -0.23402691 0.76705486
-0.41918507 0.23143865 0.24325714 0.21837117 0.14888433 0.2398431 0.015261955 0.03838634
1.137904 0.21092218 0.31784716 -0.1617358 -0.06539473 -0.3556436 -0.022087906 0.09690396
0.36511248 0.41697243 -0.7137939 0.4011816 -0.5400033 -0.018532816 -0.68156356 0.030153075
-0.1577862 0.79107684 0.46587452 -0.49185342 0.7988267 -0.21164851 -0.0017894709 0.3154411
0.24905662 0.06062738 -0.24854228 0.17055726 0.1839876 1.2109776 -0.23098992 0.054556757
-0.06486804 0.033040285 -0.49888825 -0.40800616 0.31884745 -0.0021045948 0.32578185 0.4909018
0.71721596 0.22650331 0.23263463 0.01731159 0.12224081 0.5429548 0.52617484 0.0554099
0.24849482 0.20565787 -0.24486607 0.2925664 -0.18026102 0.042766638 -0.5317482 0.068176284
-0.4524475 0.5204353 -0.98374355 0.17747624 -1.1002978 0.14119202 -0.102771714 -0.31901443
-0.9300134 -0.3748235 -0.18446821 -0.24225736 0.21166195 0.3457132 -0.4207987 0.8641407
0.7985446 -0.14604828 -0.5064356 -0.14775611 0.02172211 -0.040300198 -0.5462147 0.18914305
0.44430122 0.018477516 -0.12578405 -0.04609439 0.4160293 0.11822853 0.21053797 -0.099678434
-0.29291764 -0.5020726 0.6540421 -1.3463721 -0.9560327 0.28724596 -0.29055923 -0.0421979
-0.040758785 -0.6402524 0.2805829 -0.10471215 -0.10119492 -0.14853722 0.23029833 0.97222143
0.14513241 0.27359116 -0.19173993 0.081174776 0.46404523 0.22671705 0.21131183 0.31922162
-0.6820753 0.14882754 0.5324495 -0.13802747 0.024897492 0.42616862 0.27036342 -0.1269257
-0.47912872 0.20342323 -0.036008783 0.0030347996 0.2546543 -0.04224488 0.28899157 -0.30134755
-0.05166659 -0.8959629 -0.04685504 0.7062133 -0.26549047 -0.2993109 0.1586636 0.23737937
0.05990715 -0.046673704 -0.47642162 0.20651516 -0.16287379 0.005345708 -0.13073362 -0.6935171
-0.16806723 -0.037271783 0.11888018 0.13625461 0.03148219 -0.5708195 0.601587 0.94082105
0.09528302 -0.09763294 -0.15009399 0.35658312 0.16223593 0.5545089 0.23521036 -0.115668766
0.40774772 -0.35796413 -0.8430055 -0.17143507 0.3229199 -0.2811843 -0.045782782 -0.6961154
0.30194104 -0.7209852 -0.4026379 0.03170335 0.034506284 0.3642156 0.11573457 -0.0014243128
-0.22785915 0.0617882 0.62373227 -0.09954155 -0.122244224 0.035210647 -0.12265157 -0.20499577

gru0.bias_ih_l0 f4 [60]
00000000: 2180 f83d 0904 0abe fd75 493e fef8 413d
00000010: 203a 88bc f285 a23e 8d12 dabc b656 03bd
00000020: dec4 d73d 088c 3fbe fe82 7fbe 342b 38be
00000030: e7ed ff3d 7bc8 1e3e 9be4 cf3c 09ff 753d
00000040: 7d6b 87be 91f3 4bbd c318 9e3e fb97 3a3e
00000050: 2043 68be 30f9 203e 438f b13d 0267 2a3e
00000060: 18bf bf3e 6ca3 77bd b64b 81bd 9b25 d93d
00000070: fef7 69be 0938 8b3d 6c4b d9bd f6f8 883c
00000080: 2e72 923e f1ce 0cbe 2c1a 3e3e d77f 103d
00000090: 8c7e 4f3d dbb8 3e3e 3b2e 833b b872 cf3d
000000a0: 34cd 063e 2dab d73d 32ae afbd 196a 22be
000000b0: 329a 4c3d 2209 72be 0838 403e 4fd7 5abd
000000c0: 17ee 663e 7044 10be eebb b0bd 22f2 b4be
000000d0: 8d39 2abe 4097 5a3e 5b20 773d b5da 9dbd
000000e0: 4ea8 84be fa78 a6bc c197 9dbc 0da4 26be
0.12133814 -0.13478102 0.19673915 0.047356598 -0.016629279 0.31742817 -0.026620174 -0.032065116
0.10535596 -0.18705761 -0.24952313 -0.1798523 0.12496548 0.15506165 0.025377562 0.060057674
-0.26449195 -0.04979283 0.30878267 0.18222038 -0.22681856 0.15720057 0.08669903 0.16640857
0.3745048 -0.060458586 -0.06313269 0.10602876 -0.22848508 0.06797797 -0.10610089 0.016720276
0.28602737 -0.13750817 0.18564671 0.035278168 0.050657794 0.18625204 0.004003314 0.10129303
0.13164216 0.10530696 -0.08578147 -0.15860786 0.04995174 -0.23636296 0.18771374 -0.05342799
0.22551762 -0.14088607 -0.08629595 -0.35340983 -0.16623516 0.2134676 0.06033359 -0.07707731
-0.25909656 -0.020321358 -0.019237401 -0.16273518

gru0.bias_hh_l0 f4 [60]
00000000: 9d39 26be f160 d53d b3a1 913d a1f3 7bbd
00000010: 5806 07be 1282 403e 74ef 7d3e f1a9 99bc
00000020: 4d2f 313d c8c7 36be f248 1bbd bc83 85be
00000030: cf23 69be e597 753c 607a 103e 910d 153d
00000040: e6bd fdbc d78c 38be 5f00 7b3e 59e3 28bd
00000050: 72dd a43d 6be6 c53d daf2 6dbd 368c f8bb
00000060: b780 903e 8e1d b53d 0a7f 0a3e 00b7 5a3e
00000070: 0ffd 73be fd35 99bd 8ed1 4d3e a2cd 92bd
00000080: 4d1a 583e b1ef ff3c 0a98 033e 4701 9dbe
00000090: bcad 40be f0da 90bc 81ae 34be ce70 0f3d
000000a0: 53a5 ddbc 4101 64be 6973 143e 51fe 003e
000000b0: ce80 f63d a0f5 b1bc 5e89 223d 7d56 4cbe
000000c0: 3f3c 01bd 788a 123e 8a19 d3bd 0818 3abe
000000d0: 01f8 4cbe f256 cdbe eb6e 73be 842b 963e
000000e0: 8891 143e 8bdb b93c f064 153e e110 3e3e
-0.16232915 0.10418881 0.0711092 -0.06151164 -0.13186014 0.18799618 0.24798375 -0.018757792
0.043258 -0.17849648 -0.037911363 -0.26077068 -0.22767566 0.014989828 0.14109182 0.03638989
-0.03097434 -0.18022476 0.2451186 -0.04123244 0.0805005 0.09663089 -0.05809293 -0.007585074
0.28223202 0.08843528 0.13525024 0.21358871 -0.23827003 -0.074810006 0.2009947 -0.071681276
0.21103783 0.031242223 0.12850967 -0.30665037 -0.18816274 -0.017682523 -0.17644693 0.03501969
-0.027056372 -0.22266103 0.1449715 0.12597014 0.12036286 -0.021723568 0.039681785 -0.19954868
-0.031551596 0.14310634 -0.103076056 -0.1817323 -0.20016481 -0.40105397 -0.2377278 0.29330075
0.14508641 0.022687694 0.14589286 0.18561126

gru0.weight_ih_l1 f4 [60, 20]
00000000: a3ac 1ebf e651 96bf 200b 6ebe 89d3 55be
00000010: 161e f0be f139 c23c 386f af3d 73e6 97bb
00000020: 1f84 b6be bae0 afbe 0b87 59be 94bb 523e
00000030: adec 9ebd 39db 213e 5325 69be ecec 153f
00000040: 83ce 1e3f 033b 843e b9f0 5ebe dcb5 3fbe
00000050: 3698 3ebe 6478 f73e e79e 3cbf d89c 683e
00000060: 220d 3e3f ab68 1fbe ddb1 a7bf 4936 a23e
00000070: 928a 463e 8ffe 39bf 09d3 0e3e 9589 c1be
00000080: 360c c53e ecd7 463f 771c e4be 3de6 97be
00000090: 11ea 57be b9a5 013d 218f de3e 117f fa3e
000000a0: b06d 223e 13c5 05bf f788 d2bd 4629 03be
000000b0: 43d1 4c3f 0dc9 b5bd 39f0 69bf 9566 b23d
000000c0: 369a 97be bd73 0cbf c1ec c73e b2c4 a23e
000000d0: 5ba0 e43c 754a 223c 00be 61be ab82 993e
000000e0: 8ec4 3e3e 2c5a 5cbe 7b89 53be aea4 47bf
000000f0: a2d5 513e 8bb2 313e ae7b 99be 92c4 253f
00000100: ec92 6dbd 20d3 9e3c 4de3 833f 6799 fe3e
00000110: 30ab 6dbf d7fb 413f bf5f a5bd cd46 d5be
00000120: 8d6d c4bd e077 ad3e fd77 b3bc d7e3 193d
00000130: 8213 52be 07fc 9dbe 610a ef3e e6dc e33d
00000140: f70d 46be 90cf 2a3e 8df5 9fbe ab02 1b3f
00000150: 0140 683f 2ddd a8be 2857 23bd 8bff e7be
00000160: 224f 82bf 1abf 7b3e a479 5e3e eb45 123f
00000170: 7f19 073f 68c5 423f fbca 3abf 4379 ee3e
00000180: b4af 8d3e 9c6d 50be 2b50 163f 2f69 ac3d
00000190: 8733 2b3f 2709 06bf ef64 81bd 1626 303f
000001a0: 652c 873d 8372 9ebe 1543 3b3f 6fec 8d3e
000001b0: c5f8 a73d 458c 0dbb e240 193f 97e3 263e
000001c0: 236b 103e e4dc bc3e 0850 0d3f cf4e df3d
000001d0: fe32 763f af6c 1fbf ce45 95bd 8eb5 d0be
000001e0: 5282 c8bc 50f0 02bc f6f1 a4ba 1a02 153f
000001f0: a65c 023e b078 e9be 5fa7 69be 632d 97be
00000200: a0c0 d93e c48c 02bf e1b0 d43e 770b d9bd
00000210: 9579 bf3e 0efe bc3e 1f98 babd 46e2 a5be
00000220: 089c 42bf 116f 1abe 09d9 0fbd 30eb 373f
00000230: c74a 84be 3381 f63d 6e33 753e 33e6 233f
00000240: 22db cc3e 25f2 37be 5ee0 7f3c 92d0 473e
00000250: 548c 34be 36d8 87bf 96ea 8bbd 7dab 883c
00000260: 8c09 4c3d 795c e33d 9bd3 82be f00d a6bf
00000270: dbd2 563e 6865 143e 0694 13bd 6ae4 cfbe
00000280: c08a 1c3d 8c23 933d 8d16 29bc ac16 1a3f
00000290: de83 37be 53fe de3e 17e5 283f f360 013f
000002a0: 2809 6d3e 5245 ed3d 5bd4 03bf 521c d8bd
000002b0: be05 01bf 47cf aabd 2908 42bf 047b ba3e
000002c0: 37c8 d53e 41ee 41be 4b07 aa3e 9047 8d3d
000002d0: 45a3 463e 81d0 c63d 2033 893e c815 fc3e
000002e0: 9c32 23be e4b5 a5be b29f 54be 489f 0d3f
000002f0: de5c 823e 272e e7be 7e9b cd3e 2182 7b3d
00000300: 04dc c9be 5917 f03e 0c34 02bf 6717 c9be
00000310: 1fbb 1bbf 20d1 5b3d 9d71 16be 5a34 e23a
00000320: 3de2 203e c910 983f 48ce 98bb 78a1 f93e
00000330: bff0 433f 9054 01bc bfcc 8f3e 584d 29bd
00000340: 6713 a23e e0ab 43bd c1a9 203e 76d0 c43e
00000350: e0d8 593e b832 3e3d e858 10bf ecb4 1fbd
00000360: 8889 8f3f fe00 52bd 423e bb3d 2ce1 873d
00000370: 40fe a13e 2993 92bd 33f1 c5be 9801 ca3d
00000380: ae1c 2dbe 5c0d e43e 4991 e33d 85b6 3ebf
00000390: 5e77 1b3e d1e0 8cbf 49e7 603e 0326 f23d
000003a0: 7a76 a1be 7099 863e f819 023e 4e4c 1a3e
000003b0: 4952 3d3f c00d e53e d356 06bf d338 383e
000003c0: 9e6d e5ba 50bd 71be 78ae 75bd f583 7c3e
000003d0: fa4c 6e3e 30c1 81be 9de3 aabd 7d0a 683d
000003e0: 7874 b9bd a8b0 df3e 7642 b1be f427 3bbe
000003f0: ba5e c23c b178 743d ac1d dbbe 1eba ce3e
-0.6198217 -1.1743743 -0.23246431 -0.20881476 -0.46897954 0.02370927 0.08566135 -0.004635626
-0.35647675 -0.3435114 -0.21242921 0.20579368 -0.07759986 0.15806283 -0.22768144 0.5856464
0.6203386 0.25826272 -0.21771516 -0.18721718 -0.18612751 0.48334038 -0.73679966 0.22716081
0.7423879 -0.15567271 -1.3101155 0.3168204 0.19388798 -0.7265405 0.13947691 -0.3780028
0.3848588 0.7767322 -0.44552967 -0.29667845 -0.21085383 0.031652186 0.43468574 0.4892507
0.15862155 -0.52253836 -0.1028003 -0.12808713 0.8000681 -0.08876238 -0.91382176 0.08710972
-0.2960984 -0.548641 0.39047816 0.31790692 0.027908495 0.009905447 -0.22045135 0.29982504
0.18629667 -0.21518773 -0.20657913 -0.77985656 0.2049165 0.17353265 -0.29977173 0.6475307
-0.058001444 0.019387782 1.0303742 0.49726412 -0.92839336 0.757749 -0.08074903 -0.4165558
-0.09591208 0.3388052 -0.0219078 0.0375708 -0.20515254 -0.30856344 0.46687606 0.111261174
-0.19341265 0.16680741 -0.31242028 0.60550946 0.9072266 -0.32981244 -0.03987804 -0.4531215
-1.01804 0.24584618 0.2172609 0.57137936 0.5277328 0.7608247 -0.72965974 0.4657689
0.27673113 -0.20354313 0.58716077 0.084185 0.668755 -0.52357715 -0.0631808 0.68808115
0.066002645 -0.3094674 0.73149234 0.27719447 0.08201746 -0.00215985 0.5986463 0.16297756
0.1410337 0.36887276 0.55200243 0.109037034 0.9617156 -0.62275213 -0.07288705 -0.40763515
-0.024476204 -0.007991865 -0.0012584317 0.5820633 0.12730655 -0.4559989 -0.22817753 -0.29526815
0.42529774 -0.5099604 0.41541198 -0.1059789 0.37397447 0.36912578 -0.09111046 -0.32399195
-0.76019335 -0.15081431 -0.03511909 0.7184324 -0.258383 0.120363615 0.239454 0.6402313
0.40010935 -0.17963465 0.015617458 0.19513157 -0.17631656 -1.0612857 -0.06831853 0.016683334
0.049813792 0.11101622 -0.25552067 -1.2973003 0.20978872 0.14491808 -0.036029838 -0.40603954
0.03821826 0.071845144 -0.010320318 0.60190845 -0.17921397 0.4355341 0.65974563 0.5053856
0.23148024 0.115854874 -0.51495904 -0.10552277 -0.50399387 -0.08340316 -0.757937 0.36421978
0.41754314 -0.18938543 0.3320869 0.06898415 0.1939822 0.09707738 0.26796818 0.49235368
-0.15937275 -0.32365334 -0.20764044 0.5532117 0.25461477 -0.451524 0.40157694 0.061403397
-0.3942567 0.46892813 -0.5086067 -0.39275667 -0.608324 0.053666234 -0.14691778 0.0017258034
0.15711303 1.1880122 -0.0046632625 0.48756003 0.76539224 -0.007893696 0.28085896 -0.041333526
0.31655428 -0.047771335 0.15689756 0.38440293 0.21274137 0.046435088 -0.5638566 -0.0389909
1.1213846 -0.051270477 0.09142734 0.06634745 0.3163929 -0.07156975 -0.38660583 0.09863585
-0.16905472 0.44541442 0.11111695 -0.7449725 0.15182254 -1.1006109 0.21963228 0.118236564
-0.31535703 0.2628894 0.12705219 0.1506817 0.7395368 0.44737053 -0.52476233 0.17990427
-0.0017503982 -0.23607373 -0.05998084 0.24659713 0.23271552 -0.25342703 -0.08344195 0.056650627
-0.09055418 0.43689466 -0.34621018 -0.1827696 0.02372681 0.059685413 -0.42796075 0.4037637

gru0.weight_hh_l1 f4 [60, 20]
00000000: 0df0 a2be 1462 ccbe f4e0 6d3d 21b6 d3be
00000010: a4c6 6f3e aabd 2cbf c185 f13d 9664 92be
00000020: 82f3 1c3f 5c9e 353e 9487 afbe e073 713e
00000030: 69f0 b0be 9af3 c6be 75bd 8d3e 779d dcbd
00000040: 6dc4 873e b0b4 22be 748f 82be da74 62be
00000050: 1c95 483f 9db2 c93e 747d fabe c82d c53d
00000060: b38b 473d 1121 183f 4fae 2a3f 58a9 3f3e
00000070: 7eb3 873e a1a1 2a3e fc57 38be 84cf fb3d
00000080: 73b1 8bbe 95c3 e1bd b9ab b8be ad61 393d
00000090: 158b 4d3d 4e1f 47bc eebd 1e3d 72c3 743e
000000a0: 4fe9 8ebd a8f7 713e 1805 453f 7c90 113e
000000b0: 0dab 9dbe b34b 83be 6192 ea3e 860b c3be
000000c0: b55f aebc 780c 3b3e 0333 b13e 7f30 973d
000000d0: 94ec 06bf eeb8 603e c66c 77be d0c0 b63c
000000e0: b5fd 48bd 5b1a c8be e153 de3e 3dbe 53be
000000f0: 0d6c 673e 5ab4 52be 41cc 34be 0e43 74be
00000100: ba42 233e b30f 633f 42f8 2d3c 2f81 133e
00000110: de1d f5be d2f3 b6bd 2510 ce3e 44e5 953b
00000120: 1991 e73e 171b 3e3f f017 113e 96c8 acbd
00000130: e1a5 0d3f e322 03be 3ccb f63d b099 5fbe
00000140: b1f0 813e 0a00 0ebf e0af db3e b2a3 7a3e
00000150: 2d05 90be 1134 c2be d8c8 8dbd 27ff a93e
00000160: cab1 12bf 0a39 3f3e fc3c e03d c1b9 63be
00000170: cd15 0b3e e4ff a33e 099b aebe 617d 0fbf
00000180: 0956 643f f8b8 133f 809b 673e 4b32 333e
00000190: 5d65 ebbe a733 b5be 94e1 b1be 003c 8e3d
000001a0: bf8d 2dbe c1ac c8be ed84 303e 0323 4dbe
000001b0: fffb 9d3e e893 253d 66ac c3bd 10f0 fa3e
000001c0: 4904 76bf ea81 b5be ade1 81bf 7f4c 40bf
000001d0: fbd4 e23e 2c2b 03bf caf1 c4be ab93 b23e
000001e0: 082c b13e 58db c93e 9867 dcbe 6511 36be
000001f0: 5093 97be e517 143f 9ecc 103d 641b f73e
00000200: b3b6 dc3d f2a3 5bbe 5686 b2be 1374 223e
00000210: bd6c 013e da6a bfbe 23d4 743d e764 843d
00000220: e38a 213e bed5 0abf 9ea1 38be 946a 0c3e
00000230: 05bd d2bd fc43 143e e7eb aabe a6ea 1d3d
00000240: 0a49 6bbe b9b3 883d 36b6 80be 0bc9 013f
00000250: cfa5 30bf 3cb4 3dbe 352e 4f3e 30ec 1cbe
00000260: 4460 193e e9a6 573f 868b 5f3e 880d 7bbe
00000270: e908 08be 757d 02bf e6c3 febe 340e 5c3c
00000280: 5e0b 053e c596 1b3e 31ad e0be 7f7c 8d3e
00000290: b8d3 163f a7a6 533e 54c2 acbe d74a 923f
000002a0: cc9d 56bd 5786 a8be f547 8cbe 8c19 4fbe
000002b0: eb18 363e 92e9 993e e089 083e 57f1 8e3d
000002c0: bbfe 84be c697 193f e4bf 86be 5a9a cf3d
000002d0: f703 e83e 2e70 2a3f f77f 603e b397 a33d
000002e0: 9b44 3fbe 8508 bd3e abc1 683e 9a27 883e
000002f0: cef1 33be b040 0e3e e18c 78bd de15 343e
00000300: 7867 ba3e 38ff 8c3c c0de b63d f9fa 073f
00000310: 272e a4be 8917 e8be a589 973e 8c62 04bf
00000320: 4bae 14bf dbdb bc3d 575e 073f 860b 7a3e
00000330: 4aa6 ce3e 51c3 523f 671d 8abe fb4c a9be
00000340: aaef f6be 45e1 efbe 08b2 4cbf de12 0dbf
00000350: 0512 213f a63c b93d 1d60 21bf 8b49 98be
00000360: b34f 3c3e ef81 543f 52e5 4b3e 6d48 5b3e
00000370: fc99 15bf 0e24 c73e 8c78 8dbe fbf4 5cbe
00000380: d423 bcbd 21b2 b3bd 9b43 ff3c 8139 65be
00000390: 621a 863e 5b69 23bc 6ada a2be 6d4f 4a3d
000003a0: f1d4 843d ef04 bebe 78fb f83d 6fc1 433e
000003b0: 95d5 743d e768 2abf 72f3 e1be f021 ca3d
000003c0: 843b aa3f 13ce 3d3d f491 20be cbda c83e
000003d0: 1ce1 72bc d4bc 143e d4a0 3dbe c692 303f
000003e0: bdb1 b3be 2f1f 2dbe 7ab0 0dbe b482 04bf
000003f0: 65e2 1e3e ecab d43d 9126 28be fa39 013e
-0.3182377 -0.39918578 0.05807586 -0.4134989 0.23415619 -0.67476904 0.1179309 -0.28592366
0.61309063 0.1773619 -0.34283125 0.23579359 -0.34558418 -0.38857728 0.27683607 -0.107722215
0.26517048 -0.1588924 -0.2550007 -0.22114888 0.7835252 0.39394084 -0.48923838 0.09627873
0.048717212 0.59425455 0.66672224 0.18716943 0.2650413 0.16663219 -0.18002313 0.1229544
-0.2728382 -0.110236324 -0.36068514 0.045259167 0.050181467 -0.01215346 0.03875535 0.23902681
-0.06978094 0.2362963 0.769609 0.14215273 -0.30794564 -0.2564369 0.45814803 -0.3809473
-0.021285871 0.18266475 0.3460923 0.07382297 -0.5270474 0.21945545 -0.24162588 0.022308737
-0.04907008 -0.39082608 0.4342337 -0.20678039 0.22599812 -0.20576611 -0.17656042 -0.23853704
0.15943423 0.8869583 0.010618271 0.14404748 -0.4787435 -0.08933224 0.40246692 0.0045744497
0.45227888 0.74260086 0.14169288 -0.08436696 0.55331236 -0.12806277 0.12050483 -0.21835971
0.25378945 -0.5546881 0.4290762 0.24476507 -0.2812895 -0.3793035 -0.069230735 0.33202478
-0.57302535 0.18674102 0.10949132 -0.22238828 0.13582535 0.32031167 -0.34102657 -0.5605069
0.8919378 0.57704115 0.22617912 0.17499654 -0.45975772 -0.3539097 -0.34742415 0.06945038
-0.16948603 -0.391943 0.17238207 -0.20032887 0.3085632 0.040424258 -0.09554367 0.49011278
-0.9610029 -0.3545068 -1.0146996 -0.75116724 0.44303116 -0.5123775 -0.3846572 0.34878287
0.34603906 0.39425159 -0.43047786 -0.17780073 -0.29604578 0.5784896 0.03535139 0.48263085
0.107770346 -0.21449259 -0.34868115 0.15864591 0.12639137 -0.3738621 0.05977262 0.06464558
0.15775637 -0.54232395 -0.18030402 0.13712531 -0.10289959 0.14479059 -0.33383104 0.038553856
-0.22977081 0.066749044 -0.25139016 0.5069739 -0.69003004 -0.18525785 0.2023247 -0.15324473
0.14978129 0.8423906 0.21830568 -0.2451688 -0.13284649 -0.5097268 -0.49758834 0.013431121
0.12992617 0.15194233 -0.43882135 0.27634045 0.5891681 0.20669042 -0.3374201 1.1429089
-0.05239658 -0.32914993 -0.2739865 -0.20224589 0.17782943 0.30061013 0.13333845 0.06979626
-0.25975594 0.5999721 -0.26318276 0.10136862 0.45315525 0.6657742 0.21923815 0.07987919
-0.18678515 0.36920562 0.22730128 0.26592714 -0.1757271 0.13891864 -0.060681228 0.17586467
0.36407065 0.017211542 0.08929205 0.5311733 -0.3206646 -0.45330456 0.29597202 -0.5171287
-0.5807845 0.092216216 0.52878326 0.24418458 0.40361243 0.8232928 -0.26975557 -0.33066544
-0.48229724 -0.46851555 -0.79959154 -0.55106914 0.6291812 0.09044771 -0.6303728 -0.2974361
0.18389778 0.8301076 0.19911698 0.21414347 -0.58438087 0.38894695 -0.27631032 -0.21577828
-0.09186521 -0.0877421 0.031160166 -0.22385217 0.26192003 -0.009973849 -0.31807262 0.049392153
0.06485928 -0.3711314 0.12157339 0.19116758 0.059774 -0.6656632 -0.44131047 0.09869754
1.3299413 0.046339106 -0.15680677 0.39229426 -0.014824178 0.14525157 -0.18518382 0.6897396
-0.3509654 -0.16906427 -0.13836852 -0.5176194 0.1551605 0.10384354 -0.16420962 0.12619773

gru0.bias_ih_l1 f4 [60]
00000000: 6250 4ebd d312 3cbd f928 b7bd 375a bcbd
00000010: b5d6 6dbe 7d68 e4bd 5d40 ac3c bb9a c23e
00000020: 8ced eebd 9886 b83e ec8a f53e 1c8f 8f3e
00000030: 72e1 6abe db4c 233e ed31 ab3d b1be 953e
00000040: 6f49 adbd ff9b a63c 8ff5 aabc 6530 7dbe
00000050: 4ebe 73bd 8ca2 c1bd f115 16bd 1947 1c3d
00000060: 6706 8cbe e8dd 2dbe 8da7 9bbe 2eb1 f33e
00000070: bcf5 413e a2a8 c33d a484 5bbf b9ec 44bb
00000080: 6af8 8f3e be97 e5be 8442 6c3e 78b6 1abe
00000090: b305 15bf 37f9 d7bd 5afe 41be 7f3f 8dbe
000000a0: d1c0 263e 7027 a13d 29cb c8bd 5e38 173d
000000b0: 37bd 133e 57ba c23d b4a9 2cbe 38b4 16be
000000c0: 3778 84bd c93f 333d a07f 9f3d 9bc5 d4bd
000000d0: baad c7bd b520 d33d bb5b b03d 4160 1d3e
000000e0: 63f9 a5be f22a dbbd 5a5c 413e 2bd5 b63d
-0.050369628 -0.04591639 -0.08943362 -0.091968946 -0.23226435 -0.11152742 0.021026785 0.38008675
-0.11666402 0.36040187 0.4795755 0.2803887 -0.22937563 0.15947287 0.08359132 0.29247048
-0.08461272 0.020338057 -0.020869045 -0.24725492 -0.05950766 -0.094548315 -0.03664202 0.03815374
-0.27348635 -0.16979182 -0.3040127 0.47596115 0.18941396 0.095536485 -0.8574927 -0.0030048324
0.28119212 -0.44842333 0.23072249 -0.15108669 -0.5821182 -0.10545581 -0.18944684 -0.27587506
0.16284491 0.0786885 -0.09804375 0.03691899 0.14427648 0.09508198 -0.16861612 -0.14717185
-0.06468242 0.043762002 0.077880144 -0.10389253 -0.097499326 0.10308973 0.08611246 0.15368749
-0.3241683 -0.107015505 0.18882886 0.08927377

gru0.bias_hh_l1 f4 [60]
00000000: b7e6 aabe 6c63 de3c 445f 093e e792 00be
00000010: f98f 84be fc78 39bd 89ce 87bd 3fd1 5c3e
00000020: ae0f 4f3d 0578 183e 2f55 163e ecc1 a3bd
00000030: 81f0 e33d f764 f13d 3aa6 e33e 80b8 9bbc
00000040: d628 9f3e a118 063e 6f26 843e bbdd 00be
00000050: d9b0 edbe 7f19 54be 5de6 12bd 7edf a03e
00000060: 041e cabe 89dc 3abe abe9 62be 378d 9e3e
00000070: b271 813e f96e 3dbe 0e7f 3dbf 6aca 1e3e
00000080: 2006 303e b1c9 87be 0b7c 963e 389c 6abe
00000090: 0025 3abf 5b0e 01bf c85e a03d 63c8 00bf
000000a0: 4590 48bd 7082 2ebe 337a 9e3e 060a d7bd
000000b0: ab55 a6bb 6b85 8c3e 1a8b 803d 31ef a3bc
000000c0: ea2b 1fbe 9572 523e 9b42 02be d738 2ebe
000000d0: a0db 133d f678 5f3e feb9 883e f259 e5bd
000000e0: 35f1 103e 40c4 3bbe 68bf bd3e 769e bbbd
-0.33379146 0.027147017 0.13415247 -0.12556039 -0.25891092 -0.045281395 -0.0663119 0.21564196
0.050552063 0.14889534 0.14680932 -0.07995972 0.11129857 0.11786836 0.44462758 -0.019008875
0.31085843 0.13095333 0.25810573 -0.12584583 -0.46423987 -0.20712851 -0.035864223 0.3142051
-0.39476025 -0.1824819 -0.2215945 0.30967113 0.25282055 -0.18499364 -0.74021995 0.15506902
0.17189837 -0.26521066 0.29391512 -0.22911155 -0.7271271 -0.5041253 0.07830578 -0.50305766
-0.04896571 -0.17041945 0.30952606 -0.10499959 -0.0050761304 0.2744554 0.062765315 -0.020011516
-0.15544096 0.20551522 -0.1272072 -0.1701387 0.036098123 0.21823487 0.267044 -0.11198796
0.14154513 -0.18336582 0.37060094 -0.091610834

gru1.weight_ih_l0 f4 [30, 20]
00000000: 64b9 36bf 2636 a2bd 740c 89bc b9b2 163f
00000010: acd9 893e 0009 8ebe 0b3b 8a3d 61f2 9d3e
00000020: aaa2 af3d 3204 b2be 6f68 8ebe 553f 0d3f
00000030: a066 63bd 516d 1cbe 39be 323f 479d 8fbe
00000040: e2cb be3e 0376 043f eed9 98be d28b b43e
00000050: c3ef 713f c796 593e a02e 42bf fcf7 96be
00000060: 8e05 433f 9dcf bdbe 1b19 883d 09a3 aebe
00000070: b0e1 b43e 65bf d3be 7f7a ae3d d31d 19be
00000080: 643c 2d3d 2d92 a2bd 244f c1bc 6b90 e33c
00000090: 7e59 49be c290 11be 4ae1 cebe bc08 75bd
000000a0: 51d7 d13e 448b 453e 0a29 063e b80c 58be
000000b0: 6dc2 943e 1141 8bbe 9e80 963e f709 ff3e
000000c0: bda1 203e d6af 103d c7e1 5dbe aae6 c7be
000000d0: cfa0 72bf 4c5b eabe 344f 9abf 89ed 03bf
000000e0: 342f 2d3e 86c3 cabe 6c4a 41bf 7c64 f23e
000000f0: 926a c73d 7b2b 373f 8e24 583e 34b3 a03c
00000100: 3a5a 98be f6a6 7ebc 1b4f 323e 3ffb 0c3f
00000110: 2178 1dbf c0da c5be a180 833e f7e8 d6be
00000120: e879 d53e 6738 143d 8dbf babd 50b8 f2be
00000130: 06b0 76bf b4a5 2b3e 1f1a f33d 4a47 903d
00000140: 08bb a23e f024 1f3e 5628 f5bd 765c 75be
00000150: 12e8 993e 96c8 273f d832 44be 3226 08bf
00000160: 6e69 013f 4b8e fdbe 3194 3fbf ebe4 993e
00000170: a423 fc3d f249 22bf 7daf 6c3e aac1 413e
00000180: a8c2 053e a752 28bf 9ae4 533e bb45 1ebe
00000190: 98ba 243f 5b22 3d3d 03b6 a5be 4cac c93e
000001a0: 4ea9 a8be e214 0d3f 9e42 2ebe be8d ac3e
000001b0: ea01 52be 2c8e 78be 57d3 27be 946f 0bbf
000001c0: f475 edbd a34c 853d 8546 e8be f766 02bf
000001d0: 7367 24bc 6fb2 fcbe 3094 fb3c e1e8 283f
000001e0: 2f95 683f 2392 46be ad2e 18be e57c 2dbf
000001f0: c55c 1f3f eb78 03bf 3246 d8be 94f4 53bd
00000200: 76a3 913e 0e76 173e eff7 a8be 70a2 343e
00000210: 45aa 52bf f744 b3be 63fd 9f3e 89cd d23e
00000220: 40f3 3abe 5d6c 96bd f4fe 56be 482c 80bf
00000230: d81a 1d3f 91c4 02be d58b 0fbe 5ecd fc3d
00000240: d7f1 833e 3347 753f 0fbc 2fbd 4310 0bbf
00000250: ee8e b73d b634 95be e573 0dbf 67be 99be
00000260: e251 163f 06c3 eb3e 30a3 1bbf b48b 143f
00000270: fbea 3b3e 5da6 f1be fbe7 ddbd 50fc c43c
00000280: 7cdb 2fbe 7761 35be d7f2 a03e 57c6 4d3f
00000290: 9117 28bf 1300 983e 0627 023f 8d49 b8be
000002a0: 634b f83e 3d50 ec3e a77e 09be af7f 3dbe
000002b0: ced9 2bbe a12f 02bc 395a bcbe bb63 54bf
000002c0: b2ed b83d 89ff c2bd f565 583e 6598 883f
000002d0: dce5 44be 2156 273d f7f0 e63e c369 edbc
000002e0: ac61 133f 9a7c 573f 78bd 923d 8b21 95be
000002f0: b2b2 5abf 6a0d 043d 68ce 32bf fb0a d3bd
00000300: 11cf 923f c031 debc 2868 aa3e 7ac1 7ebd
00000310: 28d9 4c3e 780f 7fbe 4b33 083f bfe3 46bc
00000320: cc1a 513e d7ea b13e 2d95 14bf b67c c93d
00000330: a6eb 2f3f f7b8 a0bf 36d5 00be 8421 823e
00000340: 249c 53bd b413 8dbe 955f 263e 95e6 923e
00000350: 9221 143f 7b5d aa3d 319a 673e 3a7e 0cbf
00000360: a2ae 4cbe ed3d 383f f8e2 b6bd ef2f 15be
00000370: 2492 e93d aff0 50bf 8506 38bf d47d 60bf
00000380: 08dd 1ebf 3d81 43bf 63f8 2cbf 4a65 5cbf
00000390: f739 d4be 64d9 a23e f855 003f 2941 383d
000003a0: c515 a2bd 0b60 073e 7803 683d 7d10 393f
000003b0: 921c 683e 4375 073e b8e8 f1bd 0c0f c93d
000003c0: 3fb4 a43e efe1 93be ae69 4dbf 068d d0be
000003d0: f1d4 323f 183f a6bd 589f 91be e8c6 883e
000003e0: 82ba 463e 0fd1 03bf 91cc cbbe a9a3 36bf
000003f0: b36b 0a3f b4bd 8cbe 1379 2dbf 689c fd3b
-0.71376634 -0.07920484 -0.01672957 0.5886646 0.26923883 -0.2774124 0.06749543 0.30848983
0.085759476 -0.34768826 -0.27814052 0.5517476 -0.055517793 -0.15276076 0.69821507 -0.2804968
0.37264925 0.5174257 -0.29853767 0.35262924 0.9450647 0.21248923 -0.75852394 -0.29486072
0.7618035 -0.3707246 0.066454135 -0.3410876 0.35328436 -0.4135696 0.08519458 -0.14952783
0.04229392 -0.07938037 -0.023597308 0.027778825 -0.19663045 -0.14215377 -0.40406257 -0.059822783
0.40984586 0.19291407 0.13101593 -0.21098602 0.29054585 -0.2719808 0.29395002 0.4981229
0.15686698 0.03532394 -0.21668158 -0.3904317 -0.94776624 -0.4577278 -1.2055421 -0.51534325
0.16912538 -0.39602298 -0.75504184 0.47342288 0.097371235 0.7155072 0.21107695 0.0196167
-0.29756337 -0.015542736 0.17412989 0.5507087 -0.6151143 -0.38643456 0.25684074 -0.41974613
0.4169457 0.036186602 -0.09118567 -0.47406244 -0.9636234 0.1676243 0.118702166 0.07044847
0.3178332 0.15541434 -0.11970584 -0.23961052 0.30059868 0.65540445 -0.1916002 -0.5318328
0.505515 -0.49522623 -0.748355 0.30057463 0.123114854 -0.6339408 0.23113818 0.18921533
0.13062537 -0.6575112 0.20692673 -0.15456288 0.6434722 0.046175342 -0.32365426 0.39389265
-0.3294167 0.5510999 -0.170176 0.3370189 -0.20508543 -0.24272984 -0.16389214 -0.5446713
-0.115947634 0.06508758 -0.45366302 -0.5093836 -0.01003443 -0.49354884 0.03071031 0.65980345
0.90852636 -0.19391684 -0.14861555 -0.677687 0.6225093 -0.5135638 -0.42241055 -0.05174692
0.28445023 0.14791128 -0.33001658 0.1764009 -0.8229106 -0.35013554 0.31248006 0.41172436
-0.18256855 -0.073448874 -0.20995694 -1.0013514 0.61369085 -0.12770297 -0.14018185 0.12343858
0.25770447 0.95811766 -0.042903956 -0.5432169 0.089628085 -0.29141778 -0.55254966 -0.30028078
0.58718693 0.4604723 -0.6079588 0.5802567 0.18351357 -0.47197238 -0.108352624 0.024046093
-0.1717357 -0.17712961 0.31435272 0.8038077 -0.6566096 0.29687557 0.50840795 -0.35993615
0.48495016 0.46154967 -0.1342722 -0.18505739 -0.16782305 -0.007945926 -0.36787584 -0.82964677
0.09029712 -0.09521396 0.21132644 1.0671507 -0.1922831 0.040853623 0.45105717 -0.028981095
0.5757091 0.841745 0.071650445 -0.29127154 -0.8542892 0.032239355 -0.698462 -0.10304829
1.1469442 -0.027123332 0.3328259 -0.062196232 0.20004714 -0.24908245 0.53203267 -0.01213926
0.20420378 0.3474948 -0.58040124 0.0983824 0.68718946 -1.2556447 -0.12581334 0.25416195
-0.05166258 -0.27554095 0.16247399 0.28691545 0.57863724 0.08318611 0.22617413 -0.54880106
-0.19988492 0.7196949 -0.089300096 -0.14569066 0.11404827 -0.81617254 -0.7188495 -0.87692
-0.62056017 -0.76369077 -0.6756651 -0.86092055 -0.41450474 0.3180648 0.5013118 0.044984017
-0.079143085 0.13220231 0.056643933 0.72290784 0.22667149 0.13228326 -0.11811966 0.09817323
0.32168767 -0.2888331 -0.8023938 -0.40732592 0.6985617 -0.08117503 -0.28441882 0.26714253
0.19407085 -0.51490873 -0.3980451 -0.71343476 0.54070586 -0.27488482 -0.6776287 0.0077395923

gru1.weight_hh_l0 f4 [30, 10]
00000000: 408f 7fbf 92ec 62be 8520 883f d144 d0bd
00000010: 92ff 26be 393e 7dbf e548 b9be 93e2 20bf
00000020: 767f 88bf 8cfc 023f 42e5 d5be 027c 16bf
00000030: 28a8 823e e516 24bf ddd1 353d 20da 54be
00000040: c91d f8be e576 723e 8660 b6be dc52 2f3f
00000050: b511 1ebd 034b 01c0 2c46 873e 9999 24be
00000060: 5092 d0ba f2e8 0cbc 69f0 40be 78bf 8c3e
00000070: 6b1a 87be d342 e1be 9a56 70bf 65f0 9e3c
00000080: 2ac6 433e 1b03 3abc f299 213f c296 8cbe
00000090: 3263 b0be b491 603e fcd8 dfbc 3fa5 af3b
000000a0: 5e4a 9c3f 91e1 6fbe 0102 763e 6a48 aebf
000000b0: 4065 373e 28bd 88bc 1dd7 d9be 290d 5abe
000000c0: e33d 4dbf 5e44 1bbf 075c babe 6615 16ba
000000d0: 3d7d 69bf dcf6 b63e e5dd c5be ddd8 c73d
000000e0: 95a7 923e e43d 203f 103f 153c 4871 3e3e
000000f0: a41a c03e 55d1 41bf a3e2 7a3e b33d 6bbb
00000100: 434d 77bf 2af8 04be 3551 b63e 0177 ab3e
00000110: 6ea9 94bf c1de acbd 48d7 563f 4f38 853e
00000120: 81cf 833f dcfa abbf 1fcb 893e 1fb9 21be
00000130: d01f e83d 0296 bebe 04db ec3d 43c6 b2be
00000140: 2a1b e8bf 4539 60bf 5720 343e a394 86be
00000150: 9075 543f 48be 66bd 3a36 fb3e da03 d53e
00000160: 762f e43f 709b edbe 8401 613f 412d 683e
00000170: e846 be3e 6f58 913e 6d15 9ebe 3716 b5be
00000180: e9c3 763c b613 473e c545 633f 2e19 623f
00000190: e10a 29be 940f dc3e 6ce2 aa3e 53c4 70bf
000001a0: b65f 4d3f a1a5 25be 7cce cf3e 9649 ff3e
000001b0: 4396 2abf cbde 043e 2716 3e3f 2b60 0abe
000001c0: 4860 6bbc 0e7a 8f3e 777d 17bf 14ec 2c3f
000001d0: 9c70 00bf 8253 b0be 91f0 b83e acd7 8dbe
000001e0: d104 5c3e a2bb 17be f922 cdbe 2965 57be
000001f0: e251 fbbe 664d bb3d 47f8 7b3e fae9 b73c
00000200: e7c7 c0bd e21e 203e 62be 163e 4bde 9abe
00000210: 5977 4ebd 1aeb 22bf 0b51 fabe 2d13 b93e
00000220: 6741 f6be 54b4 eebe 5a9f afbb ed22 2a3e
00000230: 4324 eabc c26c 243d 9927 42be d455 cdbd
00000240: 766a 26bf c9ef 0b3f ba81 103e d0b5 373e
00000250: 390e bdbe 37f3 dcbe 96f2 91be bebd ddbe
00000260: 5166 1bbf 2cdc 043e a526 26bf abc8 01bf
00000270: 0db8 693e 29f5 a13e 0345 8ebd 12bd 2ebd
00000280: 14fd f43e 958e 863e 26dd a43e 1e8f 81bf
00000290: 8294 243f 1382 7d3c 1c2f 85bf 76d2 66be
000002a0: add3 a63e 07b1 253f 717a 133e 37cf a63e
000002b0: d783 a03d 9b77 943f 9019 dfbe 6a01 0ebf
000002c0: c93e 4dbe e096 30bf 2794 423f be1d 573f
000002d0: dfa0 16bf d3cf abbd 0e79 233e 34d6 e3be
000002e0: 5c4c 0fbe 88dd 0cbf 3e94 d5bc 64c9 bbbe
000002f0: 48eb 8ebe e18e 113e cd43 93bd b745 2dbb
00000300: 880a cdbd 9c2a d3be 538f d5bd d36c a33d
00000310: 1761 44be bcad 413d ca42 883e bee8 02bf
00000320: 66b1 583f d8ca d7be a633 a73d 678e 003f
00000330: 4cf1 70bd 7d17 c03b 6d7a 203f dc52 3fbd
00000340: ce87 9b3e 2005 f5bd 8312 25bf 2cdd 023f
00000350: ead2 843f 0ceb 19be 5663 48be 7f97 6ebf
00000360: fbcc ca3d 98c0 52be a015 57bf 3057 613f
00000370: 3162 713e 9cab ae3c 47bc e83e 5c71 1bbf
00000380: a1f1 a13e 325e 8dbf d970 cabd 3332 adbe
00000390: a537 33be 6213 323d c880 cabe 90a2 373e
000003a0: 4193 86bf 6999 cc3e 760d 07bf ffc5 c53e
000003b0: 87cc 673f 76ea 1d3f 4b81 703e e9f9 4abe
000003c0: 187a d5be b63b 793f d3c0 a03f a258 63bf
000003d0: 5cf3 b1be c225 59be 184b 48bf e8e6 50bf
000003e0: a5ed 9ebd 7c43 3abe c0df 063e 0a11 f1bd
000003f0: 98cb 5fbf 34ad 313f 4177 5e3d c4a2 c7bd
-0.9982796 -0.22160557 1.0634924 -0.10169376 -0.1630843 -0.9892307 -0.36188427 -0.62845725
-1.0663898 0.51166606 -0.41776472 -0.5878297 0.25518918 -0.64097434 0.044389594 -0.20786333
-0.48460224 0.23678167 -0.35620517 0.6848581 -0.038591105 -2.0202034 0.26420724 -0.16074218
-0.0015912745 -0.00860046 -0.18841709 0.2748983 -0.26387343 -0.43996295 -0.93882143 0.019401738
0.19118562 -0.011353279 0.63125527 -0.2745877 -0.3445068 0.21930581 -0.027325146 0.005360275
1.2210195 -0.2342589 0.24024202 -1.3615849 0.17909718 -0.01669176 -0.4254693 -0.21294083
-0.80172557 -0.60651195 -0.36398336 -0.00057252345 -0.91206723 0.35735214 -0.38645855 0.0975816
0.2864348 0.6259444 0.009109274 0.18597901 0.37520325 -0.7571004 0.24500518 -0.003589493
-0.9660227 -0.12985292 0.3560883 0.3348923 -1.1614206 -0.084409244 0.83922243 0.26019523
1.02977 -1.3435931 0.26912782 -0.15793274 0.11334193 -0.37223822 0.115652114 -0.34916887
-1.813329 -0.87587386 0.17590462 -0.26285276 0.82991886 -0.05633381 0.4906481 0.416045
1.7826984 -0.46407652 0.8789294 0.22673513 0.37163472 0.28387782 -0.30875722 -0.3536851
0.015061357 0.19441113 0.88778335 0.8831967 -0.16508056 0.42980635 0.3337587 -0.94049567
0.8022417 -0.16176464 0.40587223 0.4986083 -0.6663553 0.12975614 0.7425255 -0.13513248
-0.014366217 0.28022808 -0.5917582 0.67547727 -0.5017183 -0.3443871 0.36121038 -0.27703607
0.21486212 -0.1481767 -0.40065745 -0.21034683 -0.4908591 0.09145622 0.24606429 0.022450436
-0.09413128 0.15636781 0.14721063 -0.3024772 -0.050406788 -0.63639987 -0.48889956 0.36147442
-0.48096773 -0.46621954 -0.0053595724 0.16614886 -0.028581744 0.040142782 -0.18960418 -0.10026136
-0.65006196 0.5466276 0.14111987 0.1794045 -0.36924914 -0.43154308 -0.2850539 -0.43308824
-0.60703 0.12974614 -0.64902717 -0.5069682 0.22824116 0.31632355 -0.06946757 -0.04266078
0.47849333 0.26280656 0.32199973 -1.0121801 0.64289105 0.015472907 -1.0405002 -0.22541222
0.3258337 0.6472325 0.14402176 0.32579967 0.078376465 1.1599001 -0.4357419 -0.5547091
-0.20043482 -0.68980217 0.7600731 0.8402976 -0.5883922 -0.08389249 0.15964147 -0.44499362
-0.13993973 -0.5502553 -0.026071664 -0.36677086 -0.2791388 0.1421466 -0.07190666 -0.0026439258
-0.10011774 -0.41243446 -0.104277276 0.07979741 -0.19177662 0.047284827 0.26613456 -0.51136386
0.8464569 -0.42146945 0.08164148 0.5021729 -0.05882387 0.005862175 0.62686807 -0.04670988
0.30377048 -0.11963868 -0.6448137 0.5111873 1.0376866 -0.1503107 -0.19569144 -0.93199915
0.09902378 -0.20581281 -0.8401737 0.8802366 0.23572613 0.021322064 0.45456144 -0.6071985
0.3162966 -1.1044371 -0.09884805 -0.3382736 -0.17501695 0.043475516 -0.39551377 0.17933106
-1.0513688 0.39960793 -0.52754915 0.38627622 0.9054646 0.61685884 0.23486821 -0.19821896
-0.41694713 0.97356737 1.2558845 -0.8880712 -0.3475598 -0.2120581 -0.78239584 -0.81602335
-0.07760171 -0.18189806 0.13171291 -0.11770828 -0.87420034 0.6940491 0.05431295 -0.09747842

gru1.bias_ih_l0 f4 [30]
00000000: 02c9 4ebb 0f7f 923e 87f4 96bd 89c0 23be
00000010: 3c2e f33e 50bb d03e 4626 1a3d 40ea ff3e
00000020: 7aee 693e 7678 4d3e 275a 50bf 406e 3cbf
00000030: 86c9 45bf 03bd a4bf 5488 06bf 9b45 86bf
00000040: 9e97 1fbf 8395 c5bd 5dc7 77bf 87c0 4dbf
00000050: 6cc8 9c3c 282b 6e3a ccf3 a93e 2934 233d
00000060: 5d1e 8f3e 1e38 c3bd df37 a33e ba82 863e
00000070: c89d c6bd 8feb f9bc
-0.0031552915 0.28612563 -0.07370859 -0.15991415 0.47496212 0.40767908 0.037634157 0.49983406
0.22844878 0.20065483 -0.8138756 -0.7360573 -0.77260625 -1.2870182 -0.5255177 -1.0489992
-0.62340724 -0.09647658 -0.9678858 -0.803719 0.019138537 0.000908541 0.33193815 0.039844666
0.27952853 -0.09532188 0.31878564 0.2627161 -0.09698063 -0.03050783

gru1.bias_hh_l0 f4 [30]
00000000: 5353 243e c943 ac3e 7742 5abe c857 28bc
00000010: 60d6 df3e 520a f03d 3f5e 903e fc78 513e
00000020: ab0b 1e3e 2c90 543e d63a 88bf 7034 3abf
00000030: d3a6 1bbf 30a5 87bf 6fd1 6dbf 4cab 32bf
00000040: 3d4b 2ebe d355 e1be f5f4 8bbf 7412 3ebf
00000050: e555 5f3e b541 763e 1b6d debd 3974 c7be
00000060: dae9 963d c2b2 92bc 6ad6 26be ee1a a23e
00000070: a261 fdbe b695 94bc
0.1604741 0.33645466 -0.21314417 -0.010274835 0.43718243 0.117207184 0.28196904 0.20456308
0.15434138 0.20758122 -1.0642955 -0.72736263 -0.6080143 -1.0597286 -0.92897695 -0.6979263
-0.17020889 -0.4401079 -1.093413 -0.7424691 0.2181011 0.24048503 -0.10860654 -0.38955858
0.073688224 -0.017907504 -0.1629273 0.3166117 -0.4948855 -0.018137794

lin0.weight f4 [15, 10]
00000000: 0c73 9b3f 056a 8c3f b878 eabf 07ef c7bf
00000010: 2033 bf3f fc8a 993f 85b3 ef3f 39d0 7cbf
00000020: b6e9 aa3f 0ff2 8fbf 86b4 c13f e00d 14c0
00000030: 78b0 ddbf d40f d8bf 4fb9 d1bf fafc 8c3f
00000040: 4c86 ef3f 0fda 0240 ded0 02c0 e523 a2bf
00000050: c0bb a8bf c485 493f 2d76 b03f e851 d2bf
00000060: 8ec0 b23f 428b cebf 63e5 47bf 69dd 8dbf
00000070: 46a2 babf 9c94 85bf 6613 a8bf e415 13c0
00000080: 3a32 bb3f 22f7 cebf 3d32 b53f a9b4 ccbf
00000090: cc01 7dbf 8a7d 6cbf 22a6 07c0 5cdb 8fbf
000000a0: 4db6 b93f 6a48 983f f5a8 ae3f c649 d9bf
000000b0: 31ca a93f ed3f d0bf 3912 f13f 8de1 0740
000000c0: aa5e ffbf 74a1 f03f 9fb1 d43f d158 983f
000000d0: c052 b83f b15c 803f 74b9 f3bf 9b4a d2bf
000000e0: 8060 ed3f 7995 0240 e514 02c0 a801 e83f
000000f0: 2dc9 a2bf cfa4 953f c521 ddbf 1660 7a3f
00000100: 02f3 b83f 4d1e 8d3f 200e dd3f d384 0140
00000110: c716 a63f 8e1b d33f 8dc7 9abf 7a4a 8d3f
00000120: 65c1 e3bf 5535 693f ee9d b73f 0b11 903f
00000130: e180 ed3f 4bb6 f13f d483 e6bf d1c4 89bf
00000140: 19f2 afbf 57d6 8e3f c893 bb3f 40cc 7d3f
00000150: a706 f6bf ba8c d1bf 4ba1 7ebf 28e1 873f
00000160: a5c2 c23f f000 e33f fdad abbf fa2b 983f
00000170: 40fa b73f c293 cdbf a44c ac3f 4890 cdbf
00000180: 8de9 dfbe 3fa1 53bf f653 bb3f 8583 e13f
00000190: f702 bd3f a413 8c3f 3c99 8f3f dacb 8f3f
000001a0: e4fb 7b3f 344e 8a3f 8efe 3fbf 6a5c 78bf
000001b0: 957c c03f fd97 99bf a453 a6bf 4fba 0dc0
000001c0: 7d3b d8bf 8edf 833f 489b f7bf d4fc 7e3f
000001d0: de42 80bf 46ce 44bf 7600 fabf eaf8 b93f
000001e0: 5234 bb3f 2e59 7f3f e555 5ebf d578 8d3f
000001f0: 26c3 b1bf fc16 953f ae02 06bf 68da 69bf
00000200: 925e b63f 93a6 99bf a8dc a53f 43e3 05c0
00000210: b901 dbbf 826e 8a3f e152 01c0 2d8d 823f
00000220: 40ea 87bf 7911 67bf 67bd 2fbf c6a2 50bf
00000230: a855 c33f b821 11c0 ad1a bd3f 551f 8e3f
00000240: a6c6 e5bf 978f c8bf 864b 91bf 1d22 5ebf
00000250: 5e24 ac3f aa42 97bf
1.2144485 1.0969855 -1.831809 -1.561982 1.4937477 1.199554 1.872666 -0.9875522
1.3352573 -1.1245745 1.5133216 -2.3133469 -1.7319479 -1.687983 -1.6384677 1.1014702
1.8712859 2.0445592 -2.0439982 -1.2667204 -1.3182297 0.78719735 1.3786064 -1.6431246
1.3965013 -1.6136248 -0.7808439 -1.1083194 -1.4580772 -1.0435977 -1.313092 -2.298211
1.4624703 -1.6169169 1.4155957 -1.5992633 -0.98830867 -0.9237906 -2.119515 -1.1238818
1.4508759 1.1897099 1.3645312 -1.6975639 1.3264829 -1.6269509 1.8833686 2.1231415
-1.9950764 1.8799272 1.6616706 1.1902105 1.4400253 1.0028287 -1.9040971 -1.6429018
1.8545074 2.040373 -2.0325253 1.8125505 -1.2717644 1.169092 -1.7275931 0.97802866
1.444916 1.1024872 1.7269936 2.023732 1.2975701 1.6492784 -1.2092148 1.1038353
-1.7793394 0.91097003 1.4345071 1.1255201 1.8554956 1.8883756 -1.8008981 -1.0763189
-1.3745757 1.1159161 1.4654474 0.99139786 -1.922078 -1.6371071 -0.99464864 1.0615587
1.5215651 1.7734661 -1.3412472 1.188842 1.4373245 -1.6060717 1.3460889 -1.6059656
-0.43732873 -0.82667917 1.4634998 1.7618262 1.476653 1.0943494 1.1218638 1.1234086
0.9843123 1.0805116 -0.74997795 -0.9701601 1.503802 -1.1999508 -1.2994275 -2.2144964
-1.6893154 1.0302598 -1.9344263 0.99604535 -1.0020406 -0.7687725 -1.9531391 1.4529088
1.4625342 0.9974545 -0.86849815 1.10525 -1.388768 1.1647639 -0.5234784 -0.91348886
1.424761 -1.200396 1.2957964 -2.091996 -1.7109901 1.0814974 -2.0206835 1.0199333
-1.0618362 -0.90261036 -0.6864838 -0.8149837 1.5260515 -2.267683 1.4773766 1.1103312
-1.7951248 -1.566882 -1.1351173 -0.867708 1.3448598 -1.1817219

lin0.bias f4 [15]
00000000: f7cb b1bd 128d fbbe 9139 673e 62e0 cabe
00000010: aeb1 debe dd10 25bf e1e6 27bd 7fc6 583d
00000020: d755 a2bc 6699 973d 6ced 563e fde0 003e
00000030: 6491 373f 660c 123f d023 a8be
-0.08681481 -0.49131066 0.22580554 -0.39624316 -0.43494934 -0.64478856 -0.040991668 0.052923676
-0.019816322 0.07402305 0.20989007 0.12585826 0.71706223 0.5705017 -0.32839823
