saved/pretrain_base_uci_20_120/limu_v1.pt (torch, 259775 bytes, 29 tensors)

transformer.embed.lin.weight f4 [72, 6]
-0.058298897 0.32526705 -0.62168944 -0.14888969 -0.36584598 -0.17045122 -0.5184451 0.21692984
-0.04094199 -0.01995858 0.295914 0.2943405 -0.51388186 0.46920386 0.01605642 0.037558272
-0.47415754 0.28343996 -0.28974134 0.2618537 0.4808388 -0.045270283 -0.409259 0.33533356
-0.18237016 0.17787524 0.63532484 0.1518861 0.41210592 0.17745928 -0.80465543 0.009648519
-0.14377074 0.1849483 -0.33810073 -0.07865435 -0.5019739 0.33128813 -0.5162715 0.26549074
0.19370879 0.019971535 0.77616847 0.15267992 -0.19349255 0.024691222 0.10910328 -0.054486685
0.048525326 0.044737928 0.07069748 -0.068295754 0.17257935 -0.26076373 0.61089456 -0.4080712
0.07232138 0.013232392 -0.33421636 0.35152954 0.43093643 -0.32833064 0.05451962 -0.11869271
-0.113518745 0.18288049 -0.29985565 -0.47242132 -0.37450293 0.06935123 -0.16677332 -0.0932735
0.206523 -0.47924826 0.14517482 0.21947011 -0.27137545 0.012860053 -0.16976324 0.258823
0.12531734 -0.34850487 -0.059286375 -0.23494008 0.6428182 0.36565137 0.26520425 0.36510995
-0.042705517 -0.18193659 -0.2820814 -0.4292137 0.04370618 -0.0601473 -0.18501104 -0.25995782
-0.24498433 0.5171486 -0.33298743 -0.14601198 0.10679785 -0.4197254 0.5362125 -0.43699622
-0.64667714 0.30861405 -0.316906 -0.29464042 -0.56148744 0.23937623 -0.044221647 -0.28053525
0.62149334 -0.22782202 -0.07862179 -0.18283023 0.2196005 0.11232104 -0.25327432 -0.10956224
0.13088705 0.32065782 -0.39310956 -0.25388268 0.13269807 -0.18953332 0.18065216 -0.3863804
0.072524615 0.1196932 -0.23730132 -0.6471663 0.19775532 -0.4708125 0.32069147 -0.010601948
0.23005442 -0.04768668 -0.31088933 -0.20530799 0.05160421 -0.29964435 0.16660725 0.34627566
-0.019813567 0.76052225 -0.6285171 0.072740786 -0.21755876 -0.053347945 -0.5607109 -0.42401195
0.08600877 0.012315171 0.080573946 0.28795272 0.09194102 0.5220387 0.42896155 -0.034462422
-0.5074789 0.32176 0.2635534 -0.26022872 0.18239865 -0.09503894 -0.120325625 0.025010549
0.5990575 0.24753447 0.20673776 0.0090711815 -0.27272713 -0.40579605 -0.76113963 -0.29174274
0.42417544 -0.0014477478 0.048926122 0.19455066 0.024924116 0.28527585 0.397576 -0.089141324
0.16485626 -0.14924377 -0.69056284 -0.2229483 0.65432686 0.038431894 -0.42530042 0.16579011
0.3343322 -0.11289257 0.093544774 -0.18027727 0.38119984 0.1118565 0.7267213 0.24375512
0.097560346 0.22279213 0.019415962 -0.27502918 0.1812918 -0.34996352 0.32275832 -0.22858125
0.13439733 0.2909548 0.24126638 -0.11931474 0.56583136 0.08382103 -0.28238985 -0.16404778
0.0049606543 -0.4287411 0.0029952214 0.29034847 0.12717345 0.16152106 0.25439465 -0.34994292
-0.14970173 -0.020943522 -0.038613867 0.26588342 0.06608047 0.5055311 0.54097855 -0.19791406
0.12110521 0.46562627 -0.5848848 -0.5946081 -0.20581041 0.21033219 -0.034136366 0.3471737
0.065571845 0.2658528 -0.2856607 -0.29869905 0.11071726 -0.29211497 -0.531496 0.38869688
0.33562487 -0.021475868 -0.07237234 -0.14810053 -0.19668117 0.20015587 0.26446018 0.08307047
00000000: d3ca 6ebd 6789 a63e 0a27 1fbf 8a76 18be
00000010: 2a50 bbbe c48a 2ebe d1b8 04bf db22 5e3e
00000020: cab2 27bd 2d80 a3bc 0a82 973e ccb3 963e
00000030: c38d 03bf 7d3b f03e c188 833c b4d6 193d
00000040: c7c4 f2be 0b1f 913e fa58 94be b011 863e
00000050: 8130 f63e 556d 39bd 658a d1be d7b0 ab3e
00000060: 3ebf 3abe ed24 363e a6a4 223f 0888 1b3e
00000070: 8cff d23e e3b7 353e e6fd 4dbf d214 1e3c
00000080: a338 13be 1663 3d3e 8a1b adbe 8815 a1bd
00000090: 5d81 00bf 999e a93e 5e2a 04bf 67ee 873e
000000a0: 995b 463e 589b a33c fab2 463f 2058 1c3e
000000b0: e922 46be 3f45 ca3c 8a71 df3d 6e2d 5fbd
000000c0: 7ec2 463d 1e3f 373d d7c9 903d a5de 8bbd
000000d0: a4b8 303e d382 85be 9663 1c3f b5ee d0be
000000e0: 3b1d 943d adcc 583c 681e abbe aefb b33e
000000f0: b3a3 dc3e f41a a8be f74f 5f3d 2a15 f3bd
00000100: 847c e8bd 0645 3b3e ae86 99be 35e1 f1be
00000110: d9be bfbe 0508 8e3d a0c6 2abe 2d06 bfbd
00000120: c47a 533e 0760 f5be b5a8 143e c6bc 603e
00000130: b9f1 8abe f9b2 523c 6ad6 2dbe 7384 843e
00000140: 3053 003e 3b6f b2be 45d6 72bd 2294 70be
00000150: bc8f 243f a836 bb3e dac8 873e b1ef ba3e
00000160: fbeb 2ebd 964d 3abe f96c 90be e6c1 dbbe
00000170: 4005 333d 045d 76bd 8973 3dbe 3119 85be
00000180: 2cdd 7abe da63 043f 547d aabe 2a84 15be
00000190: d5b8 da3d 3fe6 d6be 3945 093f f8bd dfbe
000001a0: a28c 25bf a902 9e3e 8141 a2be 1cdb 96be
000001b0: a4bd 0fbf 0b1f 753e c221 35bd 51a2 8fbe
000001c0: 301a 1f3f 2d4a 69be 7604 a1bd d937 3bbe
000001d0: f4de 603e 9308 e63d 2cad 81be 2b62 e0bd
000001e0: 4107 063e 432d a43e a845 c9be e9fc 81be
000001f0: 01e2 073e 0615 42be e1fc 383e a7d3 c5be
00000200: c987 943d b521 f53d 1eff 72be b1ac 25bf
00000210: 5f80 4a3e 560e f1be ac31 a43e cbb3 2dbc
00000220: 6393 6b3e 1c53 43bd e32c 9fbe 423c 52be
00000230: f05e 533d fc6a 99be 179b 2a3e 0b4b b13e
00000240: 1050 a2bc 96b1 423f 7fe6 20bf 1ff9 943d
00000250: b9c7 5ebe 6083 5abd c08a 0fbf 1818 d9be
00000260: 5e25 b03d 92c5 493c f403 a53d 8a6e 933e
00000270: 934b bc3d 54a4 053f d9a0 db3e 7828 0dbd
00000280: 23ea 01bf babd a43e 79f0 863e b33c 85be
00000290: b6c6 3a3e c7a3 c2bd 486d f6bd ece2 cc3c
000002a0: d55b 193f ad79 7d3e 10b3 533e 4b9f 143c
000002b0: e4a2 8bbe 80c4 cfbe 0cda 42bf 4e5f 95be
000002c0: 862d d93e 5bc2 bdba c266 483d 4a38 473e
000002d0: a92d cc3c ad0f 923e 158f cb3e ba8f b6bd
000002e0: 14d0 283e 5cd3 18be bac8 30bf 8f4c 64be
000002f0: f781 273f c36a 1d3d fac0 d9be e2c4 293e
00000300: 972d ab3e 3834 e7bd 6794 bf3d 9b9a 38be
00000310: a02c c33e 0515 e53d 680a 3a3f f19a 793e
00000320: b8cd c73d 9f23 643e 390e 9f3c a0d0 8cbe
00000330: 8fa4 393e 6b2e b3be 9440 a53e 3411 6abe
00000340: 749f 093e 07f8 943e 890e 773e 495b f4bd
00000350: 53da 103f 5caa ab3d 6795 90be 24fc 27be
00000360: fc8c a23b f483 dbbe 7a4b 443b 8ea8 943e
00000370: c239 023e c765 253e 0440 823e b82b b3be
00000380: 694b 19be c091 abbc 9329 1ebd df21 883e
00000390: 3355 873d 7c6a 013f 927d 0a3f fca9 4abe
000003a0: 0206 f83d 9166 ee3e 03bb 15bf 3d38 18bf
000003b0: f7bf 52be 5261 573e 93d2 0bbd c0c0 b13e
000003c0: 884a 863d dc1d 883e 1f42 92be 15ef 98be
000003d0: bbbf e23d 1890 95be 1f10 08bf 4703 c73e
000003e0: 06d7 ab3e 29ee afbc f337 94bd aaa7 17be
000003f0: ca66 49be a9f5 4c3e 5367 873e da20 aa3d

transformer.embed.lin.bias f4 [72]
-0.53884244 0.25106424 0.23139285 0.105885275 -0.08594757 -0.019737773 -0.4111677 -0.34922054
0.13036653 -0.22021009 0.3004395 0.23975232 0.24587466 0.2851785 0.3475108 0.17203268
-0.09285838 -0.27964622 0.0039841956 0.12064301 0.3652323 0.04744509 0.26257443 0.29646918
-0.4507789 -0.19533338 0.08999494 0.040403645 0.11895962 0.30045876 0.114132956 -0.38927212
-0.31028003 0.4037759 -0.20444036 -0.02628286 0.2699764 -0.17683381 -0.087294094 -0.23938946
0.046173114 0.118584685 0.054612722 0.07668101 -0.13185427 -0.039169148 0.12170925 -0.41979212
0.29501808 0.4266704 -0.50338084 0.32775927 -0.15089889 0.25095946 0.57043016 -0.015309571
0.07002247 0.043671317 0.37497142 0.3062281 0.08097462 -0.07149672 -0.11103936 -0.2563047
0.40352792 -0.23360942 0.13700104 0.37449363 0.06645795 -0.29491204 0.2591262 -0.33698505
00000000: 94f1 09bf 7e8b 803e 3ff2 6c3e 61da d83d
00000010: 4805 b0bd 1cb1 a1bc 9384 d2be 09cd b2be
00000020: ce7e 053e c17e 61be 35d3 993e a281 753e
00000030: 91c6 7b3e eb02 923e f0ec b13e 5629 303e
00000040: 892c bebd ca2d 8fbe db8d 823b af13 f73d
00000050: baff ba3e c855 423d 2870 863e cfca 973e
00000060: 7ecc e6be 7905 48be 444f b83d 4b7e 253d
00000070: 1aa1 f33d bbd5 993e 8abe e93d ad4e c7be
00000080: 06dd 9ebe b7bb ce3e d058 51be 274f d7bc
00000090: 593a 8a3e ec13 35be 3fc7 b2bd 8322 75be
000000a0: 0520 3d3d 87dc f23d 97b1 5f3d ef0a 9d3d
000000b0: ce04 07be d46f 20bd b342 f93d feee d6be
000000c0: 9c0c 973e 8b74 da3e 91dd 00bf 10d0 a73e
000000d0: 3d85 1abe c27d 803e b607 123f ffd4 7abc
000000e0: f167 8f3d b2e0 323d 41fc bf3e eec9 9c3e
000000f0: 06d6 a53d df6c 92bd 9b68 e3bd 5f3a 83be
00000100: 369b ce3e 4f37 6fbe 004a 0c3e a1bd bf3e
00000110: 1b1b 883d b6fe 96be 30ac 843e 4e89 acbe

transformer.embed.pos_embed.weight f4 [120, 72]
0.09707294 -1.467483 0.35313153 1.0870913 -0.04049917 1.1728451 0.89603657 1.6513535
-0.86473405 -0.42142975 -0.05296072 2.896925 0.6054069 1.2433602 0.29841024 -1.7417953
-0.25182864 0.14890042 0.7519429 0.5632784 1.2738075 -1.3950306 -1.8352356 -0.13623004
-1.0164261 0.108888686 -0.5895714 -0.109197415 -0.4140541 -2.0201507 0.34510037 -0.040106636
0.2884447 1.7734541 0.80394983 0.21763319 0.038508795 2.506377 -1.210801 0.5238738
0.2940624 0.81785446 -0.3760902 -0.012609162 0.30110037 -0.36923942 -0.29542717 -0.3116084
0.48271295 0.20703454 2.265932 0.53970057 -1.8609788 -0.9755918 0.4008453 -0.5855945
0.32426596 -0.34897825 -0.6849739 1.0061499 -0.89432484 -0.4303804 -0.2419385 1.1816266
-0.7074255 -0.40218642 1.4298247 0.69231045 -0.7707253 0.07077645 -0.2320143 1.3344382
-0.4170306 0.36475366 -0.035516307 -0.50389034 -0.09130689 1.2224367 1.2408545 2.7105033
-0.76100755 -2.8064885 -0.9443261 0.6568669 1.1830633 -0.10510207 1.3314633 -1.739282
0.320901 1.4636477 1.5208957 0.8325412 0.045575853 -0.035870582 1.395106 0.28741112
2.7009025 0.99128217 -0.63761234 0.2270729 -0.18424289 -1.616726 2.4424386 0.45513913
1.1844146 0.9938124 -1.2667217 -0.6451782 -0.10906801 -0.9693868 -0.34294862 1.9911078
1.4199456 -0.87478876 -1.5927664 -0.46474528 -0.8973619 0.55879074 -0.59826016 1.7741145
-0.89295495 2.0339558 0.5810005 0.31940153 -0.6324618 2.143805 -0.07734059 -0.6777964
1.6833726 0.47378522 0.9278842 0.015815027 -0.5548267 1.6237364 -1.7340971 0.89232844
-0.567226 0.51247555 0.44203365 0.2566154 0.92927885 -1.17913 -1.0031987 1.098893
0.5088671 -1.8238163 -2.3163333 0.8138874 1.7626046 1.313734 2.2525573 1.0969112
-0.72456247 -3.389898 0.94362605 0.912292 -2.3762174 0.70027316 0.45949495 0.25690365
2.7947853 1.2917925 -1.9022533 1.2309378 -0.6436664 0.70470345 -0.782228 1.6784158
0.25213632 1.5809814 0.053907413 -0.85929435 -0.3523386 -0.29215795 1.3187343 -1.1705759
-0.29791003 0.14595763 -0.84434545 -0.0065825754 1.1613952 0.93236846 -0.9027491 1.092413
0.19986498 1.3883051 -2.3586223 1.6375003 -0.46894738 -0.10530702 -0.3482175 2.3288147
-0.05327554 0.8599378 -1.0247867 -0.5062421 0.17045097 -2.0256293 -0.5653067 -0.7246547
1.7192539 -0.3536266 0.16362527 -0.18965323 0.61072284 0.08430816 -0.9750638 -2.3182242
-0.5884243 -0.085247874 2.6966712 0.1151061 0.51527154 0.4516813 -1.3397297 0.9080587
-0.987916 0.67177325 0.7028906 -0.85320103 0.832132 -0.39237538 1.1805617 -0.6852961
-0.999494 -1.3560225 -0.68066025 -2.2982874 -0.46211365 0.83983237 1.2833636 -0.7555561
0.61262083 1.4057456 1.0865341 0.6964246 2.057376 -0.693128 -1.1282803 2.4558363
-0.4615592 -0.8591312 -0.80369633 1.5165629 -0.95873195 -1.3918569 -0.6296221 2.0374448
1.8842117 1.3125353 -0.26476687 0.36124012 -1.9321085 1.8835388 0.32978344 1.3701899
00000000: 2dce c63d 7cd6 bbbf a8cd b43e cf25 8b3f
00000010: 75e2 25bd ca1f 963f a762 653f 8d5f d33f
00000020: 365f 5dbf a4c5 d7be 57ed 58bd 3867 3940
00000030: f2fb 1a3f 6d26 9f3f 3ac9 983e 26f3 debf
00000040: afef 80be 5a79 183e 547f 403f 0333 103f
00000050: 200c a33f 5d90 b2bf 00e9 eabf e37f 0bbe
00000060: 401a 82bf 0801 df3d 27ee 16bf e5a2 dfbd
00000070: e6fe d3be 264a 01c0 ffb0 b03e db46 24bd
00000080: 06af 933e 8b00 e33f a8cf 4d3f 3cdb 5e3e
00000090: 66bb 1d3d 7b68 2040 87fb 9abf 981c 063f
000000a0: 598f 963e e95e 513f e58e c0be a996 4ebc
000000b0: d429 9a3e f30c bdbe 3b42 97be 238b 9fbe
000000c0: 2726 f73e dd00 543e 0805 1140 d129 0a3f
000000d0: 8e34 eebf 62c0 79bf 983b cd3e 85e9 15bf
000000e0: 3006 a63e 47ad b2be 735a 2fbf 85c9 803f
000000f0: 79f2 64bf d25a dcbe babe 77be 8a3f 973f
00000100: d619 35bf 61eb cdbe 7f04 b73f 423b 313f
00000110: 414e 45bf 3ef3 903d 2895 6dbe dfce aa3f
00000120: 0985 d5be fec0 ba3e 8c79 11bd f5fe 00bf
00000130: 1bff babd ce78 9c3f 52d4 9e3f e378 2d40
00000140: 64d1 42bf 829d 33c0 5bbf 71bf 6e28 283f
00000150: 9e6e 973f c13f d7bd 646d aa3f cba0 debf
00000160: 234d a43e cf58 bb3f b6ac c23f 6c21 553f
00000170: bfad 3a3d 08ed 12bd d592 b23f 8d27 933e
00000180: 96db 2c40 abc4 7d3f 903a 23bf cc85 683e
00000190: 2baa 3cbe e1f0 cebf ea50 1c40 ff07 e93e
000001a0: e69a 973f 7d6a 7e3f f023 a2bf 662a 25bf
000001b0: 0c5f dfbd bc29 78bf f696 afbe 9fdc fe3f
000001c0: c7c0 b53f 28f2 5fbf c5df cbbf 18f3 edbe
000001d0: 82b9 65bf e90c 0f3f 9427 19bf 2f16 e33f
000001e0: b298 64bf 552c 0240 73bc 143f 9988 a33e
000001f0: 04e9 21bf 1a34 0940 be64 9ebd 1184 2dbf
00000200: c178 d73f fa93 f23e d289 6d3f 848e 813c
00000210: 1f09 0ebf 98d6 cf3f e5f6 ddbf a36f 643f
00000220: b935 11bf 9931 033f 3c52 e23e 1863 833e
00000230: 38e5 6d3f bbed 96bf d168 80bf 87a8 8c3f
00000240: 1d45 023f d072 e9bf ce3e 14c0 ed5a 503f
00000250: 079d e13f 7028 a83f e629 1040 9667 8c3f
00000260: ed7c 39bf 17f4 58c0 7a91 713f f88b 693f
00000270: f213 18c0 1a45 333f ec42 eb3e e088 833e
00000280: c3dd 3240 7559 a53f 097d f3bf 5f8f 9d3f
00000290: 52c7 24bf 7267 343f 1840 48bf 54d6 d63f
000002a0: 0318 813e 995d ca3f 05ce 5c3d b7fa 5bbf
000002b0: ba65 b4be ba95 95be 49cc a83f 6ed5 95bf
000002c0: aa87 98be eb75 153e 0627 58bf a5b2 d7bb
000002d0: 99a8 943f b3af 6e3f 911a 67bf 30d4 8b3f
000002e0: 68a9 4c3e fbb3 b13f abf3 16c0 9c99 d13f
000002f0: df19 f0be 35ab d7bd 9049 b2be 4d0b 1540
00000300: 7437 5abd e224 5c3f 362c 83bf 1599 01bf
00000310: b38a 2e3e e9a3 01c0 f1b7 10bf f882 39bf
00000320: 8310 dc3f 8c0e b5be 628d 273e 7534 42be
00000330: 5558 1c3f c2a9 ac3d c89d 79bf c95d 14c0
00000340: faa2 16bf 7096 aebd 4396 2c40 bfbc eb3d
00000350: d6e8 033f c542 e73e 437c abbf 8976 683f
00000360: 10e8 7cbf 55f9 2b3f a3f0 333f 626b 5abf
00000370: 9a06 553f 6de5 c8be a51c 973f 916f 2fbf
00000380: d7de 7fbf 2592 adbf c03f 2ebf 2417 13c0
00000390: 299a ecbe 41ff 563f 4245 a43f 206c 41bf
000003a0: b8d4 1c3f 79ef b33f 8d13 8b3f e248 323f
000003b0: 0cac 0340 d670 31bf 7d6b 90bf 6c2c 1d40
000003c0: 7d51 ecbe 06f0 5bbf 0bbf 4dbf bc1e c23f
000003d0: 756f 75bf 5e28 b2bf ea2e 21bf 7f65 0240
000003e0: d92d f13f 2801 a83f 868f 87be 77f4 b83e
000003f0: 554f f7bf cd17 f13f 60d9 a83e 6262 af3f

transformer.embed.norm.gamma f4 [72]
0.86840844 0.9122538 0.92852527 0.89209306 1.0721563 1.0100311 0.8949221 0.94830817
1.061494 0.97284013 0.994887 0.8780657 0.8678138 0.9798523 0.9375784 1.1319767
0.77639765 0.9975117 1.0106984 0.864296 1.0221874 1.0398794 1.0456315 0.9552852
0.89791983 0.82364553 0.9292301 0.80795 0.932348 0.9062284 0.96920025 0.99156433
0.9249963 0.8945449 1.036194 1.0706897 0.9648728 0.99612755 1.1418644 0.9522884
1.0541662 0.8132785 0.956349 1.0929664 1.051463 1.0064099 1.0850439 0.8050923
1.0345757 0.83751935 0.8062427 0.82055897 0.8845153 0.9240327 0.79665345 0.93498147
0.8626186 0.911336 0.97147036 0.9313388 0.98137635 1.1135218 0.8530722 0.90669614
0.93157643 0.95209694 1.0524911 0.9811762 1.0320874 0.9103529 0.88546187 0.8031533
00000000: 0450 5e3f 7789 693f d5b3 6d3f 3660 643f
00000010: 6b3c 893f b348 813f 9d19 653f 53c4 723f
00000020: 09df 873f 0d0c 793f eab0 7e3f eac8 603f
00000030: 0c29 5e3f 9ad7 7a3f 2305 703f 9de4 903f
00000040: ffc1 463f ed5c 7f3f 915e 813f 8142 5d3f
00000050: 09d7 823f c51a 853f 41d7 853f 928d 743f
00000060: 13de 653f 6fda 523f 06e2 6d3f d0d5 4e3f
00000070: 5cae 6e3f 96fe 673f 821d 783f 29d7 7d3f
00000080: 8fcc 6c3f e500 653f 01a2 843f 5c0c 893f
00000090: e701 773f 3702 7f3f 9d28 923f 2cc9 733f
000000a0: ebee 863f 0533 503f 4ad3 743f 53e6 8b3f
000000b0: 5796 863f 0ad2 803f b8e2 8a3f 871a 4e3f
000000c0: fa6c 843f ab67 563f ec65 4e3f 2710 523f
000000d0: 986f 623f 688d 6c3f 7bf1 4b3f f25a 6f3f
000000e0: 93d4 5c3f 514d 693f 48b2 783f 386c 6e3f
000000f0: 7b3b 7b3f e287 8e3f f162 5a3f 3d1d 683f
00000100: cb7b 6e3f a0bc 733f 07b8 863f 5d2e 7b3f
00000110: 711b 843f e30c 693f a1ad 623f 749b 4d3f

transformer.embed.norm.beta f4 [72]
0.34748438 -0.20396446 -0.11233464 -0.044594843 0.055804014 0.014887712 0.19617465 0.20662692
-0.023105495 0.18137453 -0.14101559 -0.16126205 -0.23538391 -0.10958598 -0.1525471 -0.10118678
0.06689755 0.21438383 -0.0022376888 -0.029533178 -0.10987551 -0.095416665 -0.22508515 -0.16333625
0.26107624 0.13935211 -0.07195709 -0.032262616 -0.08741231 -0.2084736 -0.13252725 0.26406008
0.21538086 -0.2757761 0.13979082 0.0839956 -0.16159137 0.14008625 -0.00022303636 0.12169704
0.00932862 -0.038756885 0.04899642 0.011183422 0.08750992 0.03555951 0.016416963 0.2659767
-0.17079803 -0.16874674 0.37227383 -0.2000199 0.18529458 -0.13998921 -0.30958316 -0.009819972
-0.04509799 0.13059917 -0.11698111 -0.14181197 -0.050096214 0.00814444 0.08617856 0.22906119
-0.17733756 0.084527 -0.058664743 -0.15978159 -0.015322707 0.22359397 -0.10406253 0.23594338
00000000: 79e9 b13e 0fdc 50be b40f e6bd 15a9 36bd
00000010: c092 643d 97eb 733c 02e2 483e 0296 533e
00000020: bc47 bdbc 3fba 393e 6466 10be e121 25be
00000030: 7b08 71be 9d6e e0bd 4f35 1cbe 043b cfbd
00000040: 9501 893d 6f87 5b3e 30a6 12bb 90ef f1bc
00000050: 6906 e1bd d069 c3bd b97c 66be 9e41 27be
00000060: c9ab 853e 52b2 0e3e 3d5e 93bd ce25 04bd
00000070: 3a05 b3bd 1a7a 55be 39b5 07be e232 873e
00000080: cd8c 5c3e 8632 8dbe 5325 0f3e e305 ac3d
00000090: 3578 25be c572 0f3e dede 69b9 4c3c f93d
000000a0: 11d7 183c 8abf 1ebd 78b0 483d ac3a 373c
000000b0: 6738 b33d d9a6 113d de7c 863c 192e 883e
000000c0: aee5 2ebe f2cb 2cbe ad9a be3e 04d2 4cbe
000000d0: ddbd 3d3e 5559 0fbe af81 9ebe f3e3 20bc
000000e0: acb8 38bd cabb 053e cb93 efbd 2837 11be
000000f0: b031 4dbd 4270 053c 637e b03d 048f 6a3e
00000100: fa97 35be 7e1c ad3d 714a 70bd c99d 23be
00000110: 170c 7bbc d1f5 643e bc1e d5bd 249b 713e

transformer.attn.proj_q.weight f4 [72, 72]
0.09033252 -0.10944982 -0.0027957496 0.13613303 -0.12861286 -0.035923205 -0.027273389 0.09534723
-0.014527879 -0.07874222 0.014083886 -0.15914842 0.010086717 -0.17702138 -0.15362695 -0.14478432
0.10295873 0.038875833 -0.32251683 -0.39771816 -0.030880295 0.08056983 0.073497124 -0.11100169
-0.21266422 0.4168099 0.2455784 0.11378857 -0.10365534 -0.106834896 -0.23652601 -0.0025154403
-0.022010874 -0.20282033 -0.0861945 -0.33094984 -0.050503284 0.16804515 0.09439466 0.15860283
0.023914218 -0.14157197 0.23932305 -0.05094349 0.046795692 0.14543477 0.24114849 0.22008465
0.20048952 -0.030201787 0.06827143 0.31376436 0.16743462 0.012084368 -0.0075133373 -0.2394855
-0.11735363 0.0014163253 0.22792666 0.16396761 -0.09673253 0.0026974408 -0.0044548907 0.15817131
0.20562844 0.27701718 -0.15750025 0.0020434144 -0.12839513 0.12083817 -0.1412779 -0.17452103
0.062466454 0.0016043345 0.1196127 0.20015308 -0.058309063 -0.019561235 -0.12159445 -0.31634322
0.062890865 0.23185632 0.1270553 -0.12002838 0.06783664 -0.071277745 -0.061725643 0.35620168
-0.07904499 -0.11829077 0.06731786 0.23986422 -0.28740364 0.10282597 -0.15784645 -0.37160558
0.21465251 0.045222115 -0.008923988 0.13948126 -0.07796052 -0.018168403 -0.21036299 -0.04494211
0.1665786 0.18549897 0.005593496 -0.1882851 0.038049992 -0.042183705 -0.38995382 -0.23999476
0.05907512 0.13910231 0.2110176 0.20098817 -0.19974963 0.45787832 -0.0062309215 0.1427263
-0.21185224 -0.0745714 -0.09832125 -0.099174544 -0.071217254 -0.17108895 0.009891485 -0.059643958
-0.071359396 -0.09463467 0.19258428 -0.13412473 -0.068498015 -0.17871813 0.12651075 -0.038103934
0.05729615 0.17210081 0.22064567 -0.11436368 -0.004382623 0.08919024 0.07055445 -0.074545495
-0.13807844 0.15877251 -0.09586652 -0.042976625 -0.11161218 0.021982638 -0.21953689 0.17373802
-0.11681282 -0.1229768 -0.2228227 0.06943233 -0.037180517 -0.1044244 0.025288407 0.08954316
0.05090615 -0.073919386 0.1083116 0.23927677 -0.07688361 -0.13318329 -0.17657436 -0.012854686
-0.101893716 0.034952607 0.09052507 -0.07063557 0.19715942 -0.03649955 -0.2238246 -0.079312906
-0.33685625 -0.2182775 -0.023328431 0.030751985 -0.07192593 0.22208993 0.3272349 -0.08144239
0.54100144 -0.3363566 0.0765964 0.31698984 0.09230443 0.12274132 0.07098272 -0.23602802
0.35130793 -0.19817567 0.030961912 -0.15214373 -0.036737207 -0.24259767 -0.16518229 -0.13717835
-0.0008659031 -0.12967707 -0.046503745 0.03643555 0.3050925 0.17444792 -0.067633495 -0.008805011
-0.12078531 0.04895846 0.18487318 0.16147786 0.41815308 -0.15691923 -0.045907464 -0.07285186
-0.017292328 0.16845241 -0.010462998 -0.08952993 0.06275698 -0.17372024 0.06860676 -0.061940026
0.41128927 0.2779128 0.21693711 -0.020748898 0.0939273 -0.29749578 -0.08286985 0.140447
-0.11421922 -0.17130801 -0.008635646 -0.22887453 0.11789313 -0.1295778 -0.12543646 0.17164129
-0.04206357 0.08369704 -0.08795337 -0.05762346 0.049243677 0.0006733273 -0.25850195 -0.09630062
0.0627841 0.00020728339 0.0414581 0.30731037 -0.07133406 -0.30066887 -0.009470945 0.16584787
00000000: 4200 b93d 3a27 e0bd e538 37bb 7566 0b3e
00000010: 17b3 03be 3624 13bd 716c dfbc 6945 c33d
00000020: 5706 6ebc 9a43 a1bd 19c0 663c cef7 22be
00000030: c242 253c 1845 35be 6250 1dbe 5742 14be
00000040: 07dc d23d 443c 1f3d ed20 a5be b7a1 cbbe
00000050: acf8 fcbc cc01 a53d a985 963d db54 e3bd
00000060: a6c4 59be 1b68 d53e e778 7b3e fb09 e93d
00000070: 4049 d4bd 41cc dabd e033 72be 16da 24bb
00000080: 2650 b4bc 22b0 4fbe be86 b0bd 4272 a9be
00000090: 88dc 4ebd 0714 2c3e fd51 c13d c868 223e
000000a0: c0e7 c33c 3ef8 10be 1a11 753e 1faa 50bd
000000b0: d7ac 3f3d daec 143e a1ef 763e df5d 613e
000000c0: 204d 4d3e bd69 f7bc e4d1 8b3d b9a5 a03e
000000d0: fb73 2b3e 83fd 453c 7132 f6bb b03b 75be
000000e0: 1a57 f0bd fea3 b93a 9b65 693e 20e7 273e
000000f0: b41b c6bd 8cc7 303b 55fa 91bb a9f7 213e
00000100: 4390 523e 32d5 8d3e bf47 21be ceea 053b
00000110: 037a 03be 017a f73d 27ab 10be a4b5 32be
00000120: d3dc 7f3d 8848 d23a 81f7 f43d eef4 4c3e
00000130: 7cd5 6ebd e23e a0bc 8306 f9bd bdf7 a1be
00000140: edcc 803d be6b 6d3e c91a 023e 70d1 f5bd
00000150: f0ed 8a3d 11fa 91bd 07d4 7cbd 1160 b63e
00000160: 57e2 a1bd 6e42 f2bd f2dd 893d f79e 753e
00000170: 9226 93be 6c96 d23d 80a2 21be 1643 bebe
00000180: decd 5b3e d33a 393d eb35 12bc 2dd4 0e3e
00000190: c4a9 9fbd e7d5 94bc 6569 57be 3815 38bd
000001a0: 9593 2a3e 71f3 3d3e a549 b73b cfcd 40be
000001b0: 4fda 1b3d d2c8 2cbd 07a8 c7be 30c1 75be
000001c0: c1f8 713d d670 0e3e ff14 583e d8cf 4d3e
000001d0: 2b8b 4cbe 076f ea3e c22c ccbb d826 123e
000001e0: cbef 58be e4b8 98bd a75c c9bd 061c cbbd
000001f0: 5ada 91bd f131 2fbe e50f 223c 394d 74bd
00000200: e024 92bd d2cf c1bd d034 453e fe57 09be
00000210: b048 8cbd e301 37be 098c 013e df12 1cbd
00000220: 5eaf 6a3d 323b 303e f0f0 613e 8137 eabd
00000230: 1b9c 8fbb 5fa9 b63d da7e 903d 4fab 98bd
00000240: 6f64 0dbe 4395 223e ab55 c4bd 4208 30bd
00000250: ed94 e4bd ef14 b43c 47ce 60be 61e8 313e
00000260: 8f3b efbd 43db fbbd a22b 64be 8a32 8e3d
00000270: 994a 18bd 76dc d5bd a229 cf3c 6762 b73d
00000280: f882 503d 0c63 97bd 79d2 dd3d f804 753e
00000290: 2775 9dbd 3361 08be e9cf 34be 769c 52bc
000002a0: a7ad d0bd 772a 0f3d 3565 b93d 62a9 90bd
000002b0: 29e4 493e 8d80 15bd 4732 65be ce6e a2bd
000002c0: 6c78 acbe 2384 5fbe 441b bfbc 96eb fb3c
000002d0: e74d 93bd 8b6b 633e 558b a73e 45cb a6bd
000002e0: 127f 0a3f ef36 acbe 93de 9c3d 7e4c a23e
000002f0: 1b0a bd3d cd5f fb3d 635f 913d 54b1 71be
00000300: a2de b33e 90ee 4abe d6a3 fd3c 91cb 1bbe
00000310: c179 16bd 866b 78be 8c25 29be 7b78 0cbe
00000320: c6fd 62ba 11ca 04be b67a 3ebd 713d 153d
00000330: 1635 9c3e 7aa2 323e 6e83 8abd e542 10bc
00000340: 4a5e f7bd ab88 483d 654f 3d3e 745a 253e
00000350: 2918 d63e 6faf 20be 7709 3cbd 5b33 95bd
00000360: a4a8 8dbc ca7e 2c3e ff6c 2bbc 785b b7bd
00000370: bb86 803d b8e3 31be b381 8c3d d3b4 7dbd
00000380: 8294 d23e 964a 8e3e c324 5e3e 98f9 a9bc
00000390: f55c c03d 5e51 98be abb7 a9bd 57d1 0f3e
000003a0: c4eb e9bd 5e6b 2fbe 867c 0dbc 165e 6abe
000003b0: f471 f13d 0bb0 04be 6a72 00be bcc2 2f3e
000003c0: da4a 2cbd 5b69 ab3d e520 b4bd 9406 6cbd
000003d0: bdb3 493d 3b82 303a 5e5a 84be 4239 c5bd
000003e0: f394 803d 365a 5939 f8cf 293d c957 9d3e
000003f0: 9717 92bd 45f1 99be 062c 1bbc 06d4 293e

transformer.attn.proj_q.bias f4 [72]
-0.18368034 -0.15768383 -0.03785609 -0.11310132 0.03587729 0.0045842603 0.029838992 0.29964057
-0.055261806 0.057280123 0.27074015 -0.10930009 -0.038212325 -0.15026887 0.1502934 -0.15849626
0.2366097 0.30774543 -0.048654724 0.027789392 -0.0716543 -0.17104253 0.08484542 -0.049008306
-0.07344638 0.15961318 -0.20093161 -0.07811106 -0.08571869 -0.116447724 -0.12677959 0.08867772
-0.15764838 -0.119292304 0.02639629 0.0026655374 0.17814532 0.07686255 -0.026155971 0.15714796
0.00035614322 0.024649452 -0.07917613 0.3048106 -0.06537722 -0.16324037 0.12291738 0.05333725
-0.38997385 -0.108218335 0.13901551 -0.050832234 0.017153816 -0.03330911 0.0032426256 -0.042573944
-0.028859403 0.0420101 0.07435679 -0.21539274 0.06179262 -0.1786232 -0.087183684 -0.087415494
-0.046434887 -0.24381469 0.10122028 0.1808299 0.000504858 0.05895391 0.10890336 -0.13527422
00000000: b316 3cbe df77 21be fd0e 1bbd aaa1 e7bd
00000010: 11f4 123d 9037 963b e770 f43c 7d6a 993e
00000020: 345a 62bd 909e 6a3d 749e 8a3e bad8 dfbd
00000030: 8784 1cbd 15e0 19be 83e6 193e d84c 22be
00000040: d049 723e cf90 9d3e 2d4a 47bd 94a6 e33c
00000050: 7dbf 92bd c625 2fbe 70c3 ad3d efbc 48bd
00000060: 0e6b 96bd a371 233e 04c1 4dbe b1f8 9fbd
00000070: 488d afbd 257c eebd 82d2 01be aa9c b53d
00000080: 946e 21be 864f f4bd 083d d83c 4cb0 2e3b
00000090: ba6b 363e 1d6a 9d3d 0c45 d6bc 65eb 203e
000000a0: bcb8 ba39 a6ed c93c 1827 a2bd 2310 9c3e
000000b0: 7ee4 85bd 7c28 27be 1bbc fb3d 2978 5a3d
000000c0: a7aa c7be 93a1 ddbd 155a 0e3e 7635 50bd
000000d0: 2986 8c3c 226f 08bd 3b82 543b 0462 2ebd
000000e0: 8e6a ecbc c812 2c3d 5f48 983d ea8f 5cbe
000000f0: 421a 7d3d 00e9 36be 5c8d b2bd e506 b3bd
00000100: 8232 3ebd 8faa 79be 944c cf3d 792b 393e
00000110: 7258 043a a879 713d ba08 df3d 5385 0abe

transformer.attn.proj_k.weight f4 [72, 72]
-0.006516413 -0.10796694 0.05117253 0.07775076 0.026055893 -0.13752797 -0.18363817 -0.034211177
-0.16022402 0.15346618 0.053385716 -0.026120212 -0.1256948 0.033113107 0.09442909 -0.09207189
-0.016945751 -0.20231247 -0.110678375 0.04688149 -0.006160823 0.1259819 0.2535535 -0.23461339
-0.42881638 0.24681373 0.23791665 0.019496007 -0.27114895 -0.17113905 -0.049978774 -0.23171195
-0.12021247 0.2844162 -0.2638006 -0.32283136 -0.035118997 -0.15807703 0.04360298 0.047508214
0.12264847 -0.1297064 0.08069026 -0.0741053 -0.032239947 0.06723028 0.32604998 0.042000424
0.1217394 0.41878223 -0.21616957 0.1581875 -0.04554977 -0.15445875 -0.255003 -0.20384163
-0.0587777 -9.267722e-05 0.013310687 0.189889 -0.018744353 0.16615963 0.013289322 0.009842251
0.112719044 0.036695838 -0.012190442 -0.011155053 0.02267277 -0.17512482 -0.073213 0.110489994
0.053919088 0.13878319 0.20353195 -0.10998288 -0.10497959 -0.064705566 -0.18891966 -0.5178893
0.33268344 0.28572503 0.19721587 -0.046837483 -0.12894595 0.023047812 0.07581077 0.15867303
0.004591567 0.054157767 0.06837013 0.044359744 -0.103375725 0.1871181 -0.13057345 -0.27763784
-0.16105162 -0.1751336 0.04793351 -0.016664328 0.002077425 0.22651893 0.15407272 -0.28609043
0.09128213 0.30977723 0.010402153 0.043851253 0.23831633 0.11259906 -0.17637698 -0.2842516
0.0071158926 0.08175624 -0.03985108 -0.023577819 -0.03374045 0.38386378 -0.072756715 0.0737992
-0.091417365 0.0031424873 -0.06568667 0.041235767 0.045233462 -0.24879128 0.14009869 0.022411138
0.04737607 -0.16166474 0.1269035 -0.1406862 -0.12940696 -0.25469297 -0.051697664 -0.080712065
-0.07824746 0.5009096 -0.030855581 -0.04397619 -0.065208 0.22973615 -0.017395329 -0.072816804
-0.25458524 0.19085212 0.060907584 -0.11832061 -0.16506124 -0.3424054 -0.23371185 0.31256753
-0.32844928 -0.28267565 -0.15692365 0.14217664 0.04387397 -0.1964903 0.20324911 -0.19347079
-0.02204675 0.085314564 0.14415686 0.1740867 -0.11233859 0.04853186 -0.13079387 0.16533244
-0.14483373 0.107579134 -0.023007063 0.0004327742 0.4493442 0.003923805 -0.13185467 0.071934745
-0.14202134 -0.051148456 -0.07966726 -0.01259924 0.12967728 0.23881964 0.3396759 0.06199825
0.13275059 -0.092882946 0.061583154 0.27273214 0.20796882 -0.0037963027 0.06495788 -0.18698277
0.16379018 -0.1636958 -0.17940535 -0.10146659 -0.0031425783 0.008402711 -0.24758504 0.09174397
0.0054878024 0.064193584 0.00456645 0.04826252 0.09531957 0.0979818 -0.08575651 -0.07807928
-0.0970722 0.1688863 -0.14800617 0.22763155 0.4306149 0.047624625 -0.03355112 -0.07736145
0.123876065 -0.2293978 0.032297473 -0.053552814 0.030688545 -0.15327509 0.010648139 0.013333444
0.11553297 0.25106332 0.08329645 0.00034294726 0.05579208 -0.1856055 -0.018735139 0.13246094
-0.111486144 -0.08933343 0.0950067 0.08082477 0.17664905 -0.112752914 -0.11147093 0.073650636
-0.1343836 -0.07760734 -0.18149476 0.2605583 0.056277167 0.01571762 -0.25103393 -0.059161056
-0.34311616 0.16711465 0.28795302 0.21921615 -0.092240795 -0.31153497 0.039548427 0.01961138
00000000: a287 d5bb c51d ddbd 499a 513d ca3b 9f3d
00000010: 2b73 d53c 22d4 0cbe a50b 3cbe 0521 0cbd
00000020: c411 24be 3d26 1d3e fbaa 5a3d 0efa d5bc
00000030: 23b6 00be 9ca1 073d 0a64 c13d 3090 bcbd
00000040: d1d1 8abc 002b 4fbe 58ab e2bd ce06 403d
00000050: bbe0 c9bb 6601 013e c4d1 813e 7e3e 70be
00000060: d28d dbbe bdbc 7c3e 6ca0 733e 17b6 9f3c
00000070: 09d4 8abe 133f 2fbe 8bb6 4cbd e645 6dbe
00000080: f531 f6bd 009f 913e df10 87be 274a a5be
00000090: f0d8 0fbd f2de 21be 0a99 323d f997 423d
000000a0: 1f2f fb3d c1d1 04be ef40 a53d 85c4 97bd
000000b0: 090e 04bd 07b0 893d 06f0 a63e a308 2c3d
000000c0: 8252 f93d a06a d63e 8e5b 5dbe e7fb 213e
000000d0: 6592 3abd 6f2a 1ebe c18f 82be dcbb 50be
000000e0: e3c0 70bd b45b c2b8 1115 5a3c 4372 423e
000000f0: c28d 99bc c025 2a3e 75bb 593c 6541 213c
00000100: 3ed9 e63d 604e 163d 6bba 47bc afc3 36bc
00000110: 3fbc b93c ec53 33be b3f0 95bd 9448 e23d
00000120: 43da 5c3d 2e1d 0e3e ae6a 503e b43e e1bd
00000130: 8aff d6bd 5a84 84bd 2874 41be 6594 04bf
00000140: 7c55 aa3e 8d4a 923e f5f2 493e a9d8 3fbd
00000150: 680a 04be c4ce bc3c ad42 9b3d 2f7b 223e
00000160: db74 963b 89d4 5d3d a405 8c3d 90b2 353d
00000170: a7b6 d3bd e39b 3f3e 0cb5 05be 8c26 8ebe
00000180: b7ea 24be 3956 33be ee55 443d a183 88bc
00000190: 6825 083b 94f4 673e 3dc5 1d3e 727a 92be
000001a0: 20f2 ba3d 1f9b 9e3e cb6d 2a3c 5f9d 333d
000001b0: 3209 743e 569a e63d 2b9c 34be 6d89 91be
000001c0: 6f2c e93b d16f a73d e33a 23bd 4526 c1bc
000001d0: 6d33 0abd cb89 c43e 7901 95bd 0924 973d
000001e0: 0739 bbbd 30f2 4d3b bc86 86bd d6e6 283d
000001f0: b946 393d 24c3 7ebe 0876 0f3e 9097 b73c
00000200: 690d 423d 718b 25be fef2 013e 0b10 10be
00000210: 4283 04be 1e67 82be eec0 53bd 5e4c a5bd
00000220: 3440 a0bd 9d3b 003f d8c4 fcbc 6120 34bd
00000230: c68b 85bd f43f 6b3e a680 8ebc fa20 95bd
00000240: ff58 82be bd6e 433e 3b7a 793d 1352 f2bd
00000250: d005 29be c34f afbe 2952 6fbe da08 a03e
00000260: 812a a8be ddba 90be 98b0 20be c196 113e
00000270: 31b5 333d c134 49be 8920 503e 351d 46be
00000280: 639b b4bc 67b9 ae3d db9d 133e c943 323e
00000290: c611 e6bd 58c9 463d d4ee 05be e84c 293e
000002a0: 4b4f 14be 7352 dc3d 4f79 bcbc f8e5 e239
000002b0: 7110 e63e 4393 803b e904 07be 8652 933d
000002c0: 0b6e 11be 0b81 51bd 9728 a3bd 0b6d 4ebc
000002d0: 1fca 043e 238d 743e 00ea ad3e e1f1 7d3d
000002e0: c5ef 073e 6a39 bebd 9e3e 7c3d 8ca3 8b3e
000002f0: c7f5 543e 64cb 78bb a308 853d 6978 3fbe
00000300: 9db8 273e df9f 27be 09b6 37be b7cd cfbd
00000310: b7f3 4dbb 86ab 093c ef86 7dbe 43e4 bb3d
00000320: 06d3 b33b ed77 833d 29a2 953b ecae 453d
00000330: e836 c33d afaa c83d 1ca1 afbd 08e8 9fbd
00000340: cacd c6bd 88f0 2c3e ee8e 17be 3f18 693e
00000350: 8e79 dc3e 0a12 433d e66c 09bd ae6f 9ebd
00000360: bcb2 fd3d 42e7 6abe 5b4a 043d 325a 5bbd
00000370: 8b66 fb3c 25f4 1cbe 8875 2e3c 8474 5a3c
00000380: 8d9c ec3d 5f8b 803e 5497 aa3d 9acd b339
00000390: 3c86 643d 5e0f 3ebe 6f7a 99bc d7a3 073e
000003a0: d952 e4bd 72f4 b6bd df92 c23d 7587 a53d
000003b0: 7de3 343e 00eb e6bd df4a e4bd 25d6 963d
000003c0: db9b 09be 99f0 9ebd c3d9 39be e667 853e
000003d0: e382 663d 3dc2 803c 8587 80be dd52 72bd
000003e0: ecac afbe 1a20 2b3e 946e 933e 337a 603e
000003f0: bee8 bcbd 8381 9fbe 88fd 213d 0ba8 a03c

transformer.attn.proj_k.bias f4 [72]
-0.056735788 -0.047791734 0.06882606 0.06486477 -0.015469166 0.052652664 -0.03926203 0.044255093
0.04164523 0.050086994 -0.0383854 0.039430417 0.020276502 0.082892336 0.024255462 0.004146665
0.084891185 0.112692066 -0.072497666 0.04643457 0.07396574 0.00917431 -0.026281388 -0.086102985
-0.062024858 -0.093658924 -0.086917825 -0.09893861 0.08795168 0.03950835 0.11608882 -0.0036588064
-0.0013546679 0.0575979 -0.09068339 -0.030406602 0.060820196 0.10864959 0.079672456 0.025800494
0.03254954 -0.039204706 0.07821038 0.0015236787 0.044023264 -0.029516783 0.022316854 -0.11548483
-0.023957865 0.084109515 0.009347389 0.11026799 -0.094663516 -0.05884313 -0.09470125 0.058269843
-0.09076957 -0.017988024 0.06513445 -0.040608283 0.027889092 -0.06771511 -0.004090281 -0.047006864
-0.05490948 -0.028274477 0.08231586 0.06898995 -0.06231991 0.06616467 0.09257046 -0.03381378
00000000: c963 68bd 44c1 43bd adf4 8c3d d2d7 843d
00000010: 6372 7dbc 52aa 573d 39d1 20bd d444 353d
00000020: 3094 2a3d 0528 4d3d 023a 1dbd ca81 213d
00000030: e81a a63c 75c3 a93d 64b3 c63c bfe0 873b
00000040: 6edb ad3d 19cb e63d a879 94bd 2d32 3e3d
00000050: 5a7b 973d d84f 163c 114c d7bc c356 b0bd
00000060: c70d 7ebd 40d0 bfbd f901 b2bd 53a0 cabd
00000070: 0320 b43d 82d3 213d fabf ed3d 96c8 6fbb
00000080: 1d8f b1ba c7eb 6b3d 37b8 b9bd 4417 f9bc
00000090: 991e 793d ad83 de3d 502b a33d 8f5b d33c
000000a0: ab52 053d 1d95 20bd c42c a03d 2cb6 c73a
000000b0: bd51 343d 2ecd f1bc d6d1 b63c 5083 ecbd
000000c0: 4943 c4bc 9c41 ac3d cb25 193c 2fd4 e13d
000000d0: f2de c1bd 7e05 71bd bbf2 c1bd 5cac 6e3d
000000e0: 65e5 b9bd 9f5b 93bc 3665 853d df54 26bd
000000f0: aa77 e43c 38ae 8abd c407 86bb 458a 40bd
00000100: c3e8 60bd e09f e7bc 3895 a83d 9a4a 8d3d
00000110: 2943 7fbd 5881 873d 9595 bd3d 5180 0abd

transformer.attn.proj_v.weight f4 [72, 72]
-0.30796337 -0.057051163 -0.11516542 0.06562957 0.06801861 -0.13343096 0.07184711 0.13948183
0.0234293 0.030000718 0.36365706 0.041761484 -0.037425403 0.027362378 -0.10441167 -0.115741886
-0.13606705 0.13856909 0.11682561 0.011982964 -0.20193712 0.1513334 0.09786125 0.111710206
-0.13153262 0.16853684 0.11654402 -0.009953361 -0.07236676 -0.13203423 0.098758966 0.3531972
0.08821135 0.12957656 -0.08490013 0.21210273 0.2539898 -0.05110862 -0.09625692 0.22046857
0.077287294 -0.011977587 0.07081201 -0.1215432 -0.070955224 0.06516785 -0.16324641 -0.17057769
0.007515885 -0.015578275 0.024594957 0.3001091 -0.107771024 0.06421848 -0.073139824 0.07064775
-0.0077812346 0.065866776 -0.26026726 -0.15365587 0.009488271 0.11724937 0.13720034 0.06719979
0.00020334174 0.0939946 0.097001374 -0.14753203 0.0020328048 -0.19889401 -0.22383532 -0.19019084
-0.16910563 -0.117171116 0.063021034 0.22576724 0.12239007 0.22846143 0.05823466 -0.06960005
-0.124170214 0.19226897 -0.21214046 0.021309203 0.06076478 -0.2071644 0.0890455 0.20754214
-0.104225054 -0.100156926 -0.10255985 -0.04605504 -0.17888363 -0.04341513 -0.06959649 -0.23539238
0.020912943 -0.08305137 0.057200663 -0.027358172 0.1560523 0.080315106 0.011611294 0.06395183
-0.26700908 0.12325753 -0.15020305 -0.12259048 -0.10214541 0.06922322 -0.041933436 0.04607817
-0.017992498 0.10492818 0.09631873 -0.10685914 0.4254042 -0.010900621 0.18265964 -0.0656466
-0.029667722 -0.0310359 -0.06303778 -0.23121065 0.096835144 0.07094118 0.039331328 -0.011194602
0.12131019 -0.18984637 -0.00793905 -0.03006656 0.26504672 0.15988563 0.15784463 -0.14768387
0.07650374 0.3205197 -0.08985082 -0.16673018 -0.1826513 0.066812664 -0.010347348 -0.20209064
-0.07168125 -0.23550525 0.10175644 -0.04442374 0.06252464 -0.17014362 0.1702241 -0.12030673
0.18737833 -0.20739187 -0.11098904 0.21212122 0.2587247 0.31080288 0.19121885 0.0853575
-0.18809682 0.057393506 -0.2356366 -0.028370965 -0.11595752 0.0026442688 0.06271767 0.23916744
-0.20796397 -0.09704615 -0.12186852 0.10723257 0.07897378 0.3395781 0.15938829 -0.049454316
0.016063677 0.1847372 0.10098655 0.050119866 -0.11224221 0.026313933 0.057288256 -0.27691847
0.14136358 -0.047601823 0.035999093 -0.041924894 0.035434116 -0.17300792 -0.052373666 -0.03676441
-0.22648373 0.13377155 -0.045517683 0.18069649 -0.09836949 0.04662246 0.16182946 -0.039554667
0.1341372 -0.03874247 -0.16429509 0.16408491 0.088405736 -0.062018737 0.0055561764 0.09542682
-0.16734119 -0.096121624 0.0855435 0.034482628 0.18486501 0.14144649 -0.23877935 -0.13045348
-0.089143515 0.124345034 0.21339427 0.17616884 -0.07429512 0.07524569 0.0388822 0.052134626
-0.10237481 0.10401829 0.10131367 0.16091107 -0.21492416 0.28883782 -0.22850984 0.14677604
-0.15818465 -0.12883487 0.21110573 -0.015287113 0.14056495 -0.16330427 0.031509895 -0.06404519
-0.15086988 0.08666508 -0.17356709 -0.06739598 0.057516564 0.22535959 0.0016601617 -0.11592821
-0.095169865 -0.13240743 -0.25051495 -0.0009479275 -0.04795402 -0.013807133 0.0028822094 -0.05385821
00000000: 60ad 9dbe 7bae 69bd d9db ebbd cc68 863d
00000010: 574d 8b3d 20a2 08be 9424 933d 53d4 0e3e
00000020: ceee bf3c 11c4 f53c 4231 ba3e 170e 2b3d
00000030: 614b 19bd 1127 e03c c9d5 d5bd 150a edbd
00000040: 2955 0bbe 0ee5 0d3e 4442 ef3d 3254 443c
00000050: 9bc8 4ebe 25f7 1a3e 7b6b c83d 52c8 e43d
00000060: 7db0 06be ec94 2c3e a2ae ee3d 6c13 23bc
00000070: 0635 94bd fb33 07be 2442 ca3d 43d6 b43e
00000080: 27a8 b43d b8af 043e 1fe0 adbd 7531 593e
00000090: f30a 823e 4657 51bd 5922 c5bd 83c2 613e
000000a0: cd48 9e3d a43d 44bc e305 913d a4eb f8bd
000000b0: f950 91bd b976 853d 112a 27be ebab 2ebe
000000c0: d047 f63b 053c 7fbc 5d7b c93c e6a7 993e
000000d0: 0eb7 dcbd fa84 833d 55ca 95bd c4af 903d
000000e0: baf9 febb 29e5 863d c041 85be f757 1dbe
000000f0: b174 1b3c 7020 f03d 3f7e 0c3e 0ba0 893d
00000100: 2238 5539 3e80 c03d a8a8 c63d a312 17be
00000110: ce38 053b dfaa 4bbe 1635 65be 63c1 42be
00000120: 072a 2dbe 69f7 efbd 2c11 813d 872f 673e
00000130: a5a7 fa3d cbf1 693e 7887 6e3d 798a 8ebd
00000140: f44c febd 28e2 443e 593b 59be a390 ae3c
00000150: 7de4 783d e822 54be 7d5d b63d ed85 543e
00000160: f273 d5bd 131f cdbd e60a d2bd 36a4 3cbd
00000170: 452d 37be 10d4 31bd 9b88 8ebd b30a 71be
00000180: 9f51 ab3c d616 aabd 3e4b 6a3d 3f1e e0bc
00000190: 2dcc 1f3e 3f7c a43d 4c3d 3e3c 2df9 823d
000001a0: 6ab5 88be 726e fc3d d4ce 19be b810 fbbd
000001b0: 9d31 d1bd e7c4 8d3d 65c2 2bbd 77bc 3c3d
000001c0: 0165 93bc 96e4 d63d c142 c53d f7d8 dabd
000001d0: 94ce d93e 8598 32bc 210b 3b3e ba71 86bd
000001e0: b909 f3bc 003f febc f419 81bd 7cc2 6cbe
000001f0: 8151 c63d 9c49 913d e319 213d 9069 37bc
00000200: 7a71 f83d 1667 42be ca12 02bc 254e f6bc
00000210: 34b4 873e 0fb9 233e 06a2 213e 713a 17be
00000220: fead 9c3d 281b a43e b503 b8bd 51bb 2abe
00000230: f108 3bbe 14d5 883d ec87 29bc d9f0 4ebe
00000240: 9fcd 92bd 4a28 71be ae65 d03d abf5 35bd
00000250: eb0c 803d 213a 2ebe 3a4f 2e3e 6063 f6bd
00000260: 1be0 3f3e 895e 54be 394e e3bd 4e36 593e
00000270: 9077 843e 8e21 9f3e e0ce 433e eacf ae3d
00000280: 749c 40be 7415 6b3d b94a 71be 3a6a e8bc
00000290: 237b edbd 784b 2d3b 1f72 803d 4fe8 743e
000002a0: 82f4 54be 22c0 c6bd 3496 f9bd c09c db3d
000002b0: 01bd a13d 2edd ad3e af36 233e 9c90 4abd
000002c0: f997 833c c02b 3d3e 09d2 ce3d 7d4a 4d3d
000002d0: 3edf e5bd 5190 d73c 17a7 6a3d 42c8 8dbe
000002e0: 9dc1 103e 21fa 42bd c973 133d 70b9 2bbd
000002f0: 5d23 113d fd28 31be c585 56bd 4796 16bd
00000300: 5aeb 67be 69fb 083e c070 3abd 8008 393e
00000310: f175 c9bd 31f7 3e3d 9fb6 253e 1304 22bd
00000320: 435b 093e 6db0 1ebd f93c 28be e005 283e
00000330: 110e b53d 5c07 7ebd 9610 b63b 236f c33d
00000340: 7d5b 2bbe 6adb c4bd 6e31 af3d a83d 0d3d
00000350: 414d 3d3e 59d7 103e 9382 74be 9995 05be
00000360: e090 b6bd 9ca8 fe3d 0784 5a3e 9b65 343e
00000370: 0a28 98bd 6a1a 9a3d f142 1f3d 1e8b 553d
00000380: e2a9 d1bd 8b07 d53d 8b7d cf3d dfc5 243e
00000390: 1415 5cbe 8de2 933e 7cfe 69be 754c 163e
000003a0: 28fb 21be 4aed 03be 1a2c 583e cd76 7abc
000003b0: 42f0 0f3e 3c39 27be 8510 013d 202a 83bd
000003c0: a27d 1abe 767d b13d 92bb 31be e706 8abd
000003d0: 7d96 6b3d aac4 663e c899 d93a c56b edbd
000003e0: 6be8 c2bd d095 07be 7f43 80be 567e 78ba
000003f0: 6f6b 44bd 5037 62bc 73e3 3c3b 6d9a 5cbd

transformer.attn.proj_v.bias f4 [72]
-0.061026998 -0.054756436 -0.06204924 -0.14561687 -0.20812543 0.0021865054 0.05813762 0.036364615
-0.017409587 0.048368704 0.07681944 -0.17696612 -0.09559499 0.16735092 -0.13369857 0.09971753
-0.12930161 -0.06403567 -0.0371716 -0.15250783 -0.1690559 0.040035516 0.27021265 -0.1314
-0.06784932 -0.0995946 0.03516398 -0.10064177 0.017937906 0.07065268 0.08664376 0.030121919
-0.0009621007 0.095943056 -0.054088645 0.09601842 0.04194927 0.08948225 0.050958514 -0.051301714
-0.19537358 -0.013532488 0.043362655 -0.10235191 -0.02702201 -0.035213895 -0.06443806 0.13806294
0.110608965 -0.12579568 -0.010567537 0.1540813 0.08180129 -0.136634 -0.10757099 0.083701625
-0.09015811 0.093702056 0.02788594 -0.2277686 -0.094405346 0.13234393 0.0803731 -0.06954992
0.09020451 -0.022519777 0.056421805 0.09467225 0.0076361904 -0.15454686 0.012091933 0.035358123
00000000: 72f7 79bd 4948 60bd 5827 7ebd 971c 15be
00000010: d51e 55be 794b 0f3b b721 6e3d 10f3 143d
00000020: 8d9e 8ebc 431e 463d 8353 9d3d 9b36 35be
00000030: 4ec7 c3bd 0a5e 2b3e 47e8 08be b438 cc3d
00000040: a467 04be 2225 83bd 3f41 18bd 032b 1cbe
00000050: fd1c 2dbe 48fc 233d 5059 8a3e b98d 06be
00000060: 96f4 8abd 41f8 cbbd 1b08 103d 461d cebd
00000070: 84f2 923c 5ab2 903d 4972 b13d 3ec2 f63c
00000080: 7c35 7cba cb7d c43d 0e8c 5dbd 4ea5 c43d
00000090: ffd2 2b3d 7842 b73d e0b9 503d bf21 52bd
000000a0: 0310 48be 5eb7 5dbc 0a9d 313d e19d d1bd
000000b0: 435d ddbc 723c 10bd 1af8 83bd 5f60 0d3e
000000c0: f486 e23d 95d0 00be 7623 2dbc 7dc7 1d3e
000000d0: 6f87 a73d c9e9 0bbe 2e4e dcbd c26b ab3d
000000e0: d1a4 b8bd dde6 bf3d 0e71 e43c 2c3c 69be
000000f0: 9757 c1bd 2b85 073e a79a a43d 3070 8ebd
00000100: 24bd b83d 657b b8bc 8d1a 673d 86e3 c13d
00000110: 0239 fa3b 8841 1ebe 3e1d 463c aed3 103d

transformer.proj.weight f4 [72, 72]
0.16271621 -0.026754925 0.16612782 0.070169315 -0.16192617 -0.05834373 0.022556545 -0.08495481
0.10149231 -0.047125697 0.09807489 -0.050866242 0.001999667 -0.25903696 -0.08325716 0.09644119
-0.070508026 0.023225466 -0.15460765 -0.030672904 0.043774635 -0.19431086 -0.033015788 -0.10597917
0.013862942 -0.040425945 -0.05351316 -0.13844253 -0.10795815 -0.15257527 0.06301047 0.3492944
-0.2198793 -0.102849506 -0.11448995 0.11069683 -0.0642385 0.033134423 -0.109597296 -0.04778751
-0.10051459 0.101634175 -0.22824924 0.1301491 -0.10035391 0.051950537 -0.07466764 0.1887295
0.047447234 0.106956504 -0.14359097 0.114903204 0.24953592 -0.26341778 0.071825445 -0.02102201
-0.109758824 -0.0023882817 -0.2250358 0.1425283 0.021342626 0.010610647 -0.11803798 -0.1475657
0.19155091 -0.07834952 0.0012913926 -0.08622107 0.10391345 0.022567155 0.21060142 0.12673701
-0.09926352 0.2246302 0.18773541 0.07698643 0.08239248 -0.022395521 -0.07776569 0.015699463
-0.04177711 0.014703895 -0.026190782 -0.104072504 -0.051727958 0.057455376 0.078455396 0.16046211
0.02680105 -0.040951785 0.16590397 -0.09257168 0.05175203 0.1548187 0.0772009 -0.004459289
-0.09327898 0.05416355 -0.23591499 0.16185896 -0.03609848 0.055680573 0.03287192 -0.15003675
0.15653147 0.21855602 -0.11874452 -0.010636547 0.12918948 0.2158918 0.075972885 0.024784729
0.08466247 0.0004983501 0.12686874 0.03714455 0.008025052 -0.088324934 0.122190714 0.053054556
0.21869692 -0.06274387 0.179701 -0.040765543 0.034752827 -0.066803634 0.041790847 0.068994604
-0.05232949 -0.20659505 -0.20795147 0.03691094 0.25089297 0.059138235 0.060487196 0.24022102
-0.09932201 0.07657046 -0.037566017 0.14634629 -0.09630638 0.021723883 -0.1713339 -0.015414518
-0.09588981 0.085850336 0.15441185 0.22357197 -0.08613364 0.06941033 0.086599246 0.02667615
0.027348459 -0.05328451 0.025363848 0.17298812 0.19639774 0.00885637 -0.02712461 0.17454779
0.052015323 0.0016172067 -0.12903148 0.31887722 -0.057023287 0.09492752 -0.1277878 0.08899092
-0.19227646 0.08557562 0.05819593 -0.18301652 0.21052215 -0.098416954 0.026124995 -0.07585809
0.23945811 -0.13554786 0.11426453 -0.12469816 -0.0602872 0.028810425 -0.0286514 0.07215064
-0.15369637 0.23795998 -0.030300591 0.003569966 -0.20173484 -0.14373825 -0.016464455 -0.0687195
-0.051510513 -0.04414567 -0.060064238 -0.021290194 0.12608789 0.15380038 -0.046261333 -0.2220508
-0.2338069 -0.107341 0.21817544 -0.04720689 -0.10053507 0.03299448 0.08575015 0.08975808
-0.10381066 0.016602088 -0.005211581 0.105547994 -0.12605111 -0.10687673 0.010177097 -0.18789724
0.031333826 -0.13418767 -0.14955682 0.23991059 -0.053849496 0.1205077 -0.12363684 -0.027802909
-0.06767069 0.18555434 -0.10553852 0.20165896 -0.09612044 -0.1999001 -0.1610184 0.02147987
-0.028202126 -0.12909368 0.083581924 -0.010049768 0.0195179 -0.22640918 -0.10195132 -0.25574228
-0.054163527 0.0021962468 -0.10812661 -0.032110553 0.03706318 -0.017994916 -0.010503326 -0.024883676
-0.1695507 0.033451255 0.25085717 -0.16572805 0.16051516 -0.20879218 -0.038271323 -0.09483545
00000000: 149f 263e 252d dbbc 691d 2a3e eeb4 8f3d
00000010: f9cf 25be d6f9 6ebd 81c8 b83c cafc adbd
00000020: 33db cf3d e006 41bd 7ddb c83d 1f59 50bd
00000030: d80c 033b 7ea0 84be bb82 aabd f582 c53d
00000040: 8366 90bd 5543 be3c 7851 1ebe be45 fbbc
00000050: 084d 333d 6df9 46be 903b 07bd 9b0b d9bd
00000060: 6521 633c ad95 25bd 9e30 5bbd e1c3 0dbe
00000070: 2a19 ddbd b13c 1cbe a20b 813d b7d6 b23e
00000080: 0a28 61be c3a2 d2bd b579 eabd 05b5 e23d
00000090: 7a8f 83bd f6b7 073d 8c74 e0bd d6bc 43bd
000000a0: 98da cdbd 9425 d03d 2bba 69be ce45 053e
000000b0: 5a86 cdbd 16ca 543d 59eb 98bd 4e42 413e
000000c0: 0858 423d 030c db3d 8309 13be 5f52 eb3d
000000d0: 5886 7f3e b2de 86be 3819 933d 5a36 acbc
000000e0: 3cc9 e0bd b884 1cbb c96f 66be f0f2 113e
000000f0: bbd6 ae3c 47d8 2d3c e5bd f1bd 761b 17be
00000100: ec25 443e b775 a0bd f243 a93a ac94 b0bd
00000110: 93d0 d43d c1de b83c e6a7 573e 59c7 013e
00000120: ac4a cbbd 7605 663e b63d 403e 10ab 9d3d
00000130: 63bd a83d d076 b7bc 9e43 9fbd 299c 803c
00000140: 7a1e 2bbd 9be8 703c 0d8e d6bc f723 d5bd
00000150: b2e0 53bd 5456 6b3d 39ad a03d 2e50 243e
00000160: e08d db3c 0fbd 27bd bbe2 293e 3996 bdbd
00000170: f0f9 533d cb88 1e3e 811b 9e3d 3a1f 92bb
00000180: 0d09 bfbd 99da 5d3d b393 71be 5bbe 253e
00000190: 00dc 13bd 5011 643d b5a4 063d 3ca3 19be
000001a0: c949 203e 26cd 5f3e 5430 f3bd e944 2ebc
000001b0: 3f4a 043e bd12 5d3e ac97 9b3d 5809 cb3c
000001c0: 8463 ad3d b6a3 023a e1e9 013e e224 183d
000001d0: 827b 033c b4e3 b4bd 203f fa3d bc4f 593d
000001e0: 16f2 5f3e dc7f 80bd 8a03 383e c5f9 26bd
000001f0: fb58 0e3d 58d0 88bd e12c 2b3d 0b4d 8d3d
00000200: 7357 56bd a78d 53be 3bf1 54be ed2f 173d
00000210: 0b75 803e ef3a 723d 6cc1 773d 80fc 753e
00000220: 5769 cbbd f9d0 9c3d d3de 19bd cddb 153e
00000230: 483c c5bd 49f6 b13c 2772 2fbe 2d8d 7cbc
00000240: e061 c4bd 4dd2 af3d 241e 1e3e 0df0 643e
00000250: d566 b0bd 0127 8e3d f25a b13d f187 da3c
00000260: e009 e03c dc40 5abd d8c7 cf3c cc23 313e
00000270: 7d1c 493e 4f1a 113c 6e34 debc a8bc 323e
00000280: 050e 553d 74f8 d33a d420 04be e043 a33e
00000290: 4091 69bd 5c69 c23d ceda 02be df40 b63d
000002a0: 1fe4 44be 4542 af3d db5e 6e3d af68 3bbe
000002b0: 1e93 573e d48e c9bd 1604 d63c 7c5b 9bbd
000002c0: 8234 753e 0fcd 0abe 8603 ea3d c061 ffbd
000002d0: b6ef 76bd d703 ec3c 57b6 eabc b7c3 933d
000002e0: 9562 1dbe c8ab 733e f238 f8bc 17f6 693b
000002f0: 9493 4ebe 1f30 13be 77e0 86bc cfbc 8cbd
00000300: b0fc 52bd 17d2 34bd eb05 76bd c668 aebc
00000310: 2f1d 013e d97d 1d3e 867c 3dbd 4961 63be
00000320: 136b 6fbe 99d5 dbbd 6269 5f3e 035c 41bd
00000330: 55e5 cdbd 3825 073d c69d af3d 16d3 b73d
00000340: af9a d4bd 1a01 883c e9c5 aabb 8c29 d83d
00000350: 8b13 01be 30e2 dabd d7bd 263c 2268 40be
00000360: e657 003d 7e68 09be 6c25 19be 1fab 753e
00000370: 4a91 5cbd becc f63d 5035 fdbd edc2 e3bc
00000380: ee96 8abd f501 3e3e 9424 d8bd b07f 4e3e
00000390: cbda c4bd 9db2 4cbe 02e2 24be 8df6 af3c
000003a0: 2508 e7bc 2231 04be 002d ab3d c8a7 24bc
000003b0: 01e4 9f3c cfd7 67be dbcb d0bd a7f0 82be
000003c0: 93da 5dbd e8ee 0f3b 7c71 ddbd 5b86 03bd
000003d0: 90cf 173d 136a 93bc 2416 2cbc dad8 cbbc
000003e0: b39e 2dbe 2f04 093d 5a70 803e 9db4 29be
000003f0: 165e 243e 9ecd 55be 64c2 1cbd 1739 c2bd

transformer.proj.bias f4 [72]
0.09973212 -0.07441273 -0.045292813 -0.16237009 -0.19577847 -0.096609905 -0.10666586 -0.13316539
0.21087055 -0.10313014 0.28939992 -0.3041664 -0.12329701 0.27136296 -0.34727788 -0.17405367
-0.010179488 -0.1525173 0.08266665 -0.34976417 -0.39925754 0.24320044 0.2136247 -0.17106909
-0.070716865 -0.12590645 0.08814736 -0.1513719 0.20851368 -0.10616882 0.057253674 0.09430659
-0.042057652 0.07226464 0.17788643 0.13761117 0.033153832 0.29475078 -0.08987668 -0.10490417
-0.15775716 -0.24103925 0.35807434 -0.12871762 0.22209707 0.084421396 0.112684526 0.060269564
-0.07457861 0.1571162 -0.12180011 -0.07190225 0.13473314 0.053105693 -0.15719016 0.01863713
-0.10381316 0.084325254 0.31410787 -0.027678238 -0.026183853 -0.07668328 0.33139148 0.116998255
0.28526822 -0.009340361 0.22150667 0.20422143 -0.18334326 -0.38711932 0.007004568 -0.06004669
00000000: 5b40 cc3d b465 98bd f584 39bd 5844 26be
00000010: 277a 48be 6adb c5bd a173 dabd 825c 08be
00000020: 73ee 573e e535 d3bd 3a2c 943e b3bb 9bbe
00000030: 2583 fcbd 16f0 8a3e 68ce b1be 203b 32be
00000040: dec7 26bc 7f2d 1cbe 224d a93d 4a14 b3be
00000050: 7c6b ccbe 8909 793e 6fc0 5a3e bc2c 2fbe
00000060: 01d4 90bd 9fed 00be 9a86 b43d 3c01 1bbe
00000070: 9c84 553e 0a6f d9bd d482 6a3d d023 c13d
00000080: a544 2cbd 7cff 933d dc27 363e f1e9 0c3e
00000090: 50cc 073d 93e9 963e 4411 b8bd ffd7 d6bd
000000a0: 188b 21be fed2 76be 8555 b73e 8dce 03be
000000b0: 6a6d 633e 20e5 ac3d 25c7 e63d 38dd 763d
000000c0: acbc 98bd 12e3 203e 5672 f9bd 7d41 93bd
000000d0: 7cf7 093e 5b85 593d 75f6 20be e5ac 983c
000000e0: fe9b d4bd b8b2 ac3d bfd2 a03e 79bd e2bc
000000f0: 857f d6bc 200c 9dbd 25ac a93e c89c ef3d
00000100: ad0e 923e 5008 19bc a5d2 623e 6c1f 513e
00000110: 56be 3bbe 8134 c6be 9386 e53b 85f3 75bd
