saved/classifier_base_gru_sighted_user_20_120/limu_gru_v1.pt (torch, 40112 bytes, 14 tensors)

gru0.weight_ih_l0 f4 [60, 72]
-0.032284074 0.0515157 -0.08904244 -0.08769511 -0.33209363 0.00078885857 -0.2569957 -0.113809004
-0.17010611 -0.33964112 0.15826082 0.38595852 -0.39616135 0.082764 -0.09037993 -0.0160833
-0.09855933 0.3734548 -0.09199931 0.12389598 0.14981171 -0.032803494 0.12994239 0.33385488
0.07009419 0.17267215 0.37668112 0.11842547 0.2623581 -0.08193423 -0.37311164 -0.070212476
-0.20804507 -0.078135826 -0.22616309 -0.23415796 -0.03212028 0.17483918 -0.2209167 0.25239405
0.017292572 -0.15117006 0.12424239 0.021757204 -0.08105106 -0.101206295 -0.07170701 0.24196383
0.055405322 -0.016931849 0.24079074 0.23581764 0.06677495 -0.09746274 0.12203753 -0.09657772
0.0046547605 0.090974286 -0.17560686 0.22189954 0.08152109 -0.1672045 -0.05848919 -0.019938724
0.10314031 0.08358017 -0.22044088 0.23814936 -0.17556544 0.18301475 0.034063175 -0.0039119995
0.08834603 -0.20194636 -0.00650448 0.36644605 -0.453238 -0.003092766 -0.016682012 -0.05646538
0.031014556 -0.22604169 -0.037323814 -0.08699964 0.3816627 0.54135865 0.22666499 0.13430373
-0.0053818165 -0.16427478 -0.17222536 -0.1494427 0.14556372 -0.08335902 -0.08666108 0.08098052
-0.014863341 0.37596855 -0.077949986 -0.13440561 0.16419332 -0.17957707 0.4651 -0.32835245
-0.3189001 0.22244208 -0.005657863 -0.13743299 -0.0008852139 -0.040587988 0.016471988 -0.23221637
0.21756308 -0.42565587 0.08990821 -0.24140553 -0.03432579 0.12524182 -0.23050343 -0.08806662
0.18493849 0.16031614 -0.09528317 -0.3293983 -0.011526117 -0.2778905 0.13556823 -0.17628938
-0.07953075 0.36401778 0.1691633 -0.05595497 -0.05150925 -0.06890638 0.22032374 -0.10029775
0.07641359 0.04895819 -0.0626248 0.0192939 0.059791014 -0.20442533 -0.054989796 0.032887343
-0.06949454 0.05065765 -0.36777908 -0.061041433 -0.09237609 -0.20830484 -0.17613526 -0.29473722
-0.09207717 -0.33349407 0.20073646 0.3497575 -0.3783133 0.15549488 0.046514876 -0.11063522
-0.4582266 0.24925746 -0.02634837 -0.08558678 0.0755764 -0.24366051 -0.046735737 -0.18411249
0.17585728 0.1830721 0.08552847 -0.053504672 0.015212546 -0.06912491 -0.28173548 -0.14975506
0.46471184 -0.030180944 -0.18631588 0.20321159 0.25311282 0.0058132177 0.08303865 -0.20821416
0.14229646 -0.018984979 -0.20980044 -0.16629013 0.15564975 0.007722777 -0.20016274 0.41936612
0.29059076 0.16078097 0.31778133 -0.044641536 0.1430147 0.06597254 0.25321254 0.19665861
-0.1412335 0.14604194 0.052708667 -0.27412245 0.24635339 -0.023522815 0.118411705 -0.10954932
0.07570057 0.0037769903 0.079055116 0.052400783 0.39758298 0.120449424 -0.050145477 -0.24046874
0.050717127 -0.28334725 -0.14039664 0.26141956 0.21046205 0.23611295 0.12515393 -0.04425446
0.050972406 -0.02970273 0.071951486 0.20515093 -0.057161342 0.14403538 0.05433176 -0.25702465
-0.10344345 0.09481316 -0.06429948 -0.30094343 -0.17451207 0.29961002 -0.09590845 0.06206879
-0.18352222 0.25816348 -0.021598564 -0.31613407 -0.007817877 0.094881415 -0.10463642 0.08836579
0.11397044 0.35578328 0.041483738 0.016929599 -0.03125104 0.17799796 0.012380633 0.113667905
00000000: 4e3c 04bd 2002 533d e25b b6bd 7e99 b3bd
00000010: 2d08 aabe 67cb 4e3a f194 83be b214 e9bd
00000020: 4c30 2ebe 71e5 adbe 200f 223e 5b9c c53e
00000030: a9d5 cabe 2c80 a93d 1d19 b9bd 20c1 83bc
00000040: 79d9 c9bd 7835 bf3e 226a bcbd 2dbd fd3d
00000050: 3e68 193e f55c 06bd 9e0f 053e 07ef aa3e
00000060: 8b8d 8f3d f8d0 303e 59dc c03e 0e89 f23d
00000070: cd53 863e 22cd a7bd 7d08 bfbe 8fcb 8fbd
00000080: c409 55be ad05 a0bd 4c97 67be 1bc7 6fbe
00000090: 8e90 03bd 0b09 333e fd37 62be cb39 813e
000000a0: 27a9 8d3c 53cc 1abe cb72 fe3d 2a3c b23c
000000b0: 19fe a5bd 3f45 cfbd 20db 92bd 5ec5 773e
000000c0: b1f0 623d a9b4 8abc d991 763e 2e7a 713e
000000d0: 4ec1 883d 8c9a c7bd d0ee f93d 8aca c5bd
000000e0: f686 983b ba50 ba3d 49d2 33be a239 633e
000000f0: 87f4 a63d a837 2bbe 5c92 6fbd 8956 a3bc
00000100: 3a3b d33d 152c ab3d 41bb 61be 6ddd 733e
00000110: 6dc7 33be 3868 3b3e d485 0b3d 3b30 80bb
00000120: c3ee b43d 07cb 4ebe 8823 d5bb d19e bb3e
00000130: d00e e8be 01b0 4abb b7a8 88bc 3e48 67bd
00000140: 3d12 fe3c 7977 67be dbe0 18bd de2c b2bd
00000150: 4b69 c33e 7b96 0a3f de1a 683e eb86 093e
00000160: f359 b0bb a637 28be d85b 30be 8207 19be
00000170: a80e 153e 22b8 aabd 5d7b b1bd 1dd9 a53d
00000180: 5f85 73bc f37e c03e 3ea4 9fbd a0a1 09be
00000190: 4b22 283e 0de3 37be 9621 ee3e d01d a8be
000001a0: e046 a3be dbc7 633e 9865 b9bb 3cbb 0cbe
000001b0: b30d 68ba 973f 26bd 43f0 863c 21ca 6dbe
000001c0: dbc8 5e3e 91ef d9be cc21 b83d 0333 77be
000001d0: 3399 0cbd 643f 003e 1709 6cbe 465c b4bd
000001e0: 8460 3d3e ea29 243e d323 c3bd e5a6 a8be
000001f0: 0ad8 3cbc aa47 8ebe 66d2 0a3e 3485 34be
00000200: 05e1 a2bd 8a60 ba3e 2539 2d3e 0a31 65bd
00000210: 5dfb 52bd ca1e 8dbd 8c9c 613e e868 cdbd
00000220: ba7e 9c3d 6288 483d 6e41 80bd 3e0e 9e3c
00000230: 6ce7 743d e054 51be fb3c 61bd e1b4 063d
00000240: 2753 8ebd 657e 4f3d 8a4d bcbe 9506 7abd
00000250: ad2f bdbd dd4d 55be cd5c 34be cce7 96be
00000260: f592 bcbd bcbf aabe dc8d 4d3e 6a13 b33e
00000270: 48b2 c1be 0d3a 1f3e 6286 3e3d b894 e2bd
00000280: ad9c eabe 593d 7f3e 89d8 d7bc 1f48 afbd
00000290: cdc7 9a3d 2482 79be f96d 3fbd fc87 3cbe
000002a0: ee13 343e 4177 3b3e 8d29 af3d b727 5bbd
000002b0: 0b3e 793c 5c91 8dbd a23f 90be 6459 19be
000002c0: b6ee ed3e 073e f7bc 97c9 3ebe b316 503e
000002d0: 0198 813e ce7c be3b 2b10 aa3d 1836 55be
000002e0: 2ab6 113e 6386 9bbc edd5 56be f647 2abe
000002f0: a662 1f3e 590f fd3b 76f7 4cbe 28b7 d63e
00000300: 50c8 943e c4a3 243e 3cb4 a23e 0bda 36bd
00000310: 7272 123e 9c1c 873d 13a5 813e e060 493e
00000320: 849f 10be 058c 153e 0be5 573d c759 8cbe
00000330: 1044 7c3e ebb2 c0bc d681 f23d 655b e0bd
00000340: e708 9b3d 6287 773b a6e7 a13d 34a2 563d
00000350: ff8f cb3e 30ae f63d 5865 4dbd 703d 76be
00000360: c3bc 4f3d e412 91be 23c4 0fbe c9d8 853e
00000370: 5d83 573e 98c7 713e 5a28 003e 2a44 35bd
00000380: 71c8 503d 2453 f3bc 4d5b 933d 1613 523e
00000390: 0322 6abd 037e 133e fb8a 5e3d bc98 83be
000003a0: 29da d3bd 672d c23d 72af 83bd 4215 9abe
000003b0: 4bb3 32be 7c66 993e a66b c4bd d83b 7e3d
000003c0: 40ed 3bbe 012e 843e 79ef b0bc 53dc a1be
000003d0: 8e16 00bc 3051 c23d 9f4b d6bd 20f9 b43d
000003e0: 5669 e93d 3a29 b63e daea 293d f1af 8a3c
000003f0: 1701 00bd 1945 363e 23d8 4a3c b8ca e83d

gru0.weight_hh_l0 f4 [60, 20]
-0.029970922 0.08070146 -0.43568766 -0.07945634 -0.23620006 0.31142992 0.115925156 0.056329202
-0.09932863 -0.43600044 0.2331537 -0.13539355 0.0661285 -0.20196854 -0.2263413 -0.030063003
0.18574044 0.0006911862 -0.15001006 0.21306309 0.26214004 0.18023445 0.16977808 0.08700265
0.21282266 -0.30987406 0.21535674 0.08306386 0.35616088 0.1425334 -0.04695707 -0.4836985
-0.10210274 -0.0954599 0.04110416 -0.14639346 0.034261264 -0.03253227 -0.04214975 0.27206913
-0.18367705 -0.2160959 -0.21888715 0.001850932 0.060391482 0.062053252 0.16275786 -0.20673022
-0.57801205 0.003098824 0.12096814 -0.007917744 -0.2223262 0.21210295 0.1234489 -0.097830735
0.22301644 -0.010504046 -0.39289704 0.18515539 0.26006433 0.23559964 0.12897566 0.31301272
0.17893054 -0.061281513 0.10168278 -0.0072854245 0.1344681 0.18235272 -0.11382347 0.021536972
0.2596464 0.27577502 -0.13212335 0.03223027 -0.11164831 -0.041105717 -0.088169895 -0.33685887
0.21573018 0.05735664 0.061712645 -0.09841463 0.05631912 -0.16016291 0.078717366 -0.36577252
-0.40006575 0.09466662 -0.082528114 -0.13248688 -0.16053243 -0.03725518 -0.3443757 0.15519018
0.119584166 -0.3555845 0.17028455 -0.033798248 0.13226253 -0.04080361 -0.019906588 -0.041171085
0.21677496 -0.1435516 -0.08535202 0.15508184 0.2118798 0.02075242 -0.2807854 -0.29120865
0.1461875 0.00027293368 -0.022438087 0.14409347 -0.16922186 -0.0011956531 -0.0613404 0.1021389
0.05795264 -0.066658005 0.27920797 -0.049255017 0.16760713 -0.2558726 0.18676847 0.037241653
-0.07088414 0.18697873 -0.13345693 0.042898484 -0.29657343 -0.0011341658 -0.037771154 0.07265988
-0.3732177 0.3071312 -0.021518417 0.04583501 -0.046098195 0.106103 -0.22118619 -0.18172275
0.13140947 -0.41874766 -0.34962723 0.15524493 0.27631092 -0.034796007 0.10916881 0.15214771
0.21743058 -0.21994841 0.10639991 0.31177136 -0.10640959 0.12609144 -0.32804972 -0.14337945
-0.14438511 0.06457607 0.08294043 -0.058751293 0.07379239 -0.25832552 0.15352625 -0.3098651
0.33692586 -0.003499583 -0.14602007 0.35612348 -0.04881614 -0.11454609 -0.0029871787 0.020091629
-0.11559038 -0.08538786 -0.03256848 -0.18799247 0.014255014 0.24299526 0.044796713 -0.109232694
0.2702212 0.14451711 0.0030602794 0.0054783444 0.14522576 -0.41291302 -0.0957996 -0.40804115
-0.11703166 0.14419317 -0.34316057 0.20896393 0.044747878 0.16838805 -0.18818732 -0.17031746
0.08123111 0.10344558 0.0862395 0.10161015 -0.10316229 -0.21103458 0.16236116 -0.08000631
0.13321468 -0.05910878 -0.3723321 0.25606862 -0.039417215 0.19613798 -0.23202528 -0.006032682
0.20350194 -0.24348886 -0.02156907 -0.024211187 0.032734983 0.09044271 0.005062195 0.33042097
-0.15353553 -0.09464092 0.04023365 -0.03903827 0.038453832 -0.29051808 -0.08013014 0.4383585
0.54711163 -0.21762134 -0.30495566 -0.4247193 -0.40638554 0.08143447 0.007457074 -0.059696108
0.3002543 -0.22025447 0.14451963 0.18403848 0.22853783 0.0019116837 0.0047918395 0.13694441
-0.032188818 0.19467136 0.23883021 0.24018335 -0.06392379 0.04443444 0.015147762 -0.18851094
00000000: 9485 f5bc cf46 a53d 7412 dfbe 01ba a2bd
00000010: 6ede 71be be73 9f3e 2b6a ed3d 73b9 663d
00000020: cf6c cbbd 733b dfbe d8bf 6e3e 9ba4 0abe
00000030: 616e 873d d7d0 4ebe 04c6 67be b046 f6bc
00000040: be32 3e3e b830 353a 3d9c 19be 362d 5a3e
00000050: 3837 863e 618f 383e 4eda 2d3e 722e b23d
00000060: 2fee 593e d0a7 9ebe 7a86 5c3e 631d aa3d
00000070: b85a b63e 47f4 113e 0e56 40bd 54a7 f7be
00000080: 3e1b d1bd 7b80 c3bd d65c 283d 2be8 15be
00000090: 8a55 0c3d 8f40 05bd 37a5 2cbd a54c 8b3e
000000a0: d615 3cbe 3e48 5dbe f423 60be f99a f23a
000000b0: 0f5d 773d 8d2b 7e3d ffa9 263e 16b1 53be
000000c0: 99f8 13bf a415 4b3b 25be f73d 6db9 01bc
000000d0: 7ba9 63be 8431 593e c7d2 fc3d 7b5b c8bd
000000e0: 6c5e 643e 2a19 2cbc cd29 c9be 6099 3d3e
000000f0: 2727 853e 0841 713e 3212 043e 3443 a03e
00000100: 9139 373e 5302 7bbd 103f d03d 92ba eebb
00000110: 01b2 093e acba 3a3e 481c e9bd 4e6e b03c
00000120: 5ff0 843e 6232 8d3e 584b 07be e303 043d
00000130: dfa7 e4bd 785e 28bd 6b92 b4bd c478 acbe
00000140: 5fe8 5c3e ccee 6a3d 66c6 7c3d 9c8d c9bd
00000150: e1ae 663d bf01 24be 9236 a13d 8946 bbbe
00000160: 6bd5 ccbe 93e0 c13d 8004 a9bd a4aa 07be
00000170: 9d62 24be e398 18bd 0352 b0be 2dea 1e3e
00000180: 8be8 f43d 2c0f b6be 135f 2e3e 0870 0abd
00000190: d46f 073e b021 27bd 2413 a3bc 03a3 28bd
000001a0: 41fa 5d3e 31ff 12be 0acd aebd c6cd 1e3e
000001b0: 05f7 583e fb00 aa3c 1bc3 8fbe 4d19 95be
000001c0: 2db2 153e 8a18 8f39 14d0 b7bc 3d8d 133e
000001d0: 7f48 2dbe 76b7 9cba 1240 7bbd 332e d13d
000001e0: bf5f 6d3d fe83 88bd 59f4 8e3e a1bf 49bd
000001f0: 34a1 2b3e bc01 83be 3c40 3f3e b48a 183d
00000200: b42b 91bd 5a77 3f3e efa8 08be 52b6 2f3d
00000210: 79d8 97be 4aa8 94ba edb5 1abd b4ce 943d
00000220: 6416 bfbe 4d40 9d3e 6447 b0bc 7ebd 3b3d
00000230: 76d1 3cbd 884c d93d a27e 62be 8715 3abe
00000240: 3490 063e 1866 d6be 5702 b3be 87f8 1e3e
00000250: a078 8d3e 4286 0ebd e693 df3d 9ccc 1b3e
00000260: 1fa6 5e3e 283a 61be 32e8 d93d 7fa0 9f3e
00000270: 45ed d9bd 1d1e 013e 22f6 a7be 10d2 12be
00000280: b1d9 13be 7540 843d acdc a93d 32a5 70bd
00000290: 7720 973d 3e43 84be fc35 1d3e a3a6 9ebe
000002a0: 8c81 ac3e 4359 65bb 4986 15be d155 b63e
000002b0: 6ff3 47bd 2497 eabd 8bc4 43bb 3397 a43c
000002c0: a6ba ecbd d5df aebd 8766 05bd 1981 40be
000002d0: dd8d 693c c0d3 783e c27c 373d 64b5 dfbd
000002e0: 6f5a 8a3e 4bfc 133e f88e 483b af83 b33b
000002f0: 10b6 143e 5669 d3be 9532 c4bd c5ea d0be
00000300: 4cae efbd 60a7 133e beb2 afbe a4fa 553e
00000310: 8d49 373d eb6d 2c3e 2db4 40be b367 2ebe
00000320: 7f5c a63d 47db d33d 569e b03d fb18 d03d
00000330: c046 d3bd 7319 58be 0142 263e 59da a3bd
00000340: 6e69 083e 0c1c 72bd 50a2 bebe 6d1b 833e
00000350: f273 21bd 65d8 483e 0998 6dbe cead c5bb
00000360: d062 503e 2555 79be 9eb1 b0bc 8a56 c6bc
00000370: 1e15 063d 073a b93d c5e0 a53b f02c a93e
00000380: 6b38 1dbe 19d3 c1bd 0acc 243d 98e6 1fbd
00000390: c481 1d3d c9be 94be 451b a4bd 8670 e03e
000003a0: 820f 0c3f 21d8 5ebe 2623 9cbe cf74 d9be
000003b0: c411 d0be 1ec7 a63d 785a f43b e883 74bd
000003c0: eeba 993e 638a 61be f4fc 133e 9574 3c3e
000003d0: d205 6a3e 7691 fa3a dd04 9d3b 283b 0c3e
000003e0: 6cd8 03bd ee57 473e e88f 743e a0f2 753e
000003f0: 7aea 82bd e300 363d 522e 783c 0309 41be

gru0.bias_ih_l0 f4 [60]
0.1541583 -0.10420177 0.12424625 0.14330679 0.07071315 0.20984934 -0.17059414 -0.18265265
0.3167827 -0.111321 -0.16340204 -0.09129584 0.1636281 0.113132425 -0.028322259 0.10281904
-0.10894325 -0.04501538 0.24276713 0.08827933 -0.23172443 0.1967534 0.016334018 -0.0037230724
0.14948025 0.033500295 -0.114248075 0.09462288 0.006315747 0.082335144 -0.15780193 -0.024327902
0.17757383 -0.10049961 0.16826446 0.12515019 0.061689533 0.082847655 0.020518815 0.059151
0.12766185 0.085757375 -0.03663359 -0.12838206 -0.014543275 -0.12254094 0.1487249 -0.004694914
0.21264799 -0.08294795 -0.06430136 -0.1871569 -0.19433989 0.17203602 0.09579864 -0.19685626
-0.19619173 -0.03963154 -0.024523513 -0.26641324
00000000: acdb 1d3e bd67 d5bd d174 fe3d 04bf 123e
00000010: 0ed2 903d bfe2 563e 3bb0 2ebe 4c09 3bbe
00000020: 5831 a23e 44fc e3bd dd52 27be 50f9 babd
00000030: 208e 273e f9b1 e73d 1504 e8bc ca92 d23d
00000040: a31d dfbd 0c62 38bd f297 783e cbcb b43d
00000050: 2b49 6dbe b979 493e ebce 853c cafe 73bb
00000060: 5a11 193e 9b37 093d e5fa e9bd a4c9 c13d
00000070: 53f4 ce3b 549f a83d d496 21be 4f4b c7bc
00000080: ead5 353e bdd2 cdbd 854d 2c3e 5f27 003e
00000090: 2aae 7c3d 08ac a93d 1317 a83c 5248 723d
000000a0: cab9 023e 90a1 af3d 1a0d 16bd 9676 03be
000000b0: eb46 6ebc bff6 fabd 574b 183e cbd7 99bb
000000c0: 65c0 593e 9de0 a9bd 6eb0 83bd 0fa6 3fbe
000000d0: 0901 47be 362a 303e 1432 c43d b094 49be
000000e0: 7ce6 48be af54 22bd 89e5 c8bc 5167 88be

gru0.bias_hh_l0 f4 [60]
-0.12950836 0.1347679 -0.0013841111 0.034438577 -0.044518147 0.08041911 0.10400997 -0.16934535
0.2546848 -0.10275987 0.048210282 -0.17221631 -0.18901318 -0.026939223 0.08739186 0.07915178
0.12457369 -0.17544766 0.17910264 -0.13517363 0.07559384 0.13618298 -0.12845753 -0.17771672
0.05720732 0.18239407 0.084135644 0.20218202 -0.003469123 -0.06045268 0.1492947 -0.112729184
0.10258577 0.06824972 0.11112737 -0.21678025 -0.17713012 -0.12108742 -0.1599309 -0.0071223103
0.08559542 -0.17863862 -0.0816345 0.10143166 0.06249449 -0.10112436 0.15294546 -0.027213603
0.019559387 0.12202014 -0.0014730148 -0.018235011 -0.1164552 -0.16935612 -0.18513536 0.124429986
0.18015966 0.060480002 0.22057053 0.109619066
00000000: d79d 04be 9900 0a3e 106b b5ba 770f 0d3d
00000010: a958 36bd c6b2 a43d 2e03 d53d de68 2dbe
00000020: 0c66 823e c473 d2bd 2578 453d 7959 30be
00000030: ac8c 41be a5af dcbc 81fa b23d 541a a23d
00000040: 7e20 ff3d 8da8 33be af66 373e f56a 0abe
00000050: f1d0 9a3d 8d73 0b3e 5f8a 03be 5ffb 35be
00000060: 3952 6a3d 83c5 3a3e 4f4f ac3d ce08 4f3e
00000070: 3a5a 63bb 3b9d 77bd b6e0 183e 8fde e6bd
00000080: 7d18 d23d 82c6 8b3d bf96 e33d a4fb 5dbe
00000090: 9961 35be aefc f7bd edc4 23be 4562 e9bb
000000a0: a74c af3d 0bed 36be fd2f a7bd 67bb cf3d
000000b0: 39fa 7f3d 4a1a cfbd bc9d 1c3e 10ef debc
000000c0: 023b a03c b2e5 f93d 2d12 c1ba 9761 95bc
000000d0: 1080 eebd b16b 2dbe 2094 3dbe 26d5 fe3d
000000e0: c67b 383e e1b9 773d 3edd 613e f67f e03d

gru0.weight_ih_l1 f4 [60, 20]
-0.058373757 -0.027361304 0.13174263 0.25822058 0.1022049 0.18296117 0.28954977 -0.20184742
-0.27996084 0.10934242 -0.35049668 -0.074411325 -0.19189882 0.1565757 -0.050594363 0.06874146
-0.18868965 0.1538473 0.22515582 -0.3012333 0.14089243 0.14230074 0.18926045 0.021924457
0.13470358 -0.11701409 -0.012988614 0.17031348 -0.4588575 -0.24853104 0.029017475 -0.27434424
0.025344303 0.40355906 -0.11052955 0.21343368 -0.31226784 0.33312714 0.26190066 -0.18363102
0.023457691 0.14353943 0.40642685 -0.14843102 0.22890368 -0.10739681 -0.08862346 0.19135629
-0.24747673 -0.14806694 0.15966724 -0.08007994 0.17518997 0.185759 -0.0264219 0.19610423
0.047783934 -0.15518926 0.0436001 -0.33604184 0.25656253 0.28840432 -0.018517252 0.07516804
-0.13999353 -0.013049684 -0.16353823 0.1980356 0.043304123 0.2529828 0.17203291 0.19446227
0.56748694 -0.007934428 -0.3573043 -0.2605124 -0.13248314 0.24455367 -0.20568585 -0.33073074
-0.09284799 -0.06641668 -0.056052465 0.053939704 0.31524444 -0.20126669 0.09403784 -0.15370606
0.23149833 -0.0880761 -0.4126502 -0.05149416 0.03043435 0.28547582 0.16135755 -0.18490139
-0.026544169 0.45886576 -0.20540644 -0.26758832 0.2898008 0.2594651 0.30940402 0.23295304
0.34849584 -0.28947124 0.24011241 -0.2245902 -0.07531928 0.21811737 0.12068583 -0.07259946
0.13921516 0.37234747 0.028126651 -0.13495827 -0.3162777 -0.16476211 -0.28988114 -0.51817906
0.113389 0.45360383 0.2651582 0.14219847 0.1235056 -0.025870278 0.20690162 0.279421
0.072878525 0.13812886 -0.013013902 -0.42782292 -0.07193299 -0.014831938 -0.008410869 0.1298646
-0.22865199 -0.12920079 -0.009581365 -0.07890498 -0.039326344 0.23723902 0.2687901 0.113199025
0.006146333 -0.079092816 0.21435043 -0.2769343 -0.06286048 0.091385074 0.080016464 0.29297385
-0.11004051 0.20531547 -0.13028511 -0.11443123 0.07079239 -0.09290461 0.098389685 -0.11882806
0.056861166 0.10668368 0.15121363 0.2579204 -0.17971109 0.36044034 0.3094837 -0.0032708512
0.101677656 -0.056879796 -0.23476525 -0.10232174 0.05436156 0.3805874 -0.15724224 -0.037879933
0.009473092 0.0010381837 -0.0032988202 -0.102513336 0.14830308 0.2105567 -0.056368936 0.3171047
0.02091254 -0.08896916 -0.0633977 0.15057677 -0.09285044 -0.1283005 0.22404382 0.04476645
0.08321126 0.27782643 -0.192083 0.16711065 -0.13947003 0.01805243 0.01596825 -0.016176859
0.11215201 0.20416126 0.18940596 0.24300976 -0.1347121 -0.18469611 -0.22807646 -0.31948587
-0.35188052 -0.2931081 -0.08550753 0.3095862 0.2574713 0.20037462 -0.19854209 -0.15800956
-0.26224607 0.062497362 -0.09307258 -0.15564944 0.20742333 0.03780543 -0.07665283 -0.07519973
-0.014528102 0.030733198 -0.05870584 -0.11416549 0.27937716 -0.25044262 0.013141035 0.39368173
0.1244292 0.21023554 0.28248748 0.10940334 -0.029468045 0.08599486 -0.31302822 -0.16215888
-0.12121023 0.047682635 -0.21827051 0.30270663 0.3214631 -0.3270632 0.07299104 0.05285163
-0.21085995 0.21916284 -0.2602567 -0.36197302 0.056398295 -0.08468481 0.1602417 -0.30845276
00000000: 5219 6fbd d024 e0bc 8ae7 063e 7d35 843e
00000010: cd50 d13d 2c5a 3b3e de3f 943e 17b1 4ebe
00000020: 0757 8fbe ebee df3d 4d74 b3be f764 98bd
00000030: 2081 44be 6155 203e 093c 4fbd 53c8 8c3d
00000040: dc37 41be 268a 1d3e 3f8f 663e 403b 9abe
00000050: 1b46 103e 49b7 113e 7ecd 413e eb9a b33c
00000060: bcef 093e 15a5 efbd 32ce 54bc a866 2e3e
00000070: 5fef eabe ec7e 7ebe 0eb6 ed3c d976 8cbe
00000080: db9e cf3c 4b9f ce3e 515d e2bd 5c8e 5a3e
00000090: 92e1 9fbe a48f aa3e d817 863e c509 3cbe
000000a0: 582a c03c 00fc 123e 2e17 d03e 4dfe 17be
000000b0: ba65 6a3e dcf2 dbbd 3780 b5bd e7f2 433e
000000c0: 8a6a 7dbe dc9e 17be cf7f 233e f400 a4bd
000000d0: 0065 333e 9b37 3e3e be72 d8bc 8ccf 483e
000000e0: 16b9 433d efe9 1ebe 0596 323d ad0d acbe
000000f0: 2a5c 833e bba9 933e 7eb1 97bc b4f1 993d
00000100: 775a 0fbe 58ce 55bc 9176 27be d8c9 4a3e
00000110: aa5f 313d f686 813e 6529 303e 1e21 473e
00000120: d346 113f 67ff 01bc 97f0 b6be e261 85be
00000130: a9a9 07be 476c 7a3e 509f 52be 8a55 a9be
00000140: 1627 bebd 7805 88bd 4597 65bd e1ef 5c3d
00000150: b867 a13e db18 4ebe e996 c03d 1f65 1dbe
00000160: e60d 6d3e 3e61 b4bd e346 d3be 8aeb 52bd
00000170: 7551 f93c e329 923e ea3a 253e ca56 3dbe
00000180: 2873 d9bc 74f0 ea3e 1156 52be 5601 89be
00000190: c560 943e 9cd8 843e 346a 9e3e 3e8b 6e3e
000001a0: 0c6e b23e 9335 94be 07e0 753e f9fa 65be
000001b0: ff40 9abd 295a 5f3e 222a f73d 07af 94bd
000001c0: 6b8e 0e3e 54a4 be3e dd69 e63c 8032 0abe
000001d0: 27ef a1be 66b7 28be 4d6b 94be 62a7 04bf
000001e0: 7e38 e83d c33e e83e d1c2 873e 7a9c 113e
000001f0: 81f0 fc3d e8ed d3bc 05de 533e 4510 8f3e
00000200: 5641 953d a771 0d3e 4338 55bc 9b0b dbbe
00000210: 9a51 93bd a801 73bc becd 09bc 3afb 043e
00000220: bf23 6abe 364d 04be 28fb 1cbc ef98 a1bd
00000230: a914 21bd c9ee 723e db9e 893e e4d4 e73d
00000240: 2e67 c93b 6afb a1bd ae7e 5b3e 55ca 8dbe
00000250: ffbc 80bd 1928 bb3d acdf a33d ab00 963e
00000260: eb5c e1bd 383e 523e 7669 05be ec5a eabd
00000270: 9afb 903d c644 bebd 8880 c93d 205c f3bd
00000280: 41e7 683d f97c da3d bfd7 1a3e 250e 843e
00000290: 2f06 38be a38b b83e a674 9e3e c75b 56bb
000002a0: 603c d03d cafa 68bd 4d66 70be 0f8e d1bd
000002b0: 3aaa 5e3d 5adc c23e 1c04 21be fd27 1bbd
000002c0: 0735 1b3c aa13 883a 0531 58bb 83f2 d1bd
000002d0: c3dc 173e 2d9c 573e 1de3 66bd 8c5b a23e
000002e0: c650 ab3c 7735 b6bd a7d6 81bd cc30 1a3e
000002f0: 5f28 bebd 3561 03be be6b 653e 065d 373d
00000300: aa6a aa3d 443f 8e3e 68b1 44be 0e1f 2b3e
00000310: 3bd1 0ebe b1e2 933c d9cf 823c 5585 84bc
00000320: f4af e53d a60f 513e a3f3 413e 8dd7 783e
00000330: f8f1 09be fa20 3dbe e08c 69be a793 a3be
00000340: af29 b4be 4412 96be 921e afbd 1582 9e3e
00000350: 47d3 833e 012f 4d3e 9e4e 4bbe 42cd 21be
00000360: 1e45 86be 3cfd 7f3d d69c bebd 9162 1fbe
00000370: c866 543e ded9 1a3d 29fc 9cbd 5102 9abd
00000380: 4707 6ebc 30c4 fb3c 8975 70bd 99cf e9bd
00000390: 860a 8f3e 043a 80be 7f4d 573c a790 c93e
000003a0: bdd4 fe3d fc47 573e 33a2 903e dc0e e03d
000003b0: f866 f1bc 131e b03d 3c45 a0be fa0c 26be
000003c0: 123d f8bd de4e 433d 4e82 5fbe 5dfc 9a3e
000003d0: d096 a43e d474 a7be 547c 953d f37a 583d
000003e0: aceb 57be 396c 603e 5e40 85be 8754 b9be
000003f0: e601 673d 3b6f adbd 6616 243e 85ed 9dbe

gru0.weight_hh_l1 f4 [60, 20]
-0.010839402 -0.09122257 -0.16659626 0.14921544 -0.09658963 -0.1639775 -0.0058574914 -0.01943726
0.017640745 -0.31298774 0.012471033 -0.285712 0.18431835 0.4673943 0.007816463 -0.059512913
-0.22084185 0.071643986 -0.0029280442 -0.48492357 0.010009707 -0.15081325 -0.21996984 0.2514528
-0.2879098 0.25945398 0.012914948 0.19713062 -0.10090186 -0.089600146 -0.026739059 0.1345245
-0.098978184 0.15260956 0.12190102 0.0631257 0.19006604 0.23439863 -0.0029262863 -0.060315795
-0.12321241 -0.29927048 0.37334508 0.20920219 0.036440354 0.19221292 0.0041051246 -0.1063793
-0.37619397 0.16808206 -0.12441148 -0.043547187 -0.20454 0.11643572 0.2774389 0.08495602
0.17984584 0.12368373 0.2591984 -0.20690946 0.1391418 0.22646494 0.07082067 -0.12813099
0.40454322 0.13880001 0.11219223 -0.6885986 0.110532045 -0.15313263 0.02292475 -0.011113299
-0.015911596 0.0869344 0.007713753 0.18190128 -0.083178885 -0.3164346 0.047921117 -0.094422445
-0.10351772 0.029820766 0.42057195 0.038552523 -0.34289545 0.4336832 0.35034603 -0.14042705
-0.11131392 -0.05484835 0.2616675 -0.038953904 -0.10404861 0.28799403 -0.49494612 0.04134538
0.31928694 -0.09465048 0.35155666 -0.09970405 -0.3159399 0.013724856 -0.15652153 0.25682482
0.048095167 0.14919868 0.0932549 -0.11640448 -0.12332358 0.1016358 -0.04960025 0.09453569
-0.078070864 0.036376018 -0.13423534 0.14627549 -0.02055425 -0.115330525 0.08984035 -0.03721891
0.05396214 0.045201533 0.034290385 0.14520718 -0.23894897 -0.04829682 -0.4375689 0.28851655
-0.3223501 0.2225374 0.038139857 0.24462743 0.36370927 -0.13747603 0.15028957 0.05630276
0.0959114 0.02480524 -0.012778995 -0.10764494 -0.086011246 -0.15443695 -0.13577001 0.03550822
0.27580526 0.31078905 -0.2529758 -0.047193374 -0.17262588 0.05651681 0.07688833 -0.2852546
-0.39758852 0.38940942 -0.3015599 0.25372258 0.14941505 -0.25082794 -0.11895374 0.40441617
0.0787144 -0.22828862 -0.28768933 0.25762942 0.08709742 -0.078416444 -0.22486585 0.35349876
0.016140683 0.21091175 0.08310554 -0.19078292 -0.12655284 0.17340283 -0.120273374 -0.020577628
-0.20372257 0.08708308 0.04337796 -0.13501038 0.16408549 0.060232878 0.16268323 -0.012988012
-0.16755114 0.17239211 -0.09383167 0.17837672 -0.41878104 0.34238896 0.21234375 0.053616393
-0.013813349 -0.016457086 -0.00040087555 0.19355571 0.20665108 0.005597679 -0.120119184 -0.29184347
0.032937158 0.22526939 0.45925117 -0.20884795 -0.09898041 0.3648095 0.041967954 -0.54243374
0.21021327 -0.04376743 -0.3955649 -0.032426253 -0.27259198 -0.13910668 -0.14828807 0.33908972
0.08698998 -0.05916954 0.10009267 -0.0029839554 -0.32078865 0.14758854 0.061734103 -0.36797166
-0.07943531 -0.13912223 0.03200429 0.09789436 0.1135649 0.42238367 0.16569048 0.2012201
0.10524389 -0.027987642 0.05987058 0.07459314 0.052984316 -0.16532658 -0.14942117 0.34205547
0.018217562 0.13129131 0.001888997 0.023753844 0.071887165 0.10215446 0.35194117 -0.33915204
-0.14580435 -0.09410272 0.09012009 -0.11265089 0.44225976 0.057149388 -0.40907615 -0.08166661
00000000: bf97 31bc e6d2 babd 3698 2abe efcb 183e
00000010: c9d0 c5bd b8e9 27be 33f0 bfbb e43a 9fbc
00000020: 5383 903c ee3f a0be 4e53 4c3c d848 92be
00000030: f3bd 3c3e 4e4e ef3e 9f10 003c d0c3 73bd
00000040: 5e24 62be 15ba 923d 6ee4 3fbb e747 f8be
00000050: c1ff 233c ca6e 1abe c63f 61be 6cbe 803e
00000060: ea68 93be 27d7 843e 3899 533c 9cdc 493e
00000070: a2a5 cebd 4880 b7bd df0b dbbc cac0 093e
00000080: 13b5 cabd ae45 1c3e 3ea7 f93d 0c48 813d
00000090: aca0 423e 3206 703e f0c6 3fbb b20d 77bd
000000a0: ca56 fcbd fb39 99be 1627 bf3e 1939 563e
000000b0: 7b42 153d 77d3 443e 4884 863b 64dd d9bd
000000c0: 7f9c c0be b41d 2c3e 72cb febd 895e 32bd
000000d0: ef72 51be da75 ee3d 790c 8e3e 6cfd ad3d
000000e0: 8229 383e e54d fd3d a7b5 843e 13e0 53be
000000f0: 307b 0e3e 6de6 673e 6d0a 913d c534 03be
00000100: 4a20 cf3e 9721 0e3e 0ac5 e53d ff47 30bf
00000110: a05e e23d cdce 1cbe afcc bb3c 8e14 36bc
00000120: 0959 82bc aa0a b23d a6c3 fc3b 5444 3a3e
00000130: b159 aabd b703 a2be ef48 443d 8e60 c1bd
00000140: 1901 d4bd ae4a f43c 3555 d73e 40e9 1d3d
00000150: fe8f afbe b90b de3e 8e60 b33e 1ccc 0fbe
00000160: 8df8 e3bd aaa8 60bd 48f9 853e 218e 1fbd
00000170: 7017 d5bd f473 933e 9469 fdbe c659 293d
00000180: 9479 a33e 1cd8 c1bd 3cff b33e a331 ccbd
00000190: e0c2 a1be 38de 603c 2e47 20be 8b7e 833e
000001a0: 70ff 443d 8ac7 183e 6dfc be3d 7965 eebd
000001b0: 1391 fcbd 6e26 d03d a229 4bbd ee9b c13d
000001c0: 9ee3 9fbd 05ff 143d fd74 09be 3ec9 153e
000001d0: 6361 a8bc 6932 ecbd 38fe b73d db72 18bd
000001e0: 6807 5d3d 3e25 393d 1374 0c3d 31b1 143e
000001f0: 0aaf 74be e3d2 45bd 0809 e0be 71b8 933e
00000200: 130b a5be d8e0 633e 8a38 1c3d 9d7f 7a3e
00000210: 1a38 ba3e 84c6 0cbe 82e5 193e b99d 663d
00000220: 326d c43d 5c34 cb3c fd5e 51bc f374 dcbd
00000230: aa26 b0bd b824 1ebe 4b07 0bbe 1171 113d
00000240: 5936 8d3e be1f 9f3e 0b86 81be d74d 41bd
00000250: d7c4 30be 2c7e 673d a177 9d3d e40c 92be
00000260: b990 cbbe ac60 c73e 0f66 9abe ede7 813e
00000270: 4200 193e 856c 80be 059e f3bd a30f cf3e
00000280: 0435 a13d 7ec4 69be 044c 93be 01e8 833e
00000290: 2260 b23d cd98 a0bd 3c43 66be cafd b43e
000002a0: 7739 843c 40f9 573e 3d33 aa3d 995c 43be
000002b0: 1197 01be 8390 313e e351 f6bd 6a92 a8bc
000002c0: a69c 50be 9d58 b23d 16ad 313d 2940 0abe
000002d0: 0706 283e c0b6 763d 6f96 263e accb 54bc
000002e0: 8792 2bbe 8f87 303e d22a c0bd 63a8 363e
000002f0: 786a d6be 9b4d af3e a470 593e dd9c 5b3d
00000300: 6351 62bc 03d1 86bc 9b2c d2b9 7833 463e
00000310: 579c 533e bc6c b73b 0c01 f6bd 826c 95be
00000320: 1de9 063d 05ad 663e f822 eb3e 3ddc 55be
00000330: 3eb6 cabd 50c8 ba3e 97e6 2b3d f0dc 0abf
00000340: 2642 573e 7a45 33bd 7c87 cabe 64d1 04bd
00000350: 2d91 8bbe fb71 0ebe d4d8 17be 2b9d ad3e
00000360: cd27 b23d c25b 72bd 63fd cc3d 778e 43bb
00000370: 693e a4be 7321 173e e6dc 7c3d c866 bcbe
00000380: fbae a2bd 0f76 0ebe ee16 033d d77c c83d
00000390: b794 e83d ac42 d83e c4aa 293e a40c 4e3e
000003a0: 1c8a d73d 5746 e5bc da3a 753d 4ac4 983d
000003b0: 1506 593d 5f4b 29be dd01 19be e521 af3e
000003c0: ff3c 953c 3b71 063e 3998 f73a 6c97 c23c
000003d0: 9439 933d 5c36 d13d a231 b43e 56a5 adbe
000003e0: bc4d 15be edb8 c0bd e290 b83d 83b5 e6bd
000003f0: df6f e23e 7a15 6a3d 6e72 d1be d340 a7bd

gru0.bias_ih_l1 f4 [60]
0.24245872 0.30221498 0.064842254 0.013913199 0.0037690494 0.3179767 0.16907792 0.33239523
0.1232042 0.3081511 0.40347612 0.2718865 -0.051671244 0.0077521997 -0.08262449 0.2654888
-0.030790344 0.21097514 0.115214325 0.0805562 0.27165806 -0.07109062 -0.17425156 -0.17107049
-0.120380014 -0.0973876 -0.35188225 -0.07245839 -0.026766105 0.06736924 -0.12967055 0.0039581247
-0.10858681 -0.3127881 -0.0036764233 0.11369057 -0.05961883 -0.058028776 -0.14452009 -0.11051683
0.14935328 0.14877678 -0.13716093 0.028687453 0.006654822 -0.18192518 -0.12543347 -0.09103174
-0.15156795 0.07372071 0.06777132 -0.060041916 -0.1784547 0.070862584 0.063453905 0.18956614
-0.22421822 -0.066685446 -0.0012199131 0.071472384
00000000: 1947 783e ecbb 9a3e 04cc 843d 30f4 633c
00000010: 2802 773b d8cd a23e c322 2d3e b52f aa3e
00000020: 7c52 fc3d fbc5 9d3e 6c94 ce3e b534 8b3e
00000030: 3aa5 53bd 2a06 fe3b 0737 a9bd 26ee 873e
00000040: 083c fcbc de09 583e 7df5 eb3d a6fa a43d
00000050: c416 8b3e f597 91bd 006f 32be 1a2d 2fbe
00000060: cc89 f6bd 2673 c7bd e929 b4be 1065 94bd
00000070: 9744 dbbc e2f8 893d 5bc8 04be 28b3 813b
00000080: c362 debd c325 a0be 26f0 70bb 9ad6 e83d
00000090: e032 74bd 95af 6dbd 13fd 13be a656 e2bd
000000a0: 11f0 183e f158 183e ea73 0cbe f301 eb3c
000000b0: b110 da3b 984a 3abe a271 00be d96e babd
000000c0: a134 1bbe e2fa 963d b1cb 8a3d 83ee 75bd
000000d0: d4bc 36be 6720 913d 1ff4 813d a01d 423e
000000e0: 7699 65be 6192 88bd 7ee5 9fba 1d60 923d

gru0.bias_hh_l1 f4 [60]
-0.04096441 0.37527782 0.28842917 -0.019677915 -0.022877542 0.38422316 0.08173871 0.16795191
0.29042014 0.09664364 0.07071235 -0.08846387 0.289005 -0.033852372 0.27840927 -0.045990176
0.3646826 0.32159042 0.39419088 0.20196448 -0.13307466 -0.18367016 -0.1734738 0.104979366
-0.24165305 -0.11007763 -0.26946333 -0.23874879 0.036640905 -0.21316093 -0.0123955365 0.1620318
-0.2178811 -0.12957501 0.05951721 0.035665788 -0.2046255 -0.45669782 0.123232916 -0.3376997
-0.06628547 -0.037644975 0.254973 -0.07957031 0.060674764 0.1303216 0.07511769 -0.032630414
-0.27889127 0.19498937 -0.15331888 -0.13269235 0.031511903 0.20652081 0.2537417 -0.043217756
0.14573812 -0.17355368 0.10742673 -0.1592043
00000000: 4cca 27bd 6a24 c03e fdac 933e 9433 a1bc
00000010: af69 bbbc e6b8 c43e a066 a73d 96fb 2b3e
00000020: f3b1 943e 1aed c53d a3d1 903d 8c2c b5bd
00000030: 77f8 933e c9a8 0abd a98b 8e3e 3260 3cbd
00000040: aeb7 ba3e 80a7 a43e 63d3 c93e c7cf 4e3e
00000050: b944 08be 0814 3cbe 1ea3 31be 6cff d63d
00000060: e673 77be 6170 e1bd 19f7 89be 907a 74be
00000070: c614 163d dc46 5abe a616 4bbc aaeb 253e
00000080: 391c 5fbe 50af 04be 51c8 733d 4a16 123d
00000090: 5989 51be 4cd4 e9be 8a61 fc3d fae6 acbe
000000a0: adc0 87bd 9e31 1abd d28b 823e c2f5 a2bd
000000b0: 1a86 783d 0773 053e 4ed7 993d 78a7 05bd
000000c0: d6ca 8ebe 4bab 473e a0ff 1cbe 81e0 07be
000000d0: a012 013d 317a 533e 6fea 813e 1a05 31bd
000000e0: 603c 153e 0eb8 31be 8c02 dc3d 7406 23be

gru1.weight_ih_l0 f4 [30, 20]
0.22258615 -0.1065257 -0.43438265 0.34801307 -0.02607635 -0.6862048 -0.14589341 0.16461837
0.16556379 -0.12285095 0.07349976 0.05539755 0.38128504 0.26700643 0.35726434 -0.08029183
-0.062484145 -0.04182962 -0.23315613 -0.28984594 0.23515898 -0.16761626 -0.055306006 0.3586258
0.36384025 -0.33415294 -0.20010568 0.33287933 -0.40548903 0.038986232 -0.03479876 -0.1580051
0.013136292 0.05801806 0.540531 0.2553903 0.1918502 0.68884254 -0.2370151 -0.11737979
-0.026907252 0.11025645 -0.026968515 0.0755427 0.38910306 -0.5314485 -0.25235724 0.20622334
-0.15465751 -0.0057818177 -0.32147688 -0.5253797 -0.45937166 0.0478738 0.38517246 -0.16230428
0.24058597 0.26500577 -0.4019021 -0.54758173 -0.0030073894 0.2279588 -0.33243454 -0.18061678
-0.24727851 -0.11372903 -0.12314856 0.10413685 -0.19362547 -0.28535116 -0.14837898 0.22445393
0.13671933 0.25772008 0.11145879 -0.22117506 -0.43777102 -0.023689484 -0.13358688 -0.21701472
0.6067388 -0.5033263 -0.15655224 -0.21554708 -0.29419717 0.22051598 -0.235982 -0.15200081
0.06087672 -0.13720956 -0.35126698 0.0048089214 -0.5030318 -0.65185803 0.5385177 -0.13257954
0.46450412 0.056850884 -0.100012444 -0.110877365 0.0710962 0.36308563 0.16481768 -0.6214021
0.06001462 0.75600153 0.7273863 -0.35409427 -0.26573437 -0.15838291 -0.20330586 -0.2044424
0.029740453 0.294458 -0.112597875 0.77343166 0.2288519 0.09982589 0.3767029 0.08087533
-0.14263092 -0.250769 0.13567613 0.6365359 -0.6176393 0.048293 -0.31703863 -0.0077787824
-0.76183915 -0.42114857 -0.03669747 -0.011841666 0.19364497 0.14667077 0.31100383 -0.29360905
-0.08516014 0.24815269 0.06274934 -1.0039982 0.109408826 0.20950077 -0.12950304 0.29247344
0.005123027 0.06729274 0.22529143 -0.34583768 -0.4066117 -0.2865835 -0.014350321 -0.2785049
0.36347723 0.1437935 -0.5199051 0.34263766 -0.049657397 -0.44075483 -0.110334985 -0.01967862
0.24792193 0.1613389 -0.027971426 -0.32200295 0.5530693 0.08265666 0.21288104 -0.3397378
0.04858727 -0.34076914 0.16741605 -0.12695135 0.048198406 0.55401844 0.18080238 0.47762346
0.34622067 0.07154638 -0.14136362 0.5470818 0.10919863 -0.29024574 -0.13435672 -0.31470016
0.34487578 0.50886285 0.06731775 0.045490224 -0.47200328 0.28469992 0.2983334 -0.48128545
0.39167094 0.37695155 -0.25697052 -0.27422932 0.42991385 -0.31185526 0.013788501 0.28256705
-0.40512067 -0.22679986 -0.19822757 -0.13594463 -0.03919407 -0.37464118 -0.42284456 0.43155265
0.26891825 0.24421807 -0.006376163 0.09689657 0.22223808 -0.06562068 -0.5903683 -0.3755115
-0.07208943 0.36704883 -0.09490193 0.3560254 0.08557477 -0.43726304 -0.288127 -0.15462857
-0.2714024 0.051472303 -0.11093692 0.47016346 0.17759475 0.29794648 0.20202304 0.35550153
-0.06909993 -0.44445506 -0.485242 -0.21213137 -0.0782653 0.41729924 -0.3253012 0.2952305
-0.5580583 0.03491173 -0.11245952 0.1820139 -0.27538458 -0.00450746 0.26559398 0.26522657
0.15178294 0.028563062 -0.41313118 -0.058787238 0.14517258 0.14073756 -0.4092161 -0.35751522
00000000: a0ed 633e 252a dabd 6767 debe c52e b23e
00000010: 129e d5bc 1eab 2fbf 1565 15be b891 283e
00000020: 8e89 293e 4799 fbbd 0b87 963d 8be8 623d
00000030: cb37 c33e 11b5 883e 5aeb b63e 0b70 a4bd
00000040: 60ef 7fbd 8955 2bbd 7bc0 6ebe b066 94be
00000050: 84cd 703e 99a3 2bbe 8d88 62bd cd9d b73e
00000060: 4549 ba3e 1816 abbe 81e8 4cbe 296f aa3e
00000070: 429c cfbe 07b0 1f3d 2589 0ebd 17cc 21be
00000080: 9a39 573c 58a4 6d3d 3d60 0a3f 84c2 823e
00000090: 6174 443e fc57 303f 16b4 72be d164 f0bd
000000a0: 996c dcbc 22ce e13d 13ed dcbc 22b6 9a3d
000000b0: 8438 c73e 020d 08bf f834 81be 362c 533e
000000c0: 8a5e 1ebe 6775 bdbb 9e98 a4be 497f 06bf
000000d0: c332 ebbe 5117 443d 5335 c53e 1833 26be
000000e0: 2b5c 763e d6ae 873e 1dc6 cdbe 512e 0cbf
000000f0: 9f17 45bb 086e 693e dc34 aabe 9bf3 38be
00000100: 9436 7dbe c4ea e8bd 5035 fcbd b345 d53d
00000110: c145 46be 8c19 92be a9f0 17be 40d7 653e
00000120: 2700 0c3e e3f3 833e 8244 e43d b77b 62be
00000130: 8623 e0be 7310 c2bc 00cb 08be 1b39 5ebe
00000140: 3c53 1b3f fed9 00bf 3b4f 20be 60b8 5cbe
00000150: 03a1 96be f1ce 613e 44a5 71be 1aa6 1bbe
00000160: de59 793d aa80 0cbe 44d9 b3be 2894 9d3b
00000170: b1c6 00bf 2be0 26bf 4cdc 093f eec2 07be
00000180: 7cd3 ed3e 79dc 683d 53d3 ccbd ac13 e3bd
00000190: e29a 913d 5ce6 b93e f7c5 283e 3514 1fbf
000001a0: e4d1 753d 5189 413f fd35 3a3f d84b b5be
000001b0: 560e 88be 212f 22be 692f 50be 5959 51be
000001c0: 40a2 f33c 33c3 963e b799 e6bd 9eff 453f
000001d0: 2758 6a3e 8471 cc3d 34df c03e f7a1 a53d
000001e0: d70d 12be cb64 80be afee 0a3e 04f4 223f
000001f0: 9c1d 1ebf e1ce 453d e352 a2be 28e5 febb
00000200: e407 43bf c9a0 d7be 1650 16bd 8c03 42bc
00000210: de4a 463e dd30 163e e53b 9f3e ed53 96be
00000220: 7168 aebd bd1b 7e3e ba82 803d 0383 80bf
00000230: bc11 e03d 5f87 563e 729c 04be 14bf 953e
00000240: 11df a73b c7d0 893d ccb2 663e a311 b1be
00000250: 692f d0be 13bb 92be 9c1d 6bbc 3298 8ebe
00000260: b019 ba3e 9a3e 133e 8018 05bf 346e af3e
00000270: 8e65 4bbd 9eaa e1be 4ff7 e1bd 0f35 a1bc
00000280: 3fdf 7d3e 0636 253e 5524 e5bc 92dd a4be
00000290: f395 0d3f e547 a93d 7dfd 593e 1df2 adbe
000002a0: 7203 473d 4b79 aebe 1d6f 2b3e 89ff 01be
000002b0: b16b 453d 27d4 0d3f 4224 393e 108b f43e
000002c0: d643 b13e e986 923d a0c1 10be 8e0d 0c3f
000002d0: 88a3 df3d 179b 94be cf94 09be 6120 a1be
000002e0: 8f93 b03e d644 023f e3dd 893d f553 3a3d
000002f0: 6aaa f1be 30c4 913e 28bf 983e 0c6b f6be
00000300: 1889 c83e cbff c03e a491 83be c967 8cbe
00000310: ab1d dc3e 7eab 9fbe 2ae9 613c a1ac 903e
00000320: fa6b cfbe 393e 68be 2bfc 4abe 1235 0bbe
00000330: f689 20bd f8d0 bfbe 157f d8be 78f4 dc3e
00000340: a7af 893e 4d14 7a3e 22ef d0bb b571 c63d
00000350: 6192 633e 2364 86bd 6022 17bf 0b43 c0be
00000360: a0a3 93bd d3ed bb3e f15b c2bd f648 b63e
00000370: d341 af3d f1e0 dfbe 6285 93be f456 1ebe
00000380: 41f5 8abe 9fd4 523d e532 e3bd 44b9 f03e
00000390: 66db 353e 718c 983e 21df 4e3e 4c04 b63e
000003a0: 4484 8dbd 9d8f e3be a471 f8be f738 59be
000003b0: 8f49 a0bd 3fa8 d53e e18d a6be 7428 973e
000003c0: e9dc 0ebf 9aff 0e3d 2d51 e6bd da61 3a3e
000003d0: 35ff 8cbe 51b3 93bb effb 873e c7cb 873e
000003e0: fd6c 1b3e 15fd e93c ee85 d3be e3ca 70bd
000003f0: 1fa8 143e 821d 103e c684 d1be 3c0c b7be

gru1.weight_hh_l0 f4 [30, 10]
-0.2995475 -0.18024975 0.29153824 -0.0753361 -0.05011849 -0.09795284 -0.017694974 0.019100806
-0.460274 0.0852671 -0.2176771 -0.089141965 0.41257316 0.07018653 0.025862692 0.12921944
-0.07701091 0.17013866 -0.09956644 0.5469956 -0.13195378 -0.0149879325 0.45167166 -0.09969586
-0.14714105 -0.25856265 -0.079503044 0.08911539 -0.5385268 0.03530429 -0.41824117 0.06742242
0.08198468 -0.054586075 0.19267593 -0.33733985 -0.23523195 -0.0633889 -0.12267008 0.3045689
0.22386497 0.19315411 0.21924457 0.24085376 -0.83927935 -0.32343107 -0.023298295 -0.3663392
-0.27839318 0.15148632 0.59826475 -0.7320075 0.14951476 -0.025837017 -0.032411255 0.7058662
0.011077726 0.6505916 0.24765573 -0.12718575 -0.10763687 0.04762119 0.3232552 0.085413225
-0.058654733 0.022078034 -0.5807153 0.5440089 -0.37660965 0.22287364 0.015281876 -0.043884873
0.31818596 -0.5603986 0.37403753 0.2370731 -0.13241939 0.120258704 0.12883441 -0.25552636
-0.100111425 -0.35549024 0.03348725 -0.26988998 0.23959863 -0.24137235 0.35577855 0.41141617
0.06271045 0.27397558 0.4432626 0.033243537 -0.78643817 0.40767092 -0.49255738 0.09881186
0.16711394 0.616256 0.28213167 0.3402993 0.28109017 0.042907592 0.05801351 0.22044495
0.0126897395 -0.29820704 -0.025405874 -0.10302832 0.42548335 -0.03704946 -0.01443686 -0.046315283
-0.23877846 -0.0033997137 -0.2166691 -0.23483269 -0.09172661 0.05906893 0.17045365 -0.052292176
0.37884417 0.12973212 0.0792476 -0.07956337 -0.28325436 0.20247485 -0.07197287 -0.045468993
-0.055350054 -0.20690481 0.17214623 -0.19748774 -0.045189787 -0.09365091 -0.14448826 0.16985457
-0.3506029 -0.3119348 -0.021234803 -0.058485467 0.051390365 -0.12978604 0.2437834 -0.17382975
-0.064618185 -0.05081227 -0.27253696 0.40742323 -0.17824699 -0.26822433 -0.30863798 -0.414333
-0.078522265 0.11185424 0.20868924 0.24877173 -0.0716214 0.3146566 -0.30747834 0.11430055
-0.18433808 0.14024909 0.037168317 -0.2235206 0.11846281 0.29230788 0.15625602 0.080584414
-0.05146974 0.19895884 -0.10674578 -0.12672257 -0.05166407 0.20723061 0.13056497 0.014885576
-0.2245047 0.37770608 -0.09293886 0.4493512 -0.41603392 0.01414127 -0.17289346 0.14557362
-0.2577523 -0.32026997 0.48241195 -0.088543326 -0.079320766 -0.16108136 -0.14429815 -0.030574165
0.08478633 -0.12091528 -0.20100658 0.021841263 0.019668603 -0.014720622 -0.0656202 -0.239573
0.6046697 0.02901734 0.091340445 0.164588 0.3353766 -0.09636125 0.046662215 -0.5453077
0.45450336 -0.018008094 -0.14963076 0.5492842 0.19978125 0.09290424 -0.5298536 -0.66995627
-0.09577955 0.013632215 -0.16413069 -0.22121616 0.46467566 -0.23733906 0.8669612 -0.48356912
0.3995038 0.22903937 -0.3930571 -0.47880393 0.1356619 -0.17780381 -0.31218275 -0.0046331906
-0.6051171 0.6119798 -0.1689343 -0.32528082 0.57081777 0.16313922 0.39281934 0.13163573
-0.24404317 0.20452118 0.3246398 -0.7089936 0.5890537 -0.2315105 -0.15192749 -0.26483315
-0.22121847 0.018903852 -0.06041353 -0.0031185134 -0.11071722 -0.010854111 0.33062154 0.5543596
00000000: 4a5e 99be 6493 38be 8044 953e d049 9abd
00000010: 0c49 4dbd 809b c8bd 0df5 90bc 4b79 9c3c
00000020: 09a9 ebbe 84a0 ae3d bfe6 5ebe 1090 b6bd
00000030: ca3c d33e f5bd 8f3d ffdd d33c 1a52 043e
00000040: e5b7 9dbd d438 2e3e 7de9 cbbd e707 0c3f
00000050: e41e 07be f28f 75bc 8241 e73e 582d ccbd
00000060: 25ac 16be 5362 84be 7ed2 a2bd 2182 b63d
00000070: e4dc 09bf 3b9b 103d b523 d6be c414 8a3d
00000080: 95e7 a73d a695 5fbd d74c 453e cfb7 acbe
00000090: a5e0 70be 0ad2 81bd 733a fbbd 74f0 9b3e
000000a0: dc3c 653e 31ca 453e a681 603e 5ea2 763e
000000b0: 03db 56bf c298 a5be 11dc bebc d090 bbbe
000000c0: 8d89 8ebe 3b1f 1b3e e127 193f d864 3bbf
000000d0: 661a 193e 27a8 d3bc aac1 04bd a6b3 343f
000000e0: 5a7f 353c 2c8d 263f 7799 7d3e fb3c 02be
000000f0: b870 dcbd 700e 433d b581 a53e 21ed ae3d
00000100: f23f 70bd fedc b43c c2a9 14bf 2b44 0b3f
00000110: fbd2 c0be fd38 643e d560 7a3c a0c0 33bd
00000120: 45e9 a23e 4876 0fbf d981 bf3e 4ac3 723e
00000130: f398 07be 324a f63d 2bed 033e 5ad4 82be
00000140: 3807 cdbd d102 b6be ed29 093d 052f 8abe
00000150: 5859 753e 502a 77be 9b28 b63e 24a5 d23e
00000160: 566e 803d 8746 8c3e 51f3 e23e 602a 083d
00000170: 0354 49bf 3eba d03e 7b30 fcbe df5d ca3d
00000180: eb1f 2b3e f4c2 1d3f 9073 903e b63b ae3e
00000190: 0deb 8f3e dfbf 2f3d 939f 6d3d 52bc 613e
000001a0: a0e8 4f3c 98ae 98be fb1f d0bc 8300 d3bd
000001b0: f4d8 d93e 2dc1 17bd 9488 6cbc 18b5 3dbd
000001c0: 5782 74be bbcd 5ebb 81de 5dbe fb77 70be
000001d0: 29db bbbd 43f2 713d 678b 2e3e 5230 56bd
000001e0: ddf7 c13e 7fd8 043e 914c a23d 1ff2 a2bd
000001f0: b706 91be 9155 4f3e 8366 93bd b23d 3abd
00000200: bdb6 62bd dbde 53be 1a47 303e 3a3a 4abe
00000210: ed18 39bd 0ccc bfbd bbf4 13be 5bee 2d3e
00000220: 3982 b3be ebb5 9fbe 9cf4 adbc 758e 6fbd
00000230: b47e 523d a2e6 04be 5ba2 793e 6d00 32be
00000240: 8a56 84bd 8720 50bd f789 8bbe c799 d03e
00000250: 6186 36be b354 89be cc05 9ebe 7423 d4be
00000260: 48d0 a0bd d613 e53d a2b2 553e 04be 7e3e
00000270: 3eae 92bd ab1a a13e cd6d 9dbe 6816 ea3d
00000280: 1fc3 3cbe 759d 0f3e ce3d 183d 96e2 64be
00000290: a19c f23d 61a9 953e 9401 203e 7109 a53d
000002a0: efd1 52bd debb 4b3e 889d dabd 90c3 01be
000002b0: b49d 53bd 4334 543e d3b2 053e a2e2 733c
000002c0: 8fe4 65be b162 c13e bb56 bebd 5c11 e63e
000002d0: 6602 d5be c9b0 673c fc0a 31be 4011 153e
000002e0: 1cf8 83be 6dfa a3be b3fe f63e 3456 b5bd
000002f0: ed72 a2bd 83f2 24be e5c2 13be ac76 fabc
00000300: 75a4 ad3d 6ea2 f7bd abd4 4dbe 73ec b23c
00000310: 0d20 a13c c42e 71bc e263 86bd a052 75be
00000320: a2cb 1a3f c6b5 ed3c b310 bb3d c289 283e
00000330: 7bb6 ab3e 0c59 c5bd e120 3f3d 4999 0bbf
00000340: aab4 e83e b685 93bc ce38 19be e49d 0c3f
00000350: 7593 4c3e 9444 be3d 7ca4 07bf 4182 2bbf
00000360: 1228 c4bd a759 5f3c e011 28be 7d86 62be
00000370: f8e9 ed3e 0309 73be 2bf1 5d3f 5f96 f7be
00000380: c38b cc3e 4c89 6a3e c83e c9be ca25 f5be
00000390: f4ea 0a3e 3412 36be 6bd6 9fbe 05d2 97bb
000003a0: f4e8 1abf b5aa 1c3f 1dfd 2cbe 358b a6be
000003b0: 1d21 123f f80d 273e 9e1f c93e 84cb 063e
000003c0: 74e6 79be 006e 513e 3037 a63e 9b80 35bf
000003d0: 39cc 163f 1711 6dbe e192 1bbe 3698 87be
000003e0: 1887 62be 40dc 9a3c 2d74 77bd f95f 4cbb
000003f0: b6bf e2bd 71d5 31bc 3a47 a93e 83ea 0d3f

gru1.bias_ih_l0 f4 [30]
0.014058654 0.36311734 0.3296522 -0.030990507 0.5789026 0.53880614 0.32034838 0.3447202
0.18162926 -0.048484895 -0.040560577 -0.3261379 -0.40532523 -0.5277452 -0.12262795 -0.30745298
-0.7538847 -0.19258839 -0.38350412 -0.42848897 -0.092844784 -0.1540557 0.04999004 0.24065134
0.23722333 -0.095202506 0.30898106 -0.13070115 -0.1692722 -0.21828365
00000000: 4556 663c 84ea b93e 2cc8 a83e cedf fdbc
00000010: f632 143f 33ef 093f b404 a43e 2b7f b03e
00000020: 05fd 393e 1998 46bd d922 26bd 8cfb a6be
00000030: ca86 cfbe 4f1a 07bf 5d24 fbbd 7a6a 9dbe
00000040: 96fe 40bf e435 45be a75a c4be e862 dbbe
00000050: 6825 bebd c7c0 1dbe 5bc2 4c3d 4e6d 763e
00000060: acea 723e 88f9 c2bd c432 9e3e 86d6 05be
00000070: b155 2dbe c085 5fbe

gru1.bias_hh_l0 f4 [30]
0.1776879 0.41344494 0.19021615 0.118650354 0.54112345 0.24833079 0.5646836 0.049448576
0.107520595 -0.041558243 -0.29097897 -0.31744292 -0.24073528 -0.300458 -0.526088 0.043616638
-0.30069065 -0.53622043 -0.50902677 -0.36724046 -0.22316577 0.2338307 -0.07793742 -0.324855
-0.14417295 0.16702469 -0.18683605 -0.027098395 -0.16013736 0.33362865
00000000: d1f3 353e 0eaf d33e 06c8 423e f5fe f23d
00000010: 1187 0a3f 6d4a 7e3e 1b8f 103f 978a 4a3d
00000020: c233 dc3d fa38 2abd 32fb 94be e187 a2be
00000030: 4f83 76be a2d5 99be b4ad 06bf 5ca7 323d
00000040: 20f4 99be be45 09bf 944f 02bf f106 bcbe
00000050: 9185 64be 5171 6f3e a79d 9fbd 6553 a6be
00000060: 13a2 13be 8508 2b3e f351 3fbe 74fd ddbc
00000070: 0cfb 23be 60d1 aa3e

lin0.weight f4 [15, 10]
-0.57664686 0.77909243 0.42146766 -0.46408844 0.3959238 -0.7597182 -0.26948664 0.5325391
-0.5221825 0.38814417 0.3624783 -0.62815374 0.5555708 -0.414769 0.38406122 -0.7596252
0.50830626 -0.57061225 -0.48585048 -0.42529756 0.6795767 -0.3727403 0.558178 -0.3016832
0.27476993 0.4237535 -0.62705606 0.6067988 -0.47568968 0.80001825 -0.6224239 -0.39622664
0.5110982 -0.4378794 0.3630937 -0.7383583 -0.5615407 -0.77924514 -0.48830962 -0.53940356
-0.45276996 -0.34729984 -0.68385786 -0.44324696 0.38524264 -0.6919386 0.5663826 0.62809366
-0.5167695 0.6486634 0.23810956 0.6526209 0.5895942 0.5789063 -0.613933 0.2782472
-0.54089063 -0.31785074 0.3221699 -0.4517897 -0.47331095 0.69525135 -0.6401586 0.73156196
-0.7015496 -0.5234885 0.5891436 0.7480922 -0.56477976 0.7755663 0.5339673 0.6894669
-0.7283491 -0.49301776 0.4523263 0.43668202 -0.51230115 0.6961004 0.30275187 -0.6708328
0.5847013 -0.5313003 -0.14911544 -0.33619556 0.3481826 0.26024443 0.6246277 0.6879506
0.7430027 0.75691915 -0.6853495 0.72964114 -0.56664914 0.62259626 -0.4729076 -0.70418197
0.5760304 -0.61278176 -0.35144183 -0.5791566 0.38038805 -0.48583654 -0.7848303 0.5864604
0.66397554 0.2792125 0.59734064 -0.5544902 0.5049354 -0.54095674 -0.5526375 -0.5751813
0.5593629 -0.37586972 0.2783865 0.28395307 -0.62281156 0.61354655 -0.59460187 0.15522054
0.3864981 0.6300131 0.43709815 0.5325659 -0.60078585 0.38792026 -0.589166 -0.46331525
0.4417386 -0.38517094 0.48412153 -0.7029114 -0.7514476 0.51301426 -0.7840686 0.2734705
0.6371236 -0.5121329 0.5269867 -0.4146035 0.4835708 0.32935235 0.66896224 0.5641484
-0.6115258 -0.4110311 0.84195215 -0.31880078 0.50174457 -0.35707587
00000000: 219f 13bf 9a72 473f 9cca d73e 009d edbe
00000010: 86b6 ca3e e47c 42bf 27fa 89be 7c54 083f
00000020: c1ad 05bf d5ba c63e c196 b93e afce 20bf
00000030: e339 0e3f 9a5c d4be aca3 c43e cc76 42bf
00000040: 5c20 023f a513 12bf 65c1 f8be 9ac0 d9be
00000050: bdf8 2d3f d1d7 bebe c1e4 0e3f 3876 9abe
00000060: a5ae 8c3e 38f6 d83e bf86 20bf 2b57 1b3f
00000070: 998d f3be ffcd 4c3f 2c57 1fbf 38de cabe
00000080: 55d7 023f bb31 e0be 6be7 b93e 0d05 3dbf
00000090: 22c1 0fbf 9c7c 47bf b803 fabe 5a16 0abf
000000a0: 77d1 e7be 49d1 b1be 4f11 2fbf 44f1 e2be
000000b0: 863e c53e e322 31bf 73fe 103f bfca 203f
000000c0: 024b 04bf ce0e 263f fed2 733e 2a12 273f
000000d0: a5ef 163f 3433 143f b72a 1dbf 6b76 8e3e
000000e0: cf77 0abf 55bd a2be 74f3 a43e fb50 e7be
000000f0: d055 f2be fefb 313f 6fe1 23bf a547 3b3f
00000100: c198 33bf 5803 06bf 1dd2 163f f882 3f3f
00000110: 6895 10bf 838b 463f 15b2 083f e780 303f
00000120: 1675 3abf d36c fcbe 5097 e73e c994 df3e
00000130: 2b26 03bf a333 323f 4b02 9b3e b3bb 2bbf
00000140: fcae 153f 4c03 08bf b8b1 18be d321 acbe
00000150: fd44 b23e c23e 853e 9ae7 1f3f 881d 303f
00000160: 6d35 3e3f 74c5 413f 1173 2fbf c3c9 3a3f
00000170: eb0f 11bf 7862 1f3f f220 f2be 4545 34bf
00000180: ba76 133f 44df 1cbf 2ff0 b3be 9b43 14bf
00000190: 39c2 c23e 91bf f8be a3ea 48bf 4522 163f
000001a0: 4dfa 293f f1f4 8e3e 51eb 183f 12f3 0dbf
000001b0: 7243 013f 247c 0abf a779 0dbf 153f 13bf
000001c0: 6832 0f3f ff71 c0be ad88 8e3e 4c62 913e
000001d0: 9470 1fbf 6311 1d3f d437 18bf 22f2 1e3e
000001e0: 14e3 c53e 8a48 213f 54cb df3e 3d56 083f
000001f0: 1acd 19bf 7c9d c63e 95d3 16bf a837 edbe
00000200: 902b e23e 2035 c5be c7de f73e 00f2 33bf
00000210: df5e 40bf e754 033f b8b8 48bf 5304 8c3e
00000220: 881a 233f 241b 03bf 9ae8 063f e946 d4be
00000230: 9896 f73e dfa0 a83e 1c41 2b3f 086c 103f
00000240: f48c 1cbf ab72 d2be 2d8a 573f db39 a3be
00000250: 5572 003f a6d2 b6be

lin0.bias f4 [15]
0.28267252 0.08984466 0.0011895521 -0.08532013 0.123597875 0.1788636 -0.0811538 -0.15704836
0.1597959 -0.0089225 -0.09642782 0.034797423 0.06156268 -0.23589885 0.21270294
00000000: 74ba 903e 7a00 b83d bfea 9b3a 52bc aebd
00000010: e220 fd3d 0528 373e f733 a6bd 49d1 20be
00000020: 89a1 233e ad2f 12bc f37b c5bd be87 0e3d
00000030: 2629 7c3d 788f 71be cdce 593e
