saved/bert_classifier_base_gru_blind_user_20_120/limu_gru_v1.pt (torch, 252991 bytes, 35 tensors)

transformer.embed.lin.weight f4 [72, 6]
-0.24279392 -0.0011633259 -0.07122925 -0.05136881 -0.39753842 -0.08195182 -0.3992794 0.4018631
-0.09895319 -0.2317686 0.09260087 0.49372777 -0.2582204 0.5110517 0.04960303 -0.06141411
-0.4705511 0.5334283 -0.020962603 0.3304852 0.27243865 -0.30495396 -0.48380527 0.54978967
0.01493109 0.122543976 0.43349072 0.22247636 0.46155986 0.34502122 -0.49614188 0.051202275
-0.20346104 0.13295124 -0.36053598 -0.27027974 -0.4193569 0.21603873 -0.19295555 0.3483132
0.21734664 0.105982356 0.65341014 -0.09152602 -0.015406721 0.03714095 0.002893645 -0.08179071
-0.046218276 -0.006108068 0.12293486 0.24838169 0.487925 -0.36765644 0.5687032 -0.46806508
0.17958252 0.06547253 -0.32756793 0.47608235 0.21117409 -0.24387379 -0.059504304 -0.13163327
0.011172369 0.31347182 -0.3973313 -0.20663668 -0.41532895 0.17858285 -0.21676505 -0.19750571
0.2212411 -0.11589001 -0.015112137 0.40401295 -0.20945415 -0.1489471 0.09118182 0.45816186
0.011343628 -0.5204623 -0.06033616 -0.3977516 0.4431793 0.3610791 0.07536169 0.5028089
-0.06822473 -0.14243615 -0.40750495 -0.36944374 0.16634797 -0.18722148 -0.14788146 -0.2608472
-0.17568415 0.25603184 -0.12418641 -0.4927562 0.23980843 -0.4303332 0.20312104 -0.508685
-0.33030534 0.52514327 -0.3677746 -0.3981454 -0.11460967 0.17600662 0.059387345 -0.4526912
0.63604796 -0.38949123 0.013836764 -0.1679581 0.14734025 0.1196193 -0.5921475 -0.113816716
0.012931654 0.37686086 -0.34420246 -0.35037637 0.20056456 -0.19825129 0.14991775 -0.24914537
-0.029109636 0.18676253 0.17656858 -0.66102785 0.03695384 -0.23174219 0.21940249 -0.19157493
-0.037925247 -0.06651705 -0.2501375 -0.013115429 -0.07402933 -0.35769156 0.114059284 0.48094663
-0.14419946 0.29144952 -0.20810248 0.14408095 -0.15953016 0.036071032 -0.4178729 -0.38833463
0.054350782 -0.12348772 0.18010087 0.53757507 -0.24429783 0.532338 0.18555512 -0.11458596
-0.47813606 0.44976676 0.121293165 -0.013520036 0.08296047 -0.30913955 -0.14452998 0.18549336
0.27817187 0.19376749 0.15767838 -0.08061171 -0.38057792 -0.6283235 -0.29774222 -0.1588472
0.19979489 -0.054794803 0.19320582 0.3152991 0.15989448 0.13085319 0.067266725 -0.13622336
0.42438483 0.003337536 -0.53460103 -0.2905376 0.39923593 -0.054945614 -0.37839875 0.20710358
0.2136407 -0.18187556 0.12374012 -0.21761096 0.42492464 -0.07744515 0.40078062 0.32293618
-0.10606504 0.23988275 -0.038773265 -0.46574324 0.22930919 -0.40456948 0.26131406 -0.18048479
0.14338839 0.3119659 0.23133647 -0.06876739 0.30901453 0.067554586 -0.4230697 -0.33140206
0.03043289 -0.22021493 -0.13284716 0.34756574 0.18986863 0.20429254 0.07693382 -0.4081221
-0.044136498 -0.06398197 -0.028321937 0.30396083 0.110561505 0.34741488 0.3593118 -0.31100497
-0.05005405 0.40361652 -0.33141026 -0.5053537 -0.09390456 0.36443073 -0.2391361 0.2558349
-0.11365303 0.36493635 -0.1660525 -0.5138981 0.07033711 -0.34933275 -0.41623956 0.5094539
0.15024145 0.18564568 0.056205615 -0.45555833 -0.3306881 0.046308555 0.24233489 0.056874797
00000000: f89e 78be bd7a 98ba a4e0 91bd 1a68 52bd
00000010: 288a cbbe 5bd6 a7bd 596e ccbe 00c1 cd3e
00000020: f8a7 cabd bf54 6dbe 86a5 bd3d e3c9 fc3e
00000030: 7735 84be 49d4 023f 8c2c 4b3d 5d8d 7bbd
00000040: 13ec f0be c28e 083f c4b9 abbc 5b35 a93e
00000050: 147d 8b3e ed22 9cbe 53b5 f7be 04bf 0c3f
00000060: 88a1 743c 56f8 fa3d 7ff2 dd3e d8d0 633e
00000070: 9351 ec3e 9fa6 b03e 4f06 febe 7ab9 513d
00000080: 1758 50be 5f24 083e 2c98 b8be 1b62 8abe
00000090: f3b5 d6be 4239 5d3e 2496 45be 1c56 b23e
000000a0: 1e90 5e3e 470d d93d e345 273f fe71 bbbd
000000b0: 796c 7cbc 1c21 183d 4fa3 3d3b e381 a7bd
000000c0: 604f 3dbd 3026 c8bb 46c5 fb3d c557 7e3e
000000d0: 4ed1 f93e 773d bcbe 8896 113f 3aa6 efbe
000000e0: 7be4 373e 7616 863d fcb6 a7be 11c1 f33e
000000f0: 053e 583e 0dba 79be c9ba 73bd dfca 06be
00000100: 500c 373c 617f a03e 026f cbbe 9198 53be
00000110: ffa5 d4be 6cde 363e a8f7 5dbe f03e 4abe
00000120: 078d 623e be57 edbd e698 77bc c9da ce3e
00000130: 267b 56be 9785 18be 89bd ba3d 3194 ea3e
00000140: a0da 393c 043d 05bf 0d23 77bd 19a6 cbbe
00000150: 66e8 e23e 5cdf b83e 3b57 9a3d 16b8 003f
00000160: 68b9 8bbd c8da 11be 7da4 d0be bb27 bdbe
00000170: 1f57 2a3e fdb6 3fbe 3d6e 17be c48d 85be
00000180: 8ce6 33be 9b16 833e 7255 febd 8a4a fcbe
00000190: 5790 753e a254 dcbe f6fe 4f3e 2e39 02bf
000001a0: c81d a9be ca6f 063f f44c bcbe b7d9 cbbe
000001b0: 7ab8 eabd 143b 343e 2540 733d 24c7 e7be
000001c0: 0ad4 223f 656b c7be 98b3 623c 35fd 2bbe
000001d0: 5de0 163e f7fa f43d fb96 17bf bd18 e9bd
000001e0: 4adf 533c e8f3 c03e 4e3b b0be 8864 b3be
000001f0: cc60 4d3e 6302 4bbe 0a84 193e f71f 7fbe
00000200: 5577 eebc ad3e 3f3e 65ce 343e 1f39 29bf
00000210: e95c 173d d34d 6dbe 0cab 603e 382c 44be
00000220: 8157 1bbd 173a 88bd 0612 80be 19e2 56bc
00000230: b09c 97bd 5923 b7be ea97 e93d a33e f63e
00000240: 06a9 13be df38 953e d118 55be f589 133e
00000250: e05b 23be 38bf 133d 70f3 d5be ccd3 c6be
00000260: ed9e 5e3d 21e7 fcbd 5d6c 383e 859e 093f
00000270: 3629 7abe 4e47 083f 2902 3e3e 0bac eabd
00000280: 40ce f4be d447 e63e 8d68 f83d 2483 5dbc
00000290: 2ee7 a93d 8a47 9ebe abff 13be f9f1 3d3e
000002a0: 8b6c 8e3e fc6a 463e 7176 213e c117 a5bd
000002b0: 1cdb c2be cfd9 20bf ab71 98be d7a8 22be
000002c0: 0897 4c3e 8470 60bd bfd7 453e e26e a13e
000002d0: 61bb 233e 61fe 053e 23c3 893d 237e 0bbe
000002e0: f848 d93e 90ba 5a3b 9ddb 08bf 58c1 94be
000002f0: a768 cc3e a70e 61bd 7bbd c1be f612 543e
00000300: a1c4 5a3e 963d 3abe 766b fd3d 68d5 5ebe
00000310: b98f d93e 909b 9ebd 1e33 cd3e e457 a53e
00000320: a138 d9bd d3a3 753e b7d0 1ebd e675 eebe
00000330: 07d0 6a3e bb23 cfbe f5ca 853e 01d1 38be
00000340: 68d4 123e ffb9 9f3e 78e3 6c3e ebd5 8cbd
00000350: 2737 9e3e 0f5a 8a3d 979c d8be 88ad a9be
00000360: 654e f93c 0680 61be 1609 08be 23f4 b13e
00000370: ec6c 423e 1032 513e 7b8f 9d3d 61f5 d0be
00000380: 79c8 34bd fb08 83bd 6803 e8bc c1a0 9b3e
00000390: 126e e23d 5de0 b13e b7f7 b73e 0b3c 9fbe
000003a0: 7a05 4dbd d3a6 ce3e 9bae a9be dc5e 01bf
000003b0: 0951 c0bd aa96 ba3e 18e0 74be cbfc 823e
000003c0: ebc2 e8bd f0d8 ba3e ab09 2abe d38e 03bf
000003d0: e70c 903d bedb b2be 5a1d d5be 926b 023f
000003e0: e5d8 193e e719 3e3e dc37 663d f13e e9be
000003f0: f34f a9be 0aae 3d3d a326 783e 8cf5 683d

transformer.embed.lin.bias f4 [72]
-0.248275 0.31113452 0.23228185 0.026575163 -0.1441917 0.026000213 -0.16364026 -0.18688938
0.06453371 -0.18510889 0.27895832 0.31121817 0.13771914 0.2316605 0.33975193 0.113596424
0.06820036 -0.1790945 -0.003751841 -0.028888427 0.3408383 0.04682506 0.12723738 0.26769245
-0.1158496 -0.16849242 0.12315812 0.0044798474 0.08060424 0.1122722 0.09508474 -0.427134
-0.2442863 0.3442574 -0.2995634 -0.102031544 0.18123895 -0.12775913 -0.076617375 -0.19183211
0.1308738 0.012840506 -0.0024740582 -0.036593765 -0.0851562 -0.0048227906 0.13211808 -0.22625108
0.29997098 0.19336915 -0.2910282 0.07953753 -0.18323797 0.36747363 0.28481513 -0.04573119
0.14075379 -0.07475967 0.30893785 0.3251016 0.11522629 -0.059881687 -0.06548678 -0.22694485
0.39959842 -0.25351867 0.1354577 0.3805048 0.03198988 -0.2498268 0.21756464 -0.2670054
00000000: cd3b 7ebe 064d 9f3e 4bdb 6d3e 28b4 d93c
00000010: fda6 13be 66fe d43c 5091 27be ee5f 3fbe
00000020: 402a 843d 2f8d 3dbe a0d3 8e3e fd57 9f3e
00000030: 3f06 0d3e 6938 6d3e f7f3 ad3e 3ea5 e83d
00000040: a1ac 8b3d 8c64 37be 72e1 75bb 6ca7 ecbc
00000050: 5c82 ae3e a2cb 3f3d 844a 023e fc0e 893e
00000060: 8e42 edbd 4789 2cbe 533a fc3d afcb 923b
00000070: d613 a53d f8ee e53d cabb c23d 4fb1 dabe
00000080: 3026 7abe 8242 b03e 6060 99be eaf5 d0bd
00000090: b496 393e 4ad3 02be 92e9 9cbd a36f 44be
000000a0: c803 063e fc60 523c cf23 22bb 58e3 15bd
000000b0: 6066 aebd 8008 9ebb f649 073e 5dae 67be
000000c0: cc95 993e 9002 463e a601 95be 93e4 a23d
000000d0: bca2 3bbe 8125 bc3e 4ad3 913e a150 3bbd
000000e0: c321 103e 991b 99bd 1a2d 9e3e b873 a63e
000000f0: c3fb eb3d 8046 75bd ef1d 86bd 3b64 68be
00000100: 2a98 cc3e 33cd 81be 6cb5 0a3e 86d1 c23e
00000110: d207 033d 99d2 7fbe 44c9 5e3e efb4 88be

transformer.embed.pos_embed.weight f4 [120, 72]
-0.28172433 -1.4716498 -0.36364716 0.89793134 -0.23311564 0.61643434 0.47367567 1.3514929
-0.46783265 -0.16525534 0.03648943 2.2661018 0.79995954 0.6120833 -0.09254079 -0.8904054
-0.32186 -0.1927957 0.8500766 0.50256664 1.5669692 -1.0633276 -1.4464295 -0.38594055
-0.93719584 -0.22296299 -0.237958 -0.25039953 -0.027230889 -1.4402403 0.122428365 0.08040738
0.11710128 1.208991 0.9042969 0.16261733 0.102596395 2.0696394 -1.2730978 -0.3365592
0.42222044 1.2168565 0.21769942 -0.043411907 0.7440244 -0.005767912 0.07440888 0.011519734
0.33559525 0.38684553 1.5835518 0.09890647 -1.7712237 -1.1691109 0.19782814 0.011816737
-0.17333135 -0.13149035 -0.2986473 0.49321067 -0.6729591 -0.26859227 -0.2823617 0.9164692
-0.30461648 -0.21995355 1.1577644 0.87285954 -0.67415226 0.337927 -0.26155737 1.1186604
-0.6328298 0.5951478 -0.10271503 -0.016669711 -0.06651389 0.7914749 1.0342418 2.4349835
-0.9462417 -1.9457431 -0.6859793 0.1847517 1.4536984 -0.36409327 0.9477191 -1.3116798
-0.027132561 0.90954083 1.5516907 0.6534129 -0.28831634 0.32786816 1.5678335 0.32072246
2.559261 1.1389065 -0.19673724 0.29325873 -0.169191 -1.0858858 2.3290327 0.5141043
0.73267955 0.7630595 -1.0938016 -0.29683676 -0.01751347 -1.1998212 -0.24752022 1.4852598
1.4611586 -0.5803771 -0.91987777 -0.5914485 -0.5347206 0.75039375 -0.5330358 1.7770109
-0.8296145 2.3249059 0.2599459 0.06638493 -0.6789756 2.0755491 -0.19170207 -0.7683103
1.3028516 0.8907031 1.3734866 -0.1607171 -0.8484423 1.4194653 -1.3478299 0.6495583
-0.39875713 0.3347015 0.18038301 0.09519968 0.83949447 -1.5125014 -0.76396847 1.319595
0.80052423 -1.3302883 -2.3504634 0.703758 1.3387165 0.7662606 1.120836 0.8288995
-0.5076168 -2.8414412 0.98316294 0.636314 -2.6257813 -0.59406084 0.20847192 1.4579755
1.8276331 0.7427948 -2.2405283 0.94833475 -0.45655316 0.9002399 -0.60102296 1.0395206
0.15954763 1.5963485 1.0118556 -0.93179023 -0.15236042 0.22509369 1.3674171 -1.4898701
-1.5534521 -0.3611499 -0.5458132 0.27858752 0.9207269 0.43263665 -0.5236407 0.41899404
0.36522013 0.9782791 -1.3537985 1.1767858 0.556544 0.33996844 0.5273961 2.3319902
0.4066772 0.9507527 -1.6754267 -0.918731 0.8456264 -2.2256773 -0.30942455 0.03993486
0.89863384 -0.54373854 1.1617306 -0.33276197 0.7409862 -0.074439794 -0.24293524 -2.5318377
-0.111921296 0.30015463 2.5593154 -0.03630814 -0.07107341 -0.2807549 -1.0439011 0.85077035
-1.1938989 1.1005985 1.103205 -1.212587 0.17598327 -0.8501077 0.104989596 -1.0563537
-0.78210044 -0.7537275 -1.067083 -2.392724 -0.20165315 -0.57133883 1.2974277 0.3584969
-0.41278717 0.7680378 1.1121495 0.96418905 2.2263284 -0.39676034 -0.9638347 1.6950481
-0.055958867 -1.1528242 -0.40658364 1.2632555 -1.1920578 -1.0959699 -0.6428791 1.609383
0.54982275 0.61731803 -0.05178247 0.643657 -1.8442391 1.5509346 0.2526237 0.6263329
00000000: 2c3e 90be 055f bcbf f62f babe d4de 653f
00000010: deb5 6ebe a4ce 1d3f 9e85 f23e b8fd ac3f
00000020: c387 efbe b238 29be f175 153d d007 1140
00000030: 26ca 4c3f 7eb1 1c3f 0786 bdbd 9cf1 63bf
00000040: d5ca a4be 3c6c 45be 9f9e 593f 35a8 003f
00000050: 7292 c83f 1e1b 88bf 9a24 b9bf 009a c5be
00000060: 11ec 6fbf 6950 64be 43ab 73be 5e34 80be
00000070: 5013 dfbc cb59 b8bf b9bb fa3d a0ac a43d
00000080: ccd2 ef3d 38c0 9a3f 0080 673f 2885 263e
00000090: 0f1e d23d f974 0440 def4 a2bf 7d51 acbe
000000a0: 472d d83e f4c1 9b3f 99ec 5e3e afd0 31bd
000000b0: 6278 3e3f c100 bdbb af63 983d 44bd 3c3c
000000c0: 24d3 ab3e 9e10 c63e d3b1 ca3f 7a8f ca3d
000000d0: 75b7 e2bf 6da5 95bf 7693 4a3e fd9a 413c
000000e0: c67d 31be 68a5 06be 4de8 98be 1c86 fc3e
000000f0: 0c47 2cbf ed84 89be b691 90be ba9d 6a3f
00000100: b1f6 9bbe 813b 61be a031 943f b973 5f3f
00000110: 3e95 2cbf c504 ad3e d9ea 85be 4430 8f3f
00000120: 2201 22bf 9b5b 183f 425c d2bd eb8e 88bc
00000130: 6f38 88bd 199e 4a3f 0962 843f c5d6 1b40
00000140: e53c 72bf 1c0e f9bf 579c 2fbf 8d2f 3d3e
00000150: ca12 ba3f 6f6a babe b89d 723f 20e5 a7bf
00000160: 1b45 debc abd7 683f cd9d c63f 1146 273f
00000170: 339e 93be 56de a73e c5ae c83f bc35 a43e
00000180: efca 2340 b0c7 913f 7d75 49be 0226 963e
00000190: 6840 2dbe 4efe 8abf df0e 1540 579c 033f
000001a0: e390 3b3f de57 433f b101 8cbf fdfa 97be
000001b0: 6978 8fbc be93 99bf f175 7dbe fe1c be3f
000001c0: 3f07 bb3f 9893 14bf 1c7d 6bbf 2b69 17bf
000001d0: 73e3 08bf ce19 403f 0975 08bf 1875 e33f
000001e0: 9e61 54bf 42cb 1440 a117 853e d2f4 873d
000001f0: 58d1 2dbf ccd5 0440 8c4d 44be fcaf 44bf
00000200: d7c3 a63f 1e05 643f 69ce af3f 0693 24be
00000210: 8433 59bf 0ab1 b53f b185 acbf 7449 263f
00000220: e529 ccbe ff5d ab3e 53b6 383e 0df8 c23d
00000230: 1ce9 563f a599 c1bf 7093 43bf 7de8 a83f
00000240: 28ef 4c3f e346 aabf fe6d 16c0 7c29 343f
00000250: 105b ab3f a829 443f 8e77 8f3f c232 543f
00000260: 2df3 01bf 2cda 35c0 91b0 7b3f 79e5 223f
00000270: cd0c 28c0 5f14 18bf aa79 553e f19e ba3f
00000280: e2ef e93f cd27 3e3f d164 0fc0 11c6 723f
00000290: 56c1 e9be 1f76 663f a4dc 19bf 030f 853f
000002a0: 7460 233e 2655 cc3f 7c84 813f ce89 6ebf
000002b0: 5f04 1cbe f67e 663e 8607 af3f 10b4 bebf
000002c0: 85d7 c6bf a4e8 b8be 6aba 0bbf 06a3 8e3e
000002d0: c2b4 6b3f 8d82 dd3e 510d 06bf 6386 d63e
000002e0: 22fe ba3e 8070 7a3f 4549 adbf eba0 963f
000002f0: ab79 0e3f 5810 ae3e 6e03 073f 543f 1540
00000300: fe37 d03e 8764 733f 6274 d6bf f431 6bbf
00000310: f97a 583f 7f71 0ec0 e56c 9ebe bc92 233d
00000320: de0c 663f 7332 0bbf 97b3 943f c75f aabe
00000330: 46b1 3d3f e473 98bd 04c4 78be a109 22c0
00000340: fe36 e5bd dead 993e d3cb 2340 d8b7 14bd
00000350: f08e 91bd 1bbf 8fbe 8d9e 85bf 16cc 593f
00000360: aed1 98bf 69e0 8c3f d235 8d3f 0d36 9bbf
00000370: f534 343e a9a0 59bf c904 d73d 9936 87bf
00000380: bc37 48bf 49f4 40bf 2d96 88bf 6422 19c0
00000390: 2a7e 4ebe 4343 12bf 1c12 a63f e88c b73e
000003a0: d758 d3be 209e 443f ea5a 8e3f 18d5 763f
000003b0: 2a7c 0e40 2c24 cbbe dfbd 76bf 56f7 d83f
000003c0: 2035 65bd be8f 93bf bb2b d0be 5bb2 a13f
000003d0: 5a95 98bf be48 8cbf ba93 24bf 4300 ce3f
000003e0: 2fc1 0c3f 8e08 1e3f db19 54bd b5c6 243f
000003f0: 0710 ecbf 0685 c63f e557 813e 5a57 203f

transformer.embed.norm.gamma f4 [72]
0.9578191 1.062268 1.1553537 1.121755 1.1702646 1.0022697 0.89857066 0.91868705
1.1924851 1.0061725 1.0750526 1.0946159 0.92377627 1.0820836 1.045061 1.1222218
1.03509 1.087668 1.2014205 0.9961674 1.0600588 1.1204493 0.8935359 1.0317355
0.9221728 1.1146134 1.1153176 0.8801864 1.0936489 0.96804416 1.0004607 1.0932838
0.9756813 0.9093233 1.1100866 1.0148704 0.9426058 0.9377276 1.1692965 1.0142132
1.0883033 1.0791203 1.0008421 1.1507089 1.0256014 1.1118019 1.1505691 0.91624165
1.0529555 0.93374395 0.9462945 0.8945111 1.004412 0.98340964 0.9345001 1.0809693
0.9637752 0.97429997 1.0534214 1.0613258 1.1931431 1.0189762 1.056394 0.9942075
1.1313752 0.9978162 1.1187212 1.0358468 1.0729294 1.0239925 1.0267664 1.0578142
00000000: a233 753f 66f8 873f a1e2 933f ab95 8f3f
00000010: 3bcb 953f 604a 803f ba08 663f 132f 6b3f
00000020: 5aa3 983f 43ca 803f 539b 893f 601c 8c3f
00000030: 9a7c 6c3f b781 8a3f 8fc4 853f f7a4 8f3f
00000040: d47d 843f b438 8b3f 26c8 993f d404 7f3f
00000050: 02b0 873f e26a 8f3f c5be 643f e90f 843f
00000060: 8413 6c3f a7ab 8e3f bac2 8e3f e553 613f
00000070: b0fc 8b3f bed1 773f 190f 803f b9f0 8b3f
00000080: 40c6 793f 69c9 683f 5117 8e3f 46e7 813f
00000090: 9d4e 713f ea0e 703f 82ab 953f bdd1 813f
000000a0: 864d 8b3f 9d20 8a3f 981b 803f 6e4a 933f
000000b0: e846 833f 864f 8e3f d945 933f d08e 6a3f
000000c0: 3fc7 863f d809 6f3f 5b40 723f aefe 643f
000000d0: 9390 803f bcc0 7b3f 663b 6f3f 345d 8a3f
000000e0: f9b9 763f b96b 793f 83d6 863f 86d9 873f
000000f0: eab8 983f d06d 823f eb37 873f 6284 7e3f
00000100: e7d0 903f e270 7f3f 4232 8f3f a196 843f
00000110: c055 893f 3012 833f 156d 833f 7566 873f

transformer.embed.norm.beta f4 [72]
0.15520504 -0.008581084 -0.0136528555 -0.053864464 -0.08482685 0.020593842 0.10960037 0.048142426
0.017624972 0.07826294 0.04796584 0.006683568 -0.095821984 -0.053107806 -0.056021687 -0.057812113
0.08598084 0.08490063 -0.010171409 -0.10039328 0.017774582 -0.02645427 -0.0722559 -0.03475736
0.17854457 0.07760123 -0.04812332 0.007252383 -0.029702678 -0.12214225 -0.111582264 -0.008875588
0.03294767 -0.08592905 -0.006311054 -0.05158546 -0.04229985 0.026171269 -0.018021658 0.0951212
-0.005205056 -0.06104174 0.028070189 0.019012729 0.026282202 0.03891595 0.10422071 0.105852365
0.04091018 -0.15178648 0.10128055 -0.09807522 0.018768623 0.022358337 -0.06651124 -0.0721463
0.02524901 0.07837345 -0.03768159 -0.008755617 -0.040201012 -0.007049567 0.052478515 0.086067855
0.009336015 0.03339556 0.034109596 -0.023990689 -0.08230325 0.014325741 -0.059492823 0.039332658
00000000: 12ee 1e3e ad97 0cbc 3ab0 5fbc fca0 5cbd
00000010: b3b9 adbd 6bb4 a83c 2976 e03d fe30 453d
00000020: 3f62 903c 5248 a03d d477 443d d501 db3b
00000030: 513e c4bd 9287 59bd ff76 65bd 65cc 6cbd
00000040: b916 b03d 62e0 ad3d fba5 26bc fe9a cdbd
00000050: 009c 913c a0b6 d8bc e7fa 93bd bc5d 0ebd
00000060: 63d4 363e 65ed 9e3d f51c 45bd 66a5 ed3b
00000070: 0853 f3bc b725 fabd 3e85 e4bd ea6a 11bc
00000080: 23f4 063d 92fb afbd f5cc cebb 464b 53bd
00000090: 9c42 2dbd 2165 d63c 28a2 93bc e7ce c23d
000000a0: 2d8f aabb e706 7abd 74f3 e53c 95c0 9b3c
000000b0: c64d d73c 5566 1f3d ab71 d53d 20c9 d83d
000000c0: 6f91 273d ea6d 1bbe 2d6c cf3d a9db c8bd
000000d0: a8c0 993c d528 b73c 0c37 88bd 70c1 93bd
000000e0: 03d7 ce3c 4282 a03d 0358 1abd b873 0fbc
000000f0: d1a9 24bd 0e00 e7bb b6f3 563d 5844 b03d
00000100: 16f6 183c c8c9 083d 81b6 0b3d 1f88 c4bc
00000110: 9b8e a8bd 83b6 6a3c bfae 73bd 481b 213d

transformer.attn.proj_q.weight f4 [72, 72]
-0.1225682 -0.055243284 -0.17788132 0.09475559 -0.12313696 -0.131647 -0.019528858 -0.052932724
0.027819179 -0.061542545 0.23977096 -0.033727333 -0.11581907 -0.026999395 -0.08943218 -0.029904943
-0.051295254 0.049771976 -0.13167027 -0.1686018 0.1987555 -0.07582102 0.062255535 0.1096619
-0.09797685 0.15989976 0.1655443 0.1627209 0.02430743 0.04716148 -0.101330705 -0.2328415
0.006938819 0.13504605 0.15442869 -0.19056393 0.023286225 0.12933382 -0.07623219 0.04971347
-0.0829479 -0.004066424 -0.16223192 0.023858784 -0.07450214 0.2679887 0.13194366 0.11155953
0.34220195 -0.027671285 0.08641595 0.036077898 -0.00762073 0.20723799 0.03826389 -0.2662946
0.10104009 -0.13095772 0.14826511 0.088782735 -0.15798046 -0.22104016 0.0149333645 0.18416134
0.23221186 0.1226273 -0.23500802 0.28902054 -0.028286766 -0.07627606 -0.004645118 -0.08730116
0.018021196 -0.15071006 0.008109357 -0.026056828 0.0011300506 -0.26518983 0.019520462 0.104712576
0.058258075 -0.12948647 0.14665738 -0.050932452 -0.06363324 -0.037699647 0.16510281 -0.15055875
-0.044090748 -0.052989192 -0.20019202 -0.11480263 0.13459411 -0.1520467 -0.11879101 -0.097812526
0.08677888 0.05626297 -0.02957785 -0.13656837 0.03235615 0.067686014 0.12858894 -0.2938177
0.022416705 0.09454511 0.056088105 -0.12805362 -0.041943863 -0.043360725 0.061255157 -0.24110037
0.06302215 -0.088306144 -0.1716989 -0.20273937 0.1202331 0.14529504 0.22378519 0.10843493
-0.01627645 -0.062713444 0.14903095 -0.044172034 -0.11085118 -0.06584235 0.12912722 0.015872704
0.023109661 0.0655727 0.13378175 0.15262173 0.13645145 -0.0069571394 -0.03779796 0.03713268
-0.09756424 -0.1475118 0.22447254 -0.05302985 0.12258163 -0.1177702 0.0843981 -0.20099697
0.13650535 0.14397773 -0.2021052 -0.045481063 -0.06664758 -0.11322516 -0.17125374 -0.16809355
0.14297074 -0.15085652 -0.16651616 0.25068563 -0.20942995 0.091033764 -0.01846307 0.23696592
0.12044202 0.07750889 0.05925692 0.20428835 0.098617606 -0.058988873 0.042675897 0.078582056
0.0601426 0.026492989 0.042930156 -0.10669273 -0.16075274 0.14485134 -0.18663973 0.042952243
0.014785672 -0.08200816 0.12582731 0.065043196 -0.17175886 0.032728624 0.13778989 -0.05075853
0.21262681 -0.073729254 -0.04874514 0.24464297 -0.17673667 -0.14271308 -0.3419888 -0.20650783
-0.023683533 -0.057166655 0.039184242 0.14744763 -0.09930736 -0.0017054542 0.021545937 -7.841892e-05
-0.01257926 -0.23897184 -0.28289738 0.16650333 0.0693999 0.02394075 -0.0068114107 0.071291186
0.15381917 -0.005478441 0.06691992 -0.0019574712 0.30940518 0.11608999 -0.111871436 -0.017395778
0.07827011 -0.24420714 -0.0077914065 0.04594958 0.06626578 -0.22956549 0.06937437 0.23839703
0.19567652 0.15905382 0.045627713 -0.13514201 -0.16530994 -0.063822225 0.012187221 -0.019439988
-0.22691953 -0.015290264 -0.13641496 0.11458987 0.010988637 0.045923535 -0.08468721 -0.15981418
0.06593622 -0.13883433 -0.011885703 -0.22948909 0.19564082 -0.19741985 -0.15643735 -0.009133355
0.036735334 0.106194735 -0.12394102 0.16845089 -0.010188761 0.010847078 0.07550033 -0.0807729
00000000: 0905 fbbd c846 62bd 8526 36be 380f c23d
00000010: 3b2f fcbd 79ce 06be fcfa 9fbc fccf 58bd
00000020: 0ce5 e33c 0914 7cbd 8586 753e ac25 0abd
00000030: 8c32 edbd d62d ddbc 3828 b7bd 36fb f4bc
00000040: f91a 52bd b3dd 4b3d 92d4 06be f3a5 2cbe
00000050: 9086 4b3e 0d48 9bbd a9ff 7e3d 6b96 e03d
00000060: 16a8 c8bd c3bc 233e 7284 293e 4fa0 263e
00000070: 6020 c73c 652c 413d 7986 cfbd 016e 6ebe
00000080: 085f e33b 8349 0a3e 8e22 1e3e 3123 43be
00000090: c1c2 be3c 1670 043e 9f1f 9cbd 5aa0 4b3d
000000a0: 97e0 a9bd a33f 85bb 2020 26be 7f73 c33c
000000b0: 9494 98bd d135 893e 3d1c 073e 5379 e43d
000000c0: 1835 af3e e4ae e2bc d8fa b03d 6bc6 133d
000000d0: 51b7 f9bb 3236 543e 99ba 1c3d c457 88be
000000e0: 1bee ce3d c819 06be cfd2 173e b9d3 b53d
000000f0: a1c5 21be 5a58 62be 12ab 743c ca94 3c3e
00000100: f2c8 6d3e 0624 fb3d f1a5 70be 80fa 933e
00000110: a6b9 e7bc 9f36 9cbd 1336 98bb f3ca b2bd
00000120: 30a1 933c bd53 1abe 1cdd 043c 2175 d5bc
00000130: 351e 943a f6c6 87be 60e9 9f3c 8c73 d63d
00000140: 05a0 6e3d 1a98 04be 5a2d 163e 8c9e 50bd
00000150: 2552 82bd f26a 1abd b610 293e 132c 1abe
00000160: 8098 34bd 320b 59bd 23ff 4cbe a41d ebbd
00000170: 0ad3 093e 21b2 1bbe b348 f3bd ef51 c8bd
00000180: 20b9 b13d 0074 663d 3f4d f2bc 94d8 0bbe
00000190: e287 043d f79e 8a3d d2ac 033e 466f 96be
000001a0: 3da3 b73c dea0 c13d a4bc 653d 7d20 03be
000001b0: 54cd 2bbd 049b 31bd b0e6 7a3d 04e3 76be
000001c0: c211 813d dad9 b4bd d6d1 2fbe e99a 4fbe
000001d0: c63c f63d 39c8 143e f227 653e 2213 de3d
000001e0: 3156 85bc e86f 80bd 929b 183e bced 34bd
000001f0: f205 e3bd 5bd8 86bd ed39 043e 7907 823c
00000200: 7950 bd3c fb4a 863d 15fe 083e df48 1c3e
00000210: eeb9 0b3e b7f8 e3bb 09d2 1abd 7018 183d
00000220: c3cf c7bd 550d 17be 21dc 653e d435 59bd
00000230: 140c fb3d 8131 f1bd e9d8 ac3d 26d2 4dbe
00000240: 0fc8 0b3e e66e 133e aaf4 4ebe 5a4a 3abd
00000250: 877e 88bd 98e2 e7bd 245d 2fbe b720 2cbe
00000260: ec66 123e 227a 1abe 3683 2abe de59 803e
00000270: ce74 56be e96f ba3d dd3f 97bc 32a7 723e
00000280: 4eaa f63d fbbc 9e3d 62b7 723d f730 513e
00000290: 07f8 c93d 519e 71bd eccc 2e3d a1ef a03d
000002a0: 1658 763d d307 d93c 88d7 2f3d b881 dabd
000002b0: 5e9c 24be e953 143e 7c1e 3fbe b1ee 2f3d
000002c0: 9a3f 723c e5f3 a7bd e0d8 003e 5e35 853d
000002d0: 8ee1 2fbe 730e 063d cb18 0d3e 2de8 4fbd
000002e0: d8ba 593e 5dff 96bd fca8 47bd b083 7a3e
000002f0: 75fa 34be 6123 12be 2819 afbe ca76 53be
00000300: f803 c2bc 9527 6abd a87f 203d 83fc 163e
00000310: a861 cbbd 8c89 dfba 1b81 b03c d674 a4b8
00000320: 3e19 4ebc 09b5 74be edd7 90be d97f 2a3e
00000330: 8921 8e3d 641f c43c 4132 dfbb 1d01 923d
00000340: c682 1d3e 7e84 b3bb 500d 893d eb48 00bb
00000350: 5b6a 9e3e 97c0 ed3d da1c e5bd 9781 8ebc
00000360: 144c a03d 7011 7abe 0e4f ffbb a035 3c3d
00000370: 5ab6 873d 3713 6bbe 2614 8e3d 5a1e 743e
00000380: 6d5f 483e 01df 223e 20e4 3a3d ab62 0abe
00000390: 0247 29be 3ab5 82bd e9ac 473c 9c40 9fbc
000003a0: 985d 68be 0484 7abc 5db0 0bbe 18ae ea3d
000003b0: af09 343c 511a 3c3d 7d70 adbd 54a6 23be
000003c0: 9209 873d 962a 0ebe 40bc 42bc 30ff 6abe
000003d0: 1156 483e 6e28 4abe 1d31 20be 11a4 15bc
000003e0: ca77 163d a07c d93d cad4 fdbd 647e 2c3e
000003f0: c3ee 26bc f1b7 313c eb9f 9a3d 436c a5bd

transformer.attn.proj_q.bias f4 [72]
-0.08061999 -0.026507271 0.010796676 -0.16660613 -0.23336829 -0.069347955 -0.11279886 0.28673434
0.005915684 0.046738837 0.1841058 0.03661014 0.11690438 -0.008455259 0.15001523 -0.36848247
0.09384462 0.3839056 -0.094433844 0.15563728 -0.116775006 -0.17715657 -0.13329032 -0.26737547
0.026717171 0.0925454 0.11860804 0.06834559 -0.088504 -0.07082929 -0.2680326 -0.124184705
-0.10232179 -0.10522792 0.0028053424 0.021383772 0.2795078 0.19981228 0.07785642 0.022657387
0.101169504 -0.055873983 -0.1324102 0.25707793 -0.15748945 -0.047431402 0.022641663 0.25680757
-0.44458205 -0.06685145 0.18571077 -0.14409927 0.05369422 0.014576518 0.15133525 -0.09589734
0.10560689 0.046579245 -0.02520049 -0.022824349 -0.06280151 -0.25711417 -0.0711354 -0.04850793
-0.054259773 0.04240784 0.16118401 0.0646333 0.061510988 0.23401752 -0.032480426 -0.13608119
00000000: 181c a5bd c725 d9bc 8be4 303c cc9a 2abe
00000010: 19f8 6ebe 4d06 8ebd 1703 e7bd d8ce 923e
00000020: 5bd8 c13b 3971 3f3d 3b86 3c3e 84f4 153d
00000030: 906b ef3d ed87 0abc 989d 193e bca9 bcbe
00000040: 9c31 c03d 468f c43e 8866 c1bd 615f 1f3e
00000050: bc27 efbd 8868 35be 427d 08be 70e5 88be
00000060: f8dd da3c 7188 bd3d c6e8 f23d c6f8 8b3d
00000070: 9641 b5bd f20e 91bd 923b 89be 8d54 febd
00000080: 168e d1bd bc81 d7bd d6d9 373b 052d af3c
00000090: a51b 8f3e 979b 4c3e 3073 9f3d fc9b b93c
000000a0: f531 cf3d 1edc 64bd 8a96 07be b89f 833e
000000b0: ea44 21be 6e47 42bd 027b b93c 487c 833e
000000c0: 42a0 e3be 6ae9 88bd f72a 3e3e c28e 13be
000000d0: 78ee 5b3d 59d2 6e3c a1f7 1a3e d365 c4bd
000000e0: 6d48 d83d e1c9 3e3d 4271 cebc 21fa babc
000000f0: 149e 80bd 78a4 83be 70af 91bd 40b0 46bd
00000100: 7f3f 5ebd d8b3 2d3d 6c0d 253e 775e 843d
00000110: f2f2 7b3d 4aa2 6f3e 320a 05bd de58 0bbe

transformer.attn.proj_k.weight f4 [72, 72]
-0.13199186 0.1258109 0.08915066 0.07148007 0.14204942 -0.0098809395 -0.14285347 -0.26072803
-0.105858855 0.14408652 0.0813222 -0.01887101 -0.23277043 0.09610369 0.0050663003 0.09276575
0.1374019 -0.2788657 -0.076275155 0.052363224 0.15026444 -0.2599354 0.1134806 0.14491011
-0.1946436 0.25933102 0.14060535 -0.012433239 -0.19337384 0.20797905 0.09008396 -0.0011625036
0.0034288552 -0.015279857 0.10817906 -0.17418724 -0.0609052 -0.11084671 -0.03172907 0.10768575
-0.055464152 -0.12560384 -0.23258951 -0.1025313 -0.16444415 0.15263724 0.12566793 -0.13555275
0.09660563 0.14479618 -0.09655779 0.05565452 0.0048788213 0.16660526 -0.15252435 -0.03745343
0.23872611 0.008473014 -0.220478 -0.12594008 -0.21708904 -0.10109653 -0.09623236 -0.15947227
-0.0201797 0.114451855 -0.033532012 0.098948196 -0.15478715 -0.14459173 -0.054287788 0.15599063
0.0019190287 0.013221313 0.08009024 -0.048853006 0.061760623 -0.18570949 -0.07735338 -0.20273474
0.06803502 0.12698898 0.2160988 0.022494882 -0.1149856 -0.29069903 0.22291365 0.19398023
0.023684882 0.068211205 0.0942277 0.062164865 0.00011997284 -0.15336354 -0.18899998 0.23375317
-0.093686394 0.10851582 0.2380026 -0.13998848 -0.18694292 0.20460077 -0.32913342 0.024576979
-0.05145745 0.09083878 -0.042442784 0.0025530683 0.057052836 0.13001822 -0.15192184 0.10817691
-0.002789966 -0.13354096 -0.015735382 -0.15627043 -0.014142166 0.06948707 0.07682834 0.0751226
0.179656 0.05875532 -0.05548696 -0.05879509 -0.031508923 0.03303772 0.077661276 -0.07858811
-0.10608829 0.16849777 0.008395598 0.13043542 -0.18222293 -0.112071514 -0.16595745 0.13291411
-0.14084181 0.008803067 -0.1477152 0.1392608 -0.06260414 -0.075135216 0.15607443 -0.06483888
0.3489154 -0.011257429 -0.27848133 -0.062677264 -0.24330488 -0.32915547 -0.020193228 -0.10837635
-0.09437491 -0.09461976 -0.10560454 0.23167789 -0.14459375 -0.061385926 -0.13006519 -0.01294244
0.19262704 0.21732946 -0.035230763 0.05855508 0.13988702 0.06064528 -0.027429048 -0.06891018
-0.011143636 0.12655562 -0.24230833 -0.04505718 0.25516936 -0.050616216 0.08862394 0.118892096
0.16539694 -0.06843324 -0.10928584 -0.10899445 0.08987056 0.11899656 0.02930821 0.029935552
-0.059064224 -0.0012875056 0.14896455 0.08413515 -0.28864753 0.10613734 -0.22258241 -0.016542047
-0.0765513 0.05382222 -0.14049855 0.07875275 -0.14777018 0.09642886 -0.22400516 0.12586081
0.16395274 -0.02653833 -0.14697783 0.08012306 0.08964144 -0.09277529 -0.12882593 0.08495413
0.13890307 0.20964113 0.09377358 0.12940247 0.07296886 0.4135918 -0.042172853 0.025817543
-0.283934 0.07645231 0.07419854 0.0344115 -0.011758355 -0.069470055 0.041412994 -0.28381044
0.29957825 0.005914836 0.127119 -0.04919267 0.014238429 -0.018560592 0.16922417 0.023061585
0.0033243175 -0.05276936 0.23287603 0.0007840782 -0.0075543975 0.25972423 -0.06934578 0.040536746
-0.1975466 -0.18106775 -0.0060809753 -0.03735109 -0.018266682 0.0041306103 -0.13826874 -0.06681764
-0.11376421 0.17995854 0.059536714 -0.043617982 0.03621871 0.10143346 -0.074197486 -0.11813971
00000000: e028 07be 93d4 003e 9f94 b63d 2564 923d
00000010: 6775 113e aae3 21bc 2e48 12be 257e 85be
00000020: 87cc d8bd 6b8b 133e 418c a63d 6097 9abc
00000030: 5f5b 6ebe 03d2 c43d 3503 a63b f8fb bd3d
00000040: 15b3 0c3e 7cc7 8ebe 2636 9cbd d27a 563d
00000050: ecde 193e 4116 85be 8468 e83d 5163 143e
00000060: a750 47be 09c7 843e d9fa 0f3e c9b4 4bbc
00000070: cb03 46be 76f8 543e f07d b83d 265f 98ba
00000080: a5b6 603b 5e58 7abc fc8c dd3d 245e 32be
00000090: bb77 79bd 9a03 e3bd 57f6 01bd 598a dc3d
000000a0: 612e 63bd 4b9e 00be f22b 6ebe eefb d1bd
000000b0: 0c64 28be f04c 1c3e 18af 003e 57ce 0abe
000000c0: 2cd9 c53d 7345 143e 17c0 c5bd fef5 633d
000000d0: 85de 9f3b 929a 2a3e 582f 1cbe c568 19bd
000000e0: 9e74 743e 66d2 0a3c fcc4 61be 70f6 00be
000000f0: 974c 5ebe b30b cfbd 7915 c5bd b34c 23be
00000100: e64f a5bc bc65 ea3d dd58 09bd 5aa5 ca3d
00000110: 8680 1ebe db0f 14be df5c 5ebd 02bc 1f3e
00000120: eb87 fb3a 359e 583c 5a06 a43d 171a 48bd
00000130: b5f8 7c3d a12a 3ebe 736b 9ebd b299 4fbe
00000140: f255 8b3d 6609 023e 0149 5d3e 3047 b83c
00000150: 927d ebbd 81d6 94be 7a43 643e c1a2 463e
00000160: cc06 c23c 51b2 8b3d 74fa c03d 96a0 7e3d
00000170: ee99 fb38 550b 1dbe 3689 41be fe5c 6f3e
00000180: a7de bfbd 8b3d de3d f4b6 733e 2459 0fbe
00000190: f76d 3fbe dd82 513e 2d84 a8be a955 c93c
000001a0: 0cc5 52bd af09 ba3d 7cd8 2dbd 6151 273b
000001b0: 3cb0 693d 7f23 053e 6691 1bbe db8b dd3d
000001c0: ddd7 36bb f6be 08be 7de7 80bc 5b05 20be
000001d0: 8bb4 67bc 3d4f 8e3d 2d58 9d3d e1d9 993d
000001e0: bef7 373e 6ba9 703d 4b46 63bd 1fd3 70bd
000001f0: 800f 01bd 8f52 073d e00c 9f3d cef2 a0bd
00000200: d144 d9bd ae8a 2c3e b18d 093c dd90 053e
00000210: a698 3abe c085 e5bd c0f0 29be a31a 083e
00000220: d638 10be bd3a 103c a742 17be 629a 0e3e
00000230: 9936 80bd 7ee0 99bd fad1 1f3e 3fca 84bd
00000240: 0aa5 b23e 1471 38bc 1b95 8ebe f05c 80bd
00000250: ea24 79be 1187 a8be 456c a5bc 6bf4 ddbd
00000260: a247 c1bd 01c8 c1bd 3147 d8bd f83c 6d3e
00000270: 6210 14be cf6f 7bbd cf2f 05be 870c 54bc
00000280: 0640 453e 9d8b 5e3e 224e 10bd 74d7 6f3d
00000290: 8b3e 0f3e 2f67 783d e2b2 e0bc c820 8dbd
000002a0: cc93 36bc cc97 013e ad1f 78be e18d 38bd
000002b0: 8fa5 823e f352 4fbd 7880 b53d b37d f33d
000002c0: d15d 293e ba26 8cbd 41d1 dfbd 7b38 dfbd
000002d0: 0e0e b83d 78b4 f33d c517 f03c 673b f53c
000002e0: 54ed 71bd 85c1 a8ba 2a8a 183e 0d4f ac3d
000002f0: 9cc9 93be 895e d93d a5ec 63be 3083 87bc
00000300: eec6 9cbd b074 5c3d dade 0fbe 1f49 a13d
00000310: 1151 17be 7f7c c53d 9c61 65be a8e1 003e
00000320: 3ae3 273e e966 d9bc 5b81 16be 8f17 a43d
00000330: ee95 b73d f900 bebd f2ea 03be 6efc ad3d
00000340: 9b3c 0e3e 2aac 563e 5d0c c03d 1582 043e
00000350: b370 953d 4ec2 d33e 71bd 2cbd 507f d33c
00000360: cc5f 91be 0793 9c3d 67f5 973d 13f3 0c3d
00000370: 1ea6 40bc 5146 8ebd aca0 293d 9a4f 91be
00000380: 5262 993e 3ed1 c13b 7c2b 023e 417e 49bd
00000390: 4d48 693c 620c 98bc 1a49 2d3e a6eb bc3c
000003a0: cbdc 593b af24 58bd 0e77 6e3e 998a 4d3a
000003b0: e18a f7bb 93fa 843e 2905 8ebd dc09 263d
000003c0: a849 4abe d369 39be eb42 c7bb 75fd 18bd
000003d0: 02a4 95bc 125a 873b 5296 0dbe b0d7 88bd
000003e0: 36fd e8bd 0d47 383e c5dc 733d c5a8 32bd
000003f0: 125a 143d 59bc cf3d daf4 97bd 3bf3 f1bd

transformer.attn.proj_k.bias f4 [72]
-0.046361078 -0.053147007 0.08144325 0.063378416 -0.02322102 0.08495023 -0.03585771 0.037670944
0.04859724 0.06033037 -0.01541342 0.04611671 0.054026503 0.09959756 0.021330887 -0.01665491
0.07783098 0.11391459 -0.030705668 0.03348941 0.09026756 0.006879188 0.027411394 -0.07431733
-0.06626418 -0.053054713 -0.100747645 -0.13461052 0.10284057 0.019387001 0.1544663 0.020418404
0.028619397 0.032170124 -0.11447037 -0.032959055 0.08384035 0.09052162 0.09027271 0.0020148205
0.044020537 -0.045631427 0.071627915 0.004220013 0.036474943 -0.04055059 0.04736737 -0.11142969
-0.04377462 0.06915989 -0.015275227 0.10761837 -0.08410614 -0.008932016 -0.11838572 0.07188818
-0.13039277 -0.01361193 0.056093067 -0.055637393 0.047561932 -0.055928893 0.013159963 -0.06282289
-0.06834102 -0.027614823 0.04573918 0.06424135 -0.07225134 0.085317045 0.07761706 -0.03637281
00000000: 1de5 3dbd adb0 59bd b8cb a63d 8bcc 813d
00000010: 023a bebc 63fa ad3d 89df 12bd d94c 1a3d
00000020: e60d 473d fa1c 773d 9288 7cbc e0e4 3c3d
00000030: e54a 5d3d cef9 cb3d 1dbe ae3c e16f 88bc
00000040: d965 9f3d 0d4c e93d 748a fbbc 312c 093d
00000050: 33de b83d d06a e13b dc8d e03c af33 98bd
00000060: 84b5 87bd e64f 59bd c854 cebd 57d7 09be
00000070: 149e d23d 7dd1 9e3c 6a2c 1e3e 7f44 a73c
00000080: 3a73 ea3c d2c4 033d 716f eabd 1300 07bd
00000090: 7db4 ab3d 6663 b93d e6e0 b83d 140b 043b
000000a0: e14e 343d 05e8 3abd a8b1 923d 0948 8a3b
000000b0: c066 153d 6018 26bd 4a04 423d 4035 e4bd
000000c0: 044d 33bd b3a3 8d3d f244 7abc 0567 dc3d
000000d0: d73f acbd 9757 12bc 3674 f2bd 1c3a 933d
000000e0: af85 05be 9304 5fbc d8c1 653d 09e4 63bd
000000f0: 4dd0 423d b215 65bd e39c 573c 4aa9 80bd
00000100: 60f6 8bbd 7b38 e2bc 0259 3b3d f890 833d
00000110: 83f8 93bd b4ba ae3d b1f5 9e3d a8fb 14bd

transformer.attn.proj_v.weight f4 [72, 72]
-0.22018294 -0.096841104 -0.12529759 -0.111472555 0.031688947 0.046287917 0.11552906 0.16188166
0.15771447 -0.023683233 0.04936011 0.1214658 -0.04581151 0.07354963 -0.009996424 0.049287967
-0.15116163 0.09822325 0.098530285 -0.11744445 -0.19803075 0.12505803 0.039787438 0.09406591
-0.124327615 -0.13847597 0.13395187 -0.0062792343 0.08721874 0.01568526 -0.014056084 0.04596762
0.038910408 0.11035825 -0.11157504 0.02885385 0.15506393 0.037646074 -0.19731037 0.005716168
-0.088253155 -0.09269112 0.13283172 -0.20604622 0.0069035715 0.1188966 -0.007847838 -0.15501991
-0.016519053 0.14584456 -0.093239196 0.061924383 -0.12245706 0.0321246 -0.13289659 0.19096775
0.026188666 0.016850872 0.05687989 -0.10495523 0.16129819 0.066473804 0.18942057 -0.08563907
0.1523858 -0.11500729 0.23598604 0.07678711 0.0016175555 -0.075704016 0.14939922 -0.23934153
-0.14781028 -0.086799264 0.061963912 0.16299726 0.00068527734 0.17033653 0.05402346 0.079335675
-0.030808322 0.10834408 -0.20108739 0.022006307 -0.02569887 0.0032433062 0.055558454 0.16652556
-0.15790947 -0.12037902 -0.09205878 -0.102256596 -0.1088619 0.026676444 -0.062702514 -0.10465439
0.0950944 0.12578355 0.021700637 -0.03212137 0.034801085 -0.0142473215 -0.0648885 0.084528886
-0.1727399 0.090653665 -0.08278814 -0.020848794 -0.061084267 -0.0748334 -0.045852717 0.06903861
0.011632471 0.025871318 0.09153591 -0.007314858 0.07982195 -0.14839588 0.09409126 0.08063402
-0.016272297 -0.09328777 -0.01918127 -0.112326756 -0.030902443 0.034704033 -0.07363507 0.14382437
0.17318921 -0.049137004 0.014014918 -0.0019656525 0.11856009 0.14514291 0.15153025 0.0054236874
-0.04028112 0.17270835 -0.028671093 -0.11803711 -0.23074566 -0.028501118 0.031880736 -0.13266672
0.021750776 -0.06599878 0.17596231 -0.06670126 0.17944089 -0.13147372 -0.023494134 -0.05756343
0.1737958 -0.08822112 -0.20675088 -0.031419624 0.14907607 0.034215923 0.117539264 -0.021270586
-0.047289323 0.04703336 -0.27089584 0.04575627 -0.16899265 -0.033277232 0.07464489 0.10356489
-0.110163026 0.146604 -0.14386207 0.06689699 0.21536234 0.26939133 -0.03675433 0.2218965
0.10199561 0.048396625 -0.00030985218 0.08396403 0.0951964 0.12774011 -0.017559666 -0.06422964
0.11416408 -0.037208885 -0.023153326 -0.028260302 0.17715035 -0.12866119 -0.0013407895 -0.066825986
-0.14417644 0.13327773 -0.013504767 0.10796021 0.099142194 -0.056965936 0.14895314 0.068082064
0.014662383 -0.21096556 -0.0883182 -0.05380571 0.2533956 -0.058300946 0.060489126 0.040256523
-0.16623546 0.097619034 0.010315868 -0.16333438 -0.018159175 0.21402287 -0.0968311 -0.04567852
-0.03935031 0.16949242 0.09215523 -0.030685341 0.12082093 0.012530023 0.03739469 0.081544615
-0.1018551 0.021537622 -0.03296951 0.06842546 -0.08613822 0.173023 -0.10033275 0.19209114
-0.011628755 -0.07840959 0.07633369 0.0027571984 0.098933674 0.015083702 -0.0889127 -0.045879252
-0.010484875 -0.06468323 -0.11996512 0.12993938 0.15757252 -0.0070272954 0.06532613 -0.016356181
-0.09394746 -0.039771345 -0.18567128 -0.06633253 -0.018043391 -0.09965906 0.059101485 -0.18761605
00000000: a377 61be a154 c6bd 034e 00be b94b e4bd
00000010: 45cc 013d 6698 3d3d 809a ec3d 4ec4 253e
00000020: e77f 213e 5703 c2bc d42d 4a3d 10c3 f83d
00000030: daa4 3bbd 30a1 963d 0bc8 23bc 2ee2 493d
00000040: 1dca 1abe 4529 c93d 3fca c93d b786 f0bd
00000050: 93c8 4abe 360f 003e 27f8 223d a1a5 c03d
00000060: 7a9f febd a5cc 0dbe ae2a 093e 09c2 cdbb
00000070: bd9f b23d 607e 803c 7d4b 66bc 8b48 3c3d
00000080: 8560 1f3d 8203 e23d 7481 e4bd e95e ec3c
00000090: 14c9 1e3e c532 1a3d bb0b 4abe b14e bb3b
000000a0: 12be b4bd d8d4 bdbd 0a05 083e c8fd 52be
000000b0: 5b37 e23b 1080 f33d 3894 00bc 8abd 1ebe
000000c0: f752 87bc 4758 153e 31f4 bebd 6ca4 7d3d
000000d0: c4ca fabd 1695 033d 0b16 08be 0d8d 433e
000000e0: 9d89 d63c d70a 8a3c e3fa 683d c5f2 d6bd
000000f0: 5a2b 253e 6b23 883d 77f7 413e 8963 afbd
00000100: 060b 1c3e f188 ebbd 53a6 713e 8f42 9d3d
00000110: 2804 d43a b50a 9bbd 1cfc 183e f215 75be
00000120: 945b 17be d0c3 b1bd dfcd 7d3d c1e8 263e
00000130: 2fa4 333a b36c 2e3e b447 5d3d be7a a23d
00000140: bc61 fcbc 80e3 dd3d dae9 4dbe 9246 b43c
00000150: 7086 d2bc a68d 543b 4391 633d ad85 2a3e
00000160: 05b3 21be 4789 f6bd 5089 bcbd e86b d1bd
00000170: fdf2 debd 8f88 da3c 2d6a 80bd 0a55 d6bd
00000180: dac0 c23d 67cd 003e 89c5 b13c b391 03bd
00000190: 958b 0e3d 996d 69bc 43e4 84bd 7b1d ad3d
000001a0: bae2 30be a1a8 b93d d48c a9bd 17cb aabc
000001b0: 7f33 7abd 4142 99bd 0fd0 3bbd 1d64 8d3d
000001c0: 1f96 3e3c 16f0 d33c 2e77 bb3d 7ab1 efbb
000001d0: b179 a33d 17f5 17be ebb2 c03d 7323 a53d
000001e0: 7b4d 85bc a90d bfbd 0a22 9dbc 920b e6bd
000001f0: 1f27 fdbc d125 0e3d fccd 96bd b246 133e
00000200: 8358 313e e243 49bd d49e 653c 2dd2 00bb
00000210: a2cf f23d 58a0 143e bf2a 1b3e 30b9 b13b
00000220: d1fd 24bd 75da 303e a4df eabc 71bd f1bd
00000230: 9748 6cbe 2d7b e9bc 6095 023d c9d9 07be
00000240: af2e b23c 5e2a 87bd 772f 343e ac9a 88bd
00000250: 5abf 373e 0ca1 06be c576 c0bc a2c7 6bbd
00000260: 87f7 313e 46ad b4bd 81b6 53be ddb1 00bd
00000270: 66a7 183e ff25 0c3d 6db8 f03d a73f aebc
00000280: 73b2 41bd 0da6 403d dcb2 8abe ed6a 3b3d
00000290: 690c 2dbe b54d 08bd 6cdf 983d d419 d43d
000002a0: 279d e1bd 5c1f 163e 9450 13be 4a01 893d
000002b0: f287 5c3e a9ed 893e b58b 16bd d638 633e
000002c0: 13e3 d03d 8a3b 463d a873 a2b9 55f5 ab3d
000002d0: 55f6 c23d 4ece 023e 4ad9 8fbc d48a 83bd
000002e0: dbce e93d 5868 18bd 0bac bdbc 2682 e7bc
000002f0: e766 353e c2bf 03be 6ebd afba 10dc 88bd
00000300: fda2 13be f579 083e 1943 5dbc 3e1a dd3d
00000310: 100b cb3d 1d55 69bd 2c87 183e 9c6e 8b3d
00000320: 7e3a 703c 5b07 58be 2ce0 b4bd 6063 5cbd
00000330: 11bd 813e f9cc 6ebd 72c3 773d 06e4 243d
00000340: a139 2abe 7dec c73d e303 293c 2141 27be
00000350: 8dc2 94bc d028 5b3e 624f c6bd 6619 3bbd
00000360: ca2d 21bd 6c8f 2d3e e2bb bc3d d35f fbbc
00000370: f770 f73d ba4a 4d3c 2d2b 193d dd00 a73d
00000380: 6899 d0bd ab6f b03c 090b 07bd a622 8c3d
00000390: 3c69 b0bd f12c 313e 427b cdbd 8ab3 443e
000003a0: 8986 3ebc 3595 a0bd d654 9c3d 1db2 343b
000003b0: bd9d ca3d a221 773c dd17 b6bd e2eb 3bbd
000003c0: c1c8 2bbc a478 84bd 46b0 f5bd d40e 053e
000003d0: b15a 213e 3a45 e6bb b5c9 853d 66fd 85bc
000003e0: 8767 c0bd 47e7 22bd 9d20 3ebe 59d9 87bd
000003f0: bccf 93bc 0d1a ccbd 6614 723d 6c1e 40be

transformer.attn.proj_v.bias f4 [72]
0.09007659 -0.028088925 0.03918427 -0.16761728 -0.12739536 -0.026973562 0.22087757 0.11848059
0.0043119425 0.071479134 0.04475521 -0.10491098 -0.072878845 0.13094264 -0.093342945 0.09717094
-0.07018321 -0.047934063 -0.04089364 -0.132292 -0.10285466 0.052092362 0.1607516 -0.106391184
-0.09633999 -0.1691543 -0.00067111 -0.08419978 0.019099161 0.006541087 0.017337812 0.0051464117
0.016877625 0.03744478 -0.10552323 0.1004237 0.019496541 0.0937121 -0.06297914 -0.052518472
0.020681454 0.005560511 -0.01993869 -0.012522478 -0.018718714 0.06640578 -0.035871483 0.12605718
0.09148911 -0.05719572 -0.0006823106 0.0909383 0.102140084 -0.06285487 -0.14069399 0.111985646
-0.095821485 0.025013585 -0.021793053 -0.09469843 -0.057289954 0.06350118 -0.008692462 -0.08163058
0.04246594 -0.043114565 -0.028002117 0.05591443 -0.0071920985 -0.06494422 0.019333923 -0.04931773
00000000: 137a b83d bf1a e6bc af7f 203d dda3 2bbe
00000010: ee73 02be a9f7 dcbc bb2d 623e f4a5 f23d
00000020: 324b 8d3b a763 923d 3d51 373d 91db d6bd
00000030: 8141 95bd d415 063e 962a bfbd 8f01 c73d
00000040: 37bc 8fbd 8256 44bd 1780 27bd 8e77 07be
00000050: 77a5 d2bd cd5e 553d 119c 243e 9fe3 d9bd
00000060: e74d c5bd c936 2dbe 6eed 2fba ef70 acbd
00000070: d875 9c3c 9d56 d63b 0708 8e3c 3ba3 a83b
00000080: f242 8a3c b35f 193d 901c d8bd f1aa cd3d
00000090: 36b7 9f3c 21ec bf3d 35fb 80bd 9c1d 57bd
000000a0: 276c a93c f234 b63b 7756 a3bc 142b 4dbc
000000b0: fd57 99bc c1ff 873d faed 12bd 2215 013e
000000c0: a45e bb3d 0f46 6abd 17dd 32ba dc3d ba3d
000000d0: d22e d13d 0eba 80bd 1612 10be bb58 e53d
000000e0: 0e3e c4bd 4ae9 cc3c 5887 b2bc 40f1 c1bd
000000f0: dfa8 6abd e80c 823d d46a 0ebc ef2d a7bd
00000100: c4f0 2d3d e698 30bd b264 e5bc 8806 653d
00000110: b2ab ebbb 7a01 85bd 2d62 9e3c 6301 4abd

transformer.proj.weight f4 [72, 72]
0.119316176 0.072744936 0.06268638 0.055686463 -0.049596183 -0.17772679 0.12413656 0.10244411
-0.06517148 -0.061380748 0.0042038364 -0.20428303 0.001442449 -0.096938126 0.079400465 -0.095161125
-0.094991624 0.091952436 -0.10768732 -0.077242926 0.14789748 -0.05555817 -0.07368769 -0.12577651
0.07020794 -0.072763704 -0.118024364 -0.14203912 -0.106138244 -0.069912486 0.10194962 0.1017182
-0.09167385 -0.0890333 -0.08252975 0.06384003 -0.095864 0.113866374 -0.10064725 -0.13135111
-0.16155535 0.034998972 -0.0097271465 0.08833574 -0.10538331 0.04603134 -0.047418084 0.21413699
0.07673355 0.045707546 -0.08677349 0.06102355 0.15719171 -0.1381226 0.13801697 0.004586998
-0.10315384 0.08624362 -0.102118134 0.1261266 -0.055864867 0.034687217 0.023231495 0.05109153
0.16844393 -0.016976612 -0.09078705 -0.066186614 0.039909042 -0.10996213 0.10003239 0.05571366
-0.049286094 0.0484502 -0.010168084 -0.11563333 0.1051731 0.107544094 -0.10256292 0.023599252
0.07048483 0.013565201 -0.09146557 -0.031566802 0.034719937 -0.032735813 0.03702425 -3.577269e-05
0.0007051381 -0.046771746 0.15685697 -0.102105506 0.091983184 -0.047308993 0.031827517 -0.046007533
0.039960157 -0.11983324 -0.0657238 0.15708783 -0.04407577 -0.04343799 -0.0009821856 -0.02970865
0.10147101 0.14121266 -0.05519221 -0.09033276 0.14060718 0.09717884 -0.009920647 -0.07928978
-0.015963731 -0.041783556 0.08289115 0.013106696 -0.038380206 0.0034461194 0.11231857 -0.12379639
-0.012761103 -0.07697227 0.05659269 0.017239634 -0.14421304 -0.07399071 -0.071253285 0.06101661
-0.06390178 -0.0068157287 -0.1502549 -0.090310104 -0.09741881 0.06880143 0.03478065 0.18959084
-0.16400202 -0.09012615 0.20148048 0.16995846 -0.007697757 0.0007563754 -0.087898664 -0.016049875
-0.043100778 0.07692901 0.21657148 0.101263255 -0.054131947 0.058615778 0.17670727 0.039430067
0.13233484 -0.01860858 0.102769084 0.035017338 0.10264099 -0.023203732 0.04975333 0.18018325
0.080562554 0.13268891 0.053167995 0.130658 -0.15122263 0.24282993 0.008045811 0.09616651
-0.061962448 -0.018108059 0.011124724 -0.036146797 0.044927686 -0.069962904 -0.0677823 0.029960146
0.14948674 -0.06718062 -0.07642846 -0.07328025 -0.11638131 0.060865827 -0.06685416 -0.027377421
-0.14222805 0.045911938 0.069490634 -0.04428192 -0.076247476 -0.07702856 -0.0587034 0.02646646
0.113384485 -0.1019606 -0.07562363 -0.10125983 0.02709326 0.09801716 -0.053575978 -0.07653163
-0.036990624 0.01824231 0.022435674 0.05108127 0.0912443 -0.07938702 0.011361838 -0.035040475
-0.11856892 -0.013295262 0.05504065 0.07195091 -0.0941669 -0.036483847 0.12495975 -0.07086394
-0.02129828 -0.076083206 -0.0783554 0.16816215 0.096616074 0.10884033 -0.054035097 -0.06921946
0.11435715 0.109984785 0.0008343955 0.07613242 0.043193474 -0.14899087 -0.08855839 0.020166622
0.14235513 -0.16443785 0.20386446 -0.024184162 0.029501026 0.012625632 0.08562859 -0.17952287
0.03400203 0.16328987 -0.095400795 -0.14716975 0.17523289 -0.047780998 -0.14264734 0.038886204
-0.07302083 0.0472877 0.052221384 -0.18333144 0.10067996 -0.07492107 -0.15506813 -0.010218477
00000000: 0a5c f43d 4cfb 943d b861 803d 7d17 643d
00000010: 5e25 4bbd 03fe 35be 4f3b fe3d 38ce d13d
00000020: a078 85bd 616a 7bbd 56c0 893b 922f 51be
00000030: 8f10 bd3a 7f87 c6bd b69c a23d d6e3 c2bd
00000040: f88a c2bd 8f51 bc3d 2b8b dcbd 8a31 9ebd
00000050: 7072 173e f790 63bd 92e9 96bd 8fcb 00be
00000060: 2ec9 8f3d 2305 95bd c2b6 f1bd b472 11be
00000070: 025f d9bd 472e 8fbd f6ca d03d a251 d03d
00000080: 80bf bbbd 1757 b6bd 5c05 a9bd 90be 823d
00000090: 5854 c4bd c632 e93d 2520 cebd e880 06be
000000a0: c46e 25be 155b 0f3d 9c5e 1fbc 5ee9 b43d
000000b0: 34d3 d7bd 5c8b 3c3d 7739 42bd ba46 5b3e
000000c0: 7b26 9d3d d637 3b3d 4db6 b1bd d4f3 793d
000000d0: ddf6 203e 0370 0dbe 5254 0d3e 874e 963b
000000e0: 5242 d3bd 7fa0 b03d 5023 d1bd 5527 013e
000000f0: 8fd2 64bd 2f14 0e3d fa4f be3c 5a45 513d
00000100: 917c 2c3e 8912 8bbc 90ee b9bd d98c 87bd
00000110: aa77 233d d333 e1bd c8dd cc3d 0234 643d
00000120: 37e0 49bd b873 463d 0998 26bc 2bd1 ecbd
00000130: ff64 d73d 1440 dc3d 820c d2bd 3853 c13c
00000140: 5a5a 903d 9440 5e3c 4d52 bbbd 314c 01bd
00000150: 7e36 0e3d fd15 06bd bda6 173d a20a 16b8
00000160: 04d9 383a bb93 3fbd 1d9f 203e b11c d1bd
00000170: ae61 bc3d 13c7 41bd 925d 023d 6572 3cbd
00000180: 43ad 233d 216b f5bd 339a 86bd a2db 203e
00000190: cb88 34bd 09ec 31bd aebc 80ba 8e5f f3bc
000001a0: 08d0 cf3d 0d9a 103e 3a11 62bd 6200 b9bd
000001b0: 54fb 0f3e b305 c73d 368a 22bc ae62 a2bd
000001c0: 5fc6 82bc 3c25 2bbd d6c2 a93d 78bd 563c
000001d0: 9034 1dbd 4ad8 613b 4707 e63d f688 fdbd
000001e0: f213 51bc a3a3 9dbd bdcd 673d 223a 8d3c
000001f0: 95ac 13be 7188 97bd 3eed 91bd 8eec 793d
00000200: f0de 82bd 7a56 dfbb 6cdc 19be 81f4 b8bd
00000210: 8383 c7bd c4e7 8c3d 2876 0e3d 1a24 423e
00000220: 25f0 27be 0f94 b8bd e650 4e3e 9709 2e3e
00000230: 773d fcbb 7e47 463a 3704 b4bd 077b 83bc
00000240: 718a 30bd f58c 9d3d eac4 5d3e 1c63 cf3d
00000250: 76b9 5dbd 1917 703d c0f2 343e 6c81 213d
00000260: c982 073e 0571 98bc 9978 d23d 576e 0f3d
00000270: 7035 d23d c115 bebc 26ca 4b3d f581 383e
00000280: fbfd a43d 9adf 073e afc6 593d 36cb 053e
00000290: 1bda 1abe 69a8 783e 94d2 033c f2f2 c43d
000002a0: 56cc 7dbd 5a57 94bc 7944 363c aa0e 14bd
000002b0: 1806 383d b648 8fbd 72d1 8abd fb6e f53c
000002c0: 0d13 193e fe95 89bd 8686 9cbd f513 96bd
000002d0: 5359 eebd 724e 793d d5ea 88bd 9d46 e0bc
000002e0: 3ba4 11be 280e 3c3d 1b51 8e3d f560 35bd
000002f0: a327 9cbd 26c1 9dbd fa72 70bd 31d0 d83c
00000300: 2036 e83d b8d0 d0bd 90e0 9abd 5061 cfbd
00000310: aff2 dd3c 39bd c83d 7c72 5bbd 9dbc 9cbd
00000320: 7b83 17bd e670 953c 05cb b73c 983a 513d
00000330: 4bde ba3d a995 a2bd 0127 3a3c 9a86 0fbd
00000340: 43d4 f2bd 5fd4 59bc 4e72 613d 005b 933d
00000350: 93da c0bd 1670 15bd e6ea ff3d 1d21 91bd
00000360: bb79 aebc 83d1 9bbd cc78 a0bd b332 2c3e
00000370: a6de c53d aee7 de3d e853 5dbd efc2 8dbd
00000380: 1534 ea3d b43f e13d 56bb 5a3a 50eb 9b3d
00000390: a4eb 303d 1091 18be 1a5e b5bd 7934 a53c
000003a0: 8bc5 113e 6562 28be d8c1 503e dd1d c6bc
000003b0: 23ac f13c bddb 4e3c 0b5e af3d d8d4 37be
000003c0: b645 0b3d 7635 273e 7e61 c3bd abb3 16be
000003d0: 4070 333e 02b6 43bd 2512 12be 2447 1f3d
000003e0: f28b 95bd bfb0 413d 17e6 553d 3dbb 3bbe
000003f0: 4b31 ce3d 3870 99bd 2eca 1ebe 666b 27bc

transformer.proj.bias f4 [72]
0.19285922 -0.034517 0.04633396 -0.120920986 -0.14836875 -0.17311499 0.089882076 -0.00031134635
0.15202941 0.008052464 0.15281041 -0.22058026 -0.02361777 0.17503913 -0.2668877 -0.15262927
0.04849259 -0.01972651 0.05890417 -0.22120166 -0.18944594 0.103232644 0.10497944 -0.027599085
-0.18241775 -0.1551732 0.047595415 -0.008316348 0.0677071 -0.016297052 0.052974712 0.128143
0.04831768 -0.08278865 0.14158322 0.133397 -0.026575064 0.10289576 -0.1768379 -0.07825749
0.06881801 -0.24751905 0.13364151 -0.12732837 0.053885333 0.038867693 0.044800855 -0.0070400685
-0.059505872 0.16934894 -0.10703997 -0.05145343 0.13565882 0.110768974 -0.19290599 0.08183826
-0.03706863 -0.014549288 0.1255411 0.10341558 0.0066720056 -0.1471456 0.14522547 0.014985685
0.2197538 -0.012590625 0.11708711 0.16231401 -0.14538582 -0.16145843 0.02773233 -0.09681378
00000000: e37c 453e b361 0dbd aec8 3d3d 6ca5 f7bd
00000010: faed 17be 0e45 31be 1814 b83d 333c a3b9
00000020: 99ad 1b3e 7bee 033c 557a 1c3e cbdf 61be
00000030: 0e7a c1bc 753d 333e 81a5 88be d94a 1cbe
00000040: 2ba0 463d 7d99 a1bc 8045 713d b082 62be
00000050: 1efe 41be a36b d33d 76ff d63d 7a17 e2bc
00000060: b8cb 3abe b9e5 1ebe 69f3 423d 4b41 08bc
00000070: 05aa 8a3d 6581 85bc 03fc 583d eb37 033e
00000080: c2e8 453d 198d a9bd 31fb 103e 3999 083e
00000090: f3b3 d9bc 03bb d23d ff14 35be 7745 a0bd
000000a0: 75f0 8c3d a275 7dbe 52d9 083e 5e62 02be
000000b0: deb6 5c3d bb33 1f3d 1a81 373d 60b0 e6bb
000000c0: 6ebc 73bd cf69 2d3e c637 dbbd d5c0 52bd
000000d0: 25ea 0a3e d8da e23d 2689 45be d19a a73d
000000e0: 47d5 17bd 2360 6ebc d98d 003e 8ccb d33d
000000f0: d7a0 da3b 56ad 16be fcb5 143e 8586 753c
00000100: 2407 613e e948 4ebc 5ecb ef3d a535 263e
00000110: 05e0 14be 5c55 25be e92e e33c 4e46 c6bd
