saved/classifier_base_gru_uci_20_120/limu_gru_v1.pt (torch, 40112 bytes, 14 tensors)

gru0.weight_ih_l0 f4 [60, 72]
0	0xbe2b5940	-0.16733265
1	0x3dcb9860	0.099411726
2	0xbee6542d	-0.44986096
3	0x3dcd6cdf	0.10030531
4	0xbd139aa2	-0.03603614
5	0xbe3daa89	-0.18522085
6	0xbeaaa71d	-0.33330622
7	0xbd49d2cd	-0.0492733
8	0x3f05326a	0.5203005
9	0x3df84f47	0.12124496
10	0x3dd3c3ae	0.10340057
11	0x3ee1b8d0	0.44086313
12	0x3e2993f3	0.16560344
13	0x3e4b2e12	0.19841793
14	0xbdb7e21d	-0.089786746
15	0xbd99c10f	-0.07507526
16	0xbe8a9239	-0.27064684
17	0xbd8aea02	-0.06782915
18	0x3e93d9ce	0.2887711
19	0xbdccdf59	-0.10003538
20	0x3e258f69	0.16167988
21	0x3de2b736	0.11070101
22	0xbf02bb71	-0.5106726
23	0x3db986d2	0.09058918
24	0x3e828c4e	0.2549767
25	0xbd8f44f0	-0.06995571
26	0x3efd76fb	0.49504837
27	0x3e3bd963	0.18344645
28	0x3ed3eadf	0.4139013
29	0x3e4e9ab4	0.20176202
30	0xbeabcbe3	-0.3355399
31	0xbe3c9e43	-0.18419747
32	0xbe27bb2d	-0.16379996
33	0xbe79236e	-0.24329922
34	0xbe250b9e	-0.16117713
35	0xbd6f76b1	-0.058462802
36	0xbd301265	-0.042986292
37	0x3e6727d3	0.22573785
38	0xbd94f775	-0.07273761
39	0x3ec5f5ca	0.38664085
40	0x3d9eac29	0.07747681
41	0xbe41f104	-0.18939596
42	0x3e02de8e	0.1278021
43	0xbd928776	-0.071547434
44	0x3d0a0ade	0.03370177
45	0x3c6ae539	0.0143368775
46	0x3e8aae0d	0.27085915
47	0x3e45674f	0.1927769
48	0xbea02214	-0.31276
49	0x3e0e4451	0.13893248
50	0x3e610dad	0.21977873
51	0x3d8e1516	0.069376156
52	0x3e8d8acb	0.27644953
53	0xbf3bd4a1	-0.7337132
54	0x3eacf9b1	0.3378425
55	0xbdc97ec1	-0.098386295
56	0x3d2ac464	0.0416912
57	0x3cc13c50	0.02358833
58	0xbe78691e	-0.24258849
59	0x3e2b0e55	0.16704686
60	0x3c7ecde2	0.015552016
61	0x3db33f96	0.087523624
62	0xbe832151	-0.25611356
63	0x3d888216	0.06665437
64	0xbe8a49b8	-0.27009368
65	0xbdbeee03	-0.09322741
66	0xbeca07c4	-0.3945905
67	0xbca09ba8	-0.019605473
68	0xbe2e5ab2	-0.17026785
69	0x3cea01a5	0.028565237
70	0xbebabf46	-0.36474055
71	0x3e0441ff	0.129158
72	0x3e7f3ca2	0.24925473
73	0x3d9c2b2a	0.076254204
74	0x3e5bf68d	0.2148077
75	0x3e8dc06f	0.27685878
76	0xbecae468	-0.39627385
77	0xbd8454f4	-0.06461516
78	0xbd47ebf8	-0.04880902
79	0x3e814e67	0.2525513
80	0x3c1545a7	0.009110845
81	0xbe72ff9f	-0.23730324
82	0xbdfa5fca	-0.122253016
83	0xbda4621c	-0.080265254
84	0x3dcf6d00	0.10128212
85	0x3ea17f4e	0.31542438
86	0x3deacd1d	0.114649035
87	0x3e5cb5d3	0.21553735
88	0x3d926e3c	0.07149932
89	0xbd4cf107	-0.05003455
90	0xbe10f781	-0.14156915
91	0xbdf2c327	-0.118536286
92	0x3dd886b9	0.10572571
93	0xbded26b2	-0.11579646
94	0x3ceda225	0.02900798
95	0x3e868646	0.26274318
96	0x3c1f7073	0.0097314
97	0x3ed92666	0.42412108
98	0xbe1cbf9c	-0.15307468
99	0xbd10ef4e	-0.03538447
100	0x3bf3ca07	0.007439855
101	0x3c5e3007	0.013561255
102	0x3e75c785	0.24001892
103	0xbda53e89	-0.08068568
104	0xbe3d4768	-0.1848427
105	0x3ed279f7	0.41108677
106	0xbe84727d	-0.25868598
107	0xbe04de17	-0.12975346
108	0xbe4861ac	-0.19568509
109	0x3d5896eb	0.0528783
110	0xbe0b0caf	-0.13579057
111	0xbe8a9849	-0.2706931
112	0x3cd583b1	0.026063772
113	0xbeab32b2	-0.33437115
114	0x3e6b7015	0.22991975
115	0xbe04a03d	-0.12951751
116	0x3da25d17	0.07927912
117	0xbe05a44a	-0.13050953
118	0xbdb93583	-0.0904341
119	0xbe25c9ea	-0.16190305
120	0x3c02641e	0.00795844
121	0x3e4fb1d1	0.20282675
122	0xbe9f8c99	-0.31161955
123	0xbe58e843	-0.21182351
124	0x3e392e51	0.18084075
125	0xbe13cc17	-0.14433323
126	0x3e4f2816	0.20230135
127	0xbe9dda97	-0.30830833
128	0x3db64b4f	0.08901083
129	0x3e804304	0.2505113
130	0xbd88dc0f	-0.06682598
131	0xbe824d4e	-0.25449604
132	0xbd12cabe	-0.03583788
133	0xbe8a0691	-0.26958135
134	0x3e196005	0.14978035
135	0xbe98bc44	-0.29831135
136	0xbe3c1f5f	-0.18371342
137	0x3df74d83	0.12075331
138	0xbe0269a3	-0.1273561
139	0xbd2fbc33	-0.04290409
140	0xbcad404c	-0.021148823
141	0xbe2bba30	-0.16770244
142	0xbe63d2cd	-0.22248383
143	0x3f0f7d13	0.56050223
144	0xbd9ff8c9	-0.07811124
145	0x3dd927fe	0.10603331
146	0x3cc730ff	0.024315355
147	0x3e40a307	0.1881219
148	0xbefca3fd	-0.49343863
149	0xbd9473d2	-0.072486535
150	0xbe7d2b9e	-0.2472367
151	0xbe0c3a65	-0.13694151
152	0xbd4f3ab7	-0.050593104
153	0xbdc92483	-0.09821417
154	0x3e11f869	0.14254917
155	0x3e4b7a20	0.19870806
156	0xbebb8bef	-0.36630198
157	0x3e7edb9e	0.24888465
158	0x3d272653	0.040808033
159	0xbda82b42	-0.08211376
160	0xbe92fea8	-0.28709912
161	0xbdced776	-0.1009969
162	0x3e247643	0.16060738
163	0x3d890e50	0.06692183
164	0x3e373584	0.17891508
165	0xbdb70a74	-0.08937541
166	0xbd955bb1	-0.072928794
167	0xbdcef1b2	-0.101046935
168	0xbcf56104	-0.029953487
169	0x3da85ea3	0.082211755
170	0x3e8f1016	0.2794196
171	0xb96bf6a0	-0.00022503221
172	0x3dc8ce06	0.09804921
173	0xbeb79ab2	-0.3586021
174	0xbe86b341	-0.26308635
175	0x3cb60172	0.022217486
176	0x3cffcaee	0.031224694
177	0x3e1eb91a	0.15500298
178	0x3d846f74	0.064665705
179	0x3db2a209	0.08722312
180	0x3e8cfe24	0.27537644
181	0x3daa8b92	0.08327402
182	0xbdc0a166	-0.09405784
183	0x3da2cac9	0.079488344
184	0x3ea648f5	0.32477537
185	0x3deb2391	0.11481393
186	0xbe2bb459	-0.16768016
187	0xbe9e075f	-0.30865
188	0x3ea4cb3f	0.32186314
189	0x3e1559b5	0.14585002
190	0xbe649399	-0.22321929
191	0xbd26655b	-0.040624004
192	0x3e57cffa	0.2107543
193	0xbe632c15	-0.22184785
194	0xbd73fd62	-0.059567817
195	0xbda5fad7	-0.081044845
196	0x3df004e5	0.117196836
197	0x3d8d5b28	0.06902152
198	0x3e46a18c	0.19397563
199	0x3e63a97d	0.22232623
200	0xbeb391f2	-0.35072285
201	0xbe04bfba	-0.12963763
202	0xbdee5dba	-0.11638971
203	0xbe28c698	-0.16482008
204	0x3bdedae3	0.0068009957
205	0x3d00c758	0.03144011
206	0x3e1dd5dc	0.15413612
207	0xbdc8d4a0	-0.0980618
208	0x3d2b9a7e	0.041895382
209	0x3e8b08ad	0.27155057
210	0x3e5e54c2	0.2171202
211	0xbed89688	-0.42302346
212	0x3dc517ca	0.09623678
213	0xbc81e0a2	-0.015854184
214	0xbcf6178a	-0.030040521
215	0xbef14552	-0.471232
216	0xbc80fa8a	-0.015744466
217	0xbea6ed33	-0.32602844
218	0x3d4545cd	0.04816227
219	0xbd0112d6	-0.031512104
220	0xbea61621	-0.32438758
221	0x3e93e905	0.28888717
222	0x3dbebd3b	0.093134366
223	0xbdac7c8a	-0.084221914
224	0x3d86dc9d	0.065850474
225	0x3db648e7	0.08900624
226	0xbd85a95d	-0.06526444
227	0x3e9f2faa	0.31091052
228	0xbe7b376e	-0.24532863
229	0xbc69a26f	-0.014259919
230	0x3ee49a9a	0.44649202
231	0xbeafe994	-0.34357893
232	0xbe4b8384	-0.19874388
233	0x3daa6029	0.08319122
234	0xbe8f468e	-0.27983516
235	0xbe942287	-0.28932592
236	0xbdba4399	-0.090949245
237	0xbc03909c	-0.008030083
238	0x3bfabe6b	0.007652094
239	0x3eaacdfc	0.3336028
240	0xbea5ca80	-0.32381058
241	0x3f228444	0.6348307
242	0xbe538d17	-0.2065929
243	0xbe6e6ab4	-0.23282892
244	0x3d5b9978	0.053613156
245	0x3d666a37	0.056253638
246	0xbb41a1aa	-0.0029545822
247	0x3eb7b9de	0.35883993
248	0xbe7ce078	-0.24695003
249	0x3e593921	0.21213199
250	0x3d68f9e4	0.05687894
251	0xbe038f6b	-0.12847678
252	0xbe2d2962	-0.16910318
253	0xbebbca2d	-0.36677685
254	0x3d21907f	0.039444443
255	0x3dee4e14	0.11635986

gru0.weight_hh_l0 f4 [60, 20]
0	0xbe10cccf	-0.14140628
1	0x3de31aea	0.11089118
2	0xbcf3c1b0	-0.029755443
3	0xbe6a7c2e	-0.22898933
4	0x3dd5055a	0.10401411
5	0x3e8f66ae	0.28008026
6	0x3e111795	0.14169152
7	0x3eff9dc7	0.49925062
8	0xbe188b04	-0.1489678
9	0xbf1e8263	-0.61917704
10	0x3e5953e5	0.2122341
11	0x3ea16e6c	0.31529558
12	0x3ecc271c	0.39873588
13	0xbd9827fe	-0.07429503
14	0xbf06286e	-0.5240544
15	0x3e156e57	0.14592873
16	0x3e175903	0.14780049
17	0xbec247f8	-0.37945533
18	0xbe82c254	-0.25538886
19	0xbaa76836	-0.0012772146
20	0x3e195324	0.14973122
21	0x3e3cc378	0.1843394
22	0x3dcc1ff8	0.09967035
23	0x3e6042b4	0.21900445
24	0x3d3c4ed9	0.045973632
25	0xbdc13342	-0.09433605
26	0x3ebbbff6	0.36669892
27	0x3e01a515	0.1266063
28	0x3e2740f7	0.16333376
29	0x3e8c71c3	0.27430543
30	0x3d7a1593	0.06105573
31	0xbe80e9af	-0.25178286
32	0xbe4b72fc	-0.19868082
33	0x3bd59338	0.006517794
34	0x3e4da8f9	0.20083989
35	0xbe3c7a8d	-0.18406124
36	0x3db1a23a	0.086735204
37	0xbdced5b4	-0.100993544
38	0x3d3dfee7	0.046385672
39	0xbdb88a0c	-0.09010705
40	0xbe494c1e	-0.19657943
41	0x3cb1696e	0.021656718
42	0x3f2d9a6d	0.6781376
43	0x3ec5320b	0.38514742
44	0xbeaa0080	-0.33203506
45	0xbbe76395	-0.0070614317
46	0xbd0157af	-0.031577762
47	0x3e56094e	0.20901987
48	0xbe76743e	-0.2406778
49	0x3deb7819	0.11497516
50	0x3e1351f9	0.14386739
51	0xbd07a65e	-0.033117644
52	0xbf1e4a34	-0.61831975
53	0x3bdfdd98	0.006831836
54	0x3de4ab94	0.111655384
55	0xbe574a04	-0.21024328
56	0x3e1c0a99	0.15238418
57	0x3e00706f	0.1254289
58	0xbe35b430	-0.17744517
59	0x3f31de69	0.69479996
60	0x3e1a666c	0.15078133
61	0x3dcc3c05	0.09972385
62	0x3e3b9b56	0.18320975
63	0x3f2616d2	0.6487857
64	0xbd906ad1	-0.070516236
65	0x3eae600e	0.3405766
66	0x3e531a5b	0.20615523
67	0x3d5f1024	0.054458752
68	0x3e1b2244	0.1514979
69	0x3e2bbe0a	0.16771713
70	0xbdd64461	-0.10462261
71	0xbe0ef41a	-0.13960305
72	0x3ddfbcc3	0.10924675
73	0x3e9ac113	0.3022543
74	0x3e22cf4e	0.15899393
75	0xbd5a345b	-0.053272586
76	0xbdc5b3f7	-0.09653466
77	0xbcf00720	-0.029300272
78	0x3cd6e6af	0.026233045
79	0xbe39ed24	-0.18156868
80	0x3f228070	0.6347723
81	0xbe0de33e	-0.13856217
82	0x3e46e9f0	0.19425178
83	0xbd0a326f	-0.033739503
84	0x3d16c113	0.036805224
85	0xbe93c6bb	-0.28862557
86	0xbf1ded84	-0.61690545
87	0xbe56cb0d	-0.20975895
88	0xbe41a766	-0.18911514
89	0xbdb111c7	-0.08645969
90	0xbd2dc511	-0.042424265
91	0x3da9589b	0.08268853
92	0x3eb3a74a	0.3508857
93	0xbd1417fc	-0.036155686
94	0x3c0f3f95	0.0087431865
95	0xbd8b17e9	-0.0679167
96	0x3ce55ac7	0.027997388
97	0x3e819ff7	0.25317356
98	0x3f2a5ee7	0.6655106
99	0xbed26487	-0.4109232
100	0x3e1f28a6	0.1554285
101	0x3d930f5b	0.07180663
102	0xbd1b60a8	-0.037933975
103	0xbe62b504	-0.22139364
104	0xbc1b849a	-0.009492064
105	0xbecb1966	-0.39667815
106	0xbe948ac9	-0.29012135
107	0x3cd3d161	0.025856676
108	0x3ec1872c	0.3779844
109	0xbd8232a5	-0.06357316
110	0xbe54e6b7	-0.20791136
111	0x3e1e8150	0.15479016
112	0x3e853095	0.26013628
113	0xbea59439	-0.32339647
114	0xbe2a812a	-0.16650835
115	0x3f24a019	0.6430679
116	0xbea799f2	-0.32734638
117	0xbda6f9ad	-0.081530906
118	0xbdde8d25	-0.10866765
119	0x3cc09eec	0.02351328
120	0x3d86d4c9	0.06583554
121	0xbd6bb06f	-0.057541307
122	0x3e91b55a	0.28458673
123	0x3e4c9135	0.19977267
124	0xbe130560	-0.14357519
125	0x3e56ff75	0.20995887
126	0x3e29ac5e	0.16569659
127	0x3aea5bf3	0.0017880186
128	0xbeee29b3	-0.4651619
129	0x3e41d5d3	0.18929224
130	0xbd9efa85	-0.077626266
131	0x3d9d9bef	0.076957576
132	0xbea331b7	-0.31873867
133	0x3d0731b9	0.033006404
134	0x3f25fdc1	0.6484032
135	0x3db29a45	0.08720831
136	0xbe91d8c7	-0.284857
137	0x3e24168a	0.16024223
138	0xbe0edefc	-0.1395225
139	0xbdb12b64	-0.08650854
140	0xbdf7d30f	-0.12100803
141	0x3e89105d	0.26770297
142	0xbe20cf7a	-0.15704146
143	0xbe24ab0f	-0.16080879
144	0x3e916f21	0.28405097
145	0xbeab7ddf	-0.3349447
146	0xbe73c9a2	-0.23807386
147	0x3c9f70b2	0.019462917
148	0x3e9c0c03	0.30477914
149	0x3e3d71c2	0.18500426
150	0xbed10eed	-0.408317
151	0x3e346242	0.17615607
152	0x3ebad637	0.36491558
153	0x3c995991	0.018719466
154	0xbe385665	-0.18001707
155	0x3e2e464a	0.17019
156	0x3e12b061	0.14325096
157	0x3e169994	0.14707023
158	0xbd7f7068	-0.06236306
159	0xbf1edc1f	-0.6205463
160	0xbea7f5db	-0.3280476
161	0x3d61e073	0.055145692
162	0x3d26a8cd	0.040688325
163	0xbdda4aaa	-0.10658772
164	0xbe1673ae	-0.14692566
165	0xbeb1dddf	-0.34739587
166	0xbdbab55e	-0.09116624
167	0xbd890570	-0.0669049
168	0x3d9ce9fa	0.07661815
169	0xbf2d2e05	-0.67648345
170	0xbc52518c	-0.012836825
171	0x3e8d1695	0.2755629
172	0x3e63c00a	0.22241226
173	0xbe9aabf9	-0.3020933
174	0xbdc1d275	-0.094639696
175	0x3dd6e314	0.104925305
176	0xbe8eed5e	-0.27915472
177	0xbeaa7e20	-0.3329935
178	0xbe04aa20	-0.12955523
179	0x3de1e2e2	0.110296026
180	0x3df17b16	0.11791055
181	0x3e2ce24c	0.168832
182	0xbca8027a	-0.020508993
183	0xbe2990bc	-0.16559118
184	0xbbac8a47	-0.0052655074
185	0x3e860668	0.26176763
186	0x3ea97891	0.33099797
187	0xbe8b2690	-0.27177858
188	0x3d0ca58c	0.034337565
189	0xbdfa0355	-0.12207667
190	0x3de2588c	0.11052045
191	0xbde23fb6	-0.11047308
192	0xbf21158c	-0.629235
193	0xbd20bb08	-0.039240867
194	0xbe6d0510	-0.23146462
195	0x3c1ebca5	0.009688531
196	0xbc8920f9	-0.016739355
197	0x3ddba15b	0.107241355
198	0x3e01fc68	0.12693942
199	0x3e437e2a	0.19091097
200	0xbcdd054e	-0.026980069
201	0x3e5df7e8	0.216766
202	0xbe24dab9	-0.16099061
203	0xbc999d92	-0.018751893
204	0x3e3d227c	0.18470186
205	0xbe88d3af	-0.26724002
206	0xbe003c9b	-0.12523119
207	0x3d77b3d5	0.060474236
208	0x3e5d63c0	0.21620083
209	0xbdba9097	-0.091096096
210	0xbec4ddf3	-0.38450584
211	0x3dfcb968	0.12340051
212	0xbed96d5a	-0.4246624
213	0x3e23d92d	0.16000815
214	0xbdd8ff6d	-0.105955936
215	0x3da40b77	0.08009999
216	0x3d983f85	0.074339904
217	0xbedbd0d3	-0.42932758
218	0xbf1a85de	-0.60360515
219	0xbd11f8a9	-0.03563753
220	0x3e6bcf78	0.23028362
221	0x3c275c63	0.010214898
222	0x3e68e4ab	0.2274348
223	0x3ca68700	0.020328045
224	0x3d78adcf	0.06071263
225	0xbeadf254	-0.33973944
226	0xbda76ecf	-0.08175432
227	0xbdee545c	-0.11637184
228	0x3def4c03	0.1168442
229	0x3ee83ab1	0.45357278
230	0x3d8494ba	0.0647368
231	0x3ebb59cf	0.36591956
232	0x3e276358	0.1634649
233	0xbedacee8	-0.42735982
234	0xbd0bd464	-0.0341381
235	0xbda89c22	-0.08232905
236	0xbe7c9742	-0.24667075
237	0x3ea62c85	0.3245584
238	0x3d53477a	0.051581837
239	0xbca12421	-0.019670548
240	0x3e8da200	0.2766266
241	0x3de46c14	0.11153427
242	0x3e8eda74	0.27901042
243	0x3e8d195f	0.2755842
244	0x3e18a0f7	0.14905153
245	0x3d5298a3	0.051415097
246	0xbe75d77a	-0.24007979
247	0x3f01d9cf	0.50722975
248	0xbe7782ac	-0.24170941
249	0x3e2585d2	0.1616433
250	0x3e0d6ef5	0.13811858
251	0x3e2d20de	0.16907069
252	0x3d84fd5d	0.06493638
253	0xbdcbe4c8	-0.09955746
254	0x3cc06427	0.023485256
255	0xbe53fb42	-0.20701316

gru0.bias_ih_l0 f4 [60]
0	0x3e246bd4	0.16056758
1	0xbe2be832	-0.16787794
2	0x3e2258a4	0.15854126
3	0x3d033d6e	0.032041006
4	0x3dba812a	0.09106667
5	0x3e6e6212	0.23279598
6	0xbe3b7cd5	-0.18309338
7	0xbd5fcf16	-0.054640852
8	0x3e66e4a8	0.22548163
9	0xbe484ddc	-0.19560951
10	0xbdf8a58e	-0.12140952
11	0xbdbf2127	-0.09332495
12	0x3e371848	0.17880356
13	0x3dfad6c9	0.12247998
14	0xbc82a707	-0.015948785
15	0x3dbac4ee	0.091195926
16	0xbd831c59	-0.06401891
17	0xbd670051	-0.056396786
18	0x3e678b4e	0.22611734
19	0x3dd19326	0.102331445
20	0xbe690817	-0.22756992
21	0x3e4299d2	0.1900399
22	0x3dd6d433	0.104896925
23	0x3dd423ff	0.10358428
24	0x3e40fe26	0.1884695
25	0x3de7a349	0.11310441
26	0xbdcf7865	-0.10130385
27	0xbd557ffc	-0.05212401
28	0xbd181977	-0.03713366
29	0x3d9ff793	0.07810893
30	0xbdd2dc95	-0.10295979
31	0xbb99f69c	-0.0046985876
32	0x3e3d8b7f	0.18510245
33	0xbdadfbc6	-0.084952876
34	0x3e726e45	0.23674877
35	0x3e5ec780	0.2175579
36	0x3df9d54c	0.12198886
37	0x3dcd41fc	0.10022351
38	0x3dd566b7	0.10419982
39	0x3dcf42d0	0.10120165
40	0x3e07a54e	0.13246652
41	0x3dfb956a	0.12284358
42	0xbdc40415	-0.09571091
43	0xbde38de3	-0.11111047
44	0x3d802af5	0.062581934
45	0xbe01d62d	-0.12679358
46	0x3e68a200	0.22718048
47	0xbd3daab5	-0.046305377
48	0x3e63614d	0.22205086
49	0xbd97cf1c	-0.0741255
50	0xbe260c8f	-0.16215728
51	0xbe5fd09d	-0.21856923
52	0xbe49ad57	-0.1969503
53	0x3e2fcc50	0.17167783
54	0x3d4e7dc7	0.05041292
55	0xbe054a52	-0.13016632
56	0xbe6862fb	-0.22694008
57	0xbd698eb6	-0.057020865
58	0xbce8a821	-0.028400483
59	0xbe1d2085	-0.15344436

gru0.bias_hh_l0 f4 [60]
0	0xbdfc1b92	-0.12309946
1	0x3d9198a9	0.07109196
2	0x3d06cde0	0.03291118
3	0xbd9d57bf	-0.07682752
4	0xbcc5f495	-0.024164477
5	0x3dd3b158	0.1033656
6	0x3dbb69c9	0.09151036
7	0xbd294d68	-0.041333586
8	0x3e274e02	0.16338351
9	0xbe3f899b	-0.18704836
10	0x3db8bc42	0.09020282
11	0xbe326d70	-0.1742456
12	0xbe320284	-0.17383772
13	0xbc901d98	-0.017592236
14	0x3dcc51b9	0.09976525
15	0x3d8a4c60	0.067528486
16	0x3e2d90f4	0.16949826
17	0xbe3f501b	-0.18682902
18	0x3e265a0a	0.16245285
19	0xbdf80e6c	-0.12112126
20	0x3da352d3	0.07974782
21	0x3e0493bf	0.12946986
22	0xbd236821	-0.039894227
23	0xbd9032d8	-0.07040948
24	0x3dc502b2	0.09619655
25	0x3e8624a4	0.2619983
26	0x3dc6d1c9	0.09707982
27	0x3d630f5b	0.055434566
28	0xbd402d94	-0.046918467
29	0xbd84765b	-0.06467887
30	0x3e510933	0.20413665
31	0xbdbeab0e	-0.0930997
32	0x3de183fd	0.11011503
33	0x3dab9d85	0.08379654
34	0x3e37ec36	0.17961201
35	0xbdfeb6fa	-0.12437244
36	0xbdef44f8	-0.116830766
37	0xbdd466a9	-0.10371143
38	0xbd9c28f2	-0.07624997
39	0x3d0f10d3	0.034928154
40	0xbd3a815b	-0.04553352
41	0xbe143592	-0.1447356
42	0x3d0a9b7d	0.03383969
43	0x3e434a5a	0.19071332
44	0x3e06498d	0.13113995
45	0xbe3c28de	-0.18374965
46	0x3e4d15b6	0.20027813
47	0xbe22a241	-0.15882207
48	0xba9d25f4	-0.001198946
49	0x3e67d28a	0.22638908
50	0xbe12e24e	-0.14344141
51	0xbcb0feaa	-0.021605808
52	0xbdee03d1	-0.11621822
53	0xbe56b821	-0.20968677
54	0xbe415861	-0.1888137
55	0x3e630354	0.22169238
56	0x3df63fc9	0.12023885
57	0xb9c2c3ff	-0.00037148592
58	0x3e47cc30	0.19511485
59	0x3e2ebcce	0.17064211

gru0.weight_ih_l1 f4 [60, 20]
0	0x3e2cc9ad	0.16873808
1	0xbe65b8f2	-0.22433832
2	0x3e01f079	0.1268939
3	0x3eda11cb	0.425917
4	0x3d1add1b	0.03780852
5	0x3c90864e	0.017642166
6	0x3e3c3dd6	0.18382964
7	0xbe4ef11d	-0.20209165
8	0xbda61ff9	-0.08111567
9	0x3ec1093f	0.37702367
10	0xbe85e3ce	-0.26150364
11	0x3e73bac4	0.23801714
12	0x3cc2c572	0.02377579
13	0x3e1df899	0.15426864
14	0x3f084a67	0.5323853
15	0xbda0ab91	-0.07845224
16	0x3d9e1df9	0.077205606
17	0x3ed1e176	0.40992326
18	0xbd2ec1d5	-0.04266532
19	0xbe3999be	-0.18125054
20	0xbc835102	-0.016029838
21	0x3f1975a0	0.59945107
22	0x3e9eddc8	0.3102858
23	0x3df4c841	0.11952258
24	0xbcc1212d	-0.02357539
25	0xbef884d1	-0.4853883
26	0xbe02bfdb	-0.127685
27	0x3e4a4668	0.1975342
28	0xbe468cee	-0.19389698
29	0x3d4363f4	0.047702745
30	0xbd934362	-0.071905866
31	0x3eb08819	0.34478834
32	0x3e4c0373	0.19923191
33	0x3dcc4cc3	0.09975579
34	0xbe06687c	-0.13125795
35	0x3ead9035	0.33899084
36	0xbd1d2e1c	-0.03837405
37	0xbe196b46	-0.14982328
38	0xbec8058f	-0.3906674
39	0x3e436b03	0.1908379
40	0xbc9661fd	-0.018357271
41	0x3d702ef6	0.058638535
42	0x3ea0e41a	0.31424028
43	0xbe399d89	-0.18126501
44	0x3ee5cb7c	0.4488181
45	0xbe611e0d	-0.2198412
46	0xbe12e27f	-0.14344214
47	0xbe893eab	-0.26805624
48	0x3e8657d8	0.26238894
49	0xbeb7b495	-0.3587996
50	0xbdfa260b	-0.12214287
51	0x3da30237	0.07959407
52	0x3e2c7fd3	0.16845636
53	0xbd94662a	-0.07246049
54	0xbea9a7d9	-0.3313587
55	0x3ec44751	0.3833566
56	0x3e336bbc	0.17521566
57	0x3eacf00b	0.33776888
58	0xbc10c542	-0.008836092
59	0xbeb7376e	-0.35784477
60	0xbe27867c	-0.16359895
61	0x3ec45381	0.38344958
62	0x3e168d79	0.14702405
63	0x3e2d2319	0.1690792
64	0xbf0d78cb	-0.5526244
65	0x3ec0b091	0.3763471
66	0x3e7af8cf	0.24508975
67	0x3ea202be	0.31642717
68	0xbe693bd0	-0.22776723
69	0xbe49a14a	-0.19690433
70	0xbd1f58b3	-0.03890295
71	0x3e1bd773	0.15218906
72	0x3ea311a4	0.31849396
73	0x3bbb9597	0.0057246196
74	0xbd7c6a75	-0.061624963
75	0xbd39db68	-0.045375258
76	0x3e994d91	0.2994199
77	0xbe6719d6	-0.2256845
78	0xbe27471a	-0.16335717
79	0xbe544ef6	-0.20733246
80	0xbe151fd7	-0.14562927
81	0xbe8af2ed	-0.27138463
82	0xbe1163e8	-0.14198267
83	0xbe9daf18	-0.30797648
84	0x3ec54ef2	0.38536793
85	0x3cf02f04	0.029319294
86	0x3d819e3a	0.063290074
87	0xbdf45baa	-0.11931546
88	0x3d9a40b7	0.075318746
89	0x3d3c24f2	0.04593367
90	0xbea3a6ef	-0.31963298
91	0x3e863c71	0.26217988
92	0x3ea916c2	0.33025175
93	0x3e9f477c	0.31109226
94	0x3e16a965	0.14713056
95	0xbe7827df	-0.2423396
96	0x3d8a6b6f	0.067587726
97	0x3d46ff8e	0.04858356
98	0x3e36405d	0.1779799
99	0xbf105ceb	-0.5639178
100	0x3e5e8107	0.21728908
101	0xbe21f435	-0.15815814
102	0x3dd12510	0.10212147
103	0x3e824d0d	0.2544941
104	0xbd30cb87	-0.04316285
105	0x3f1c6521	0.6109181
106	0x3e46690d	0.19376011
107	0xbe07c110	-0.13257241
108	0x3df63f59	0.12023801
109	0x3c5e77fa	0.013578409
110	0xbb928964	-0.0044719446
111	0xbe13bc6b	-0.14427345
112	0x3e493969	0.19650806
113	0x3eba4745	0.363825
114	0x3eec3cb9	0.46140078
115	0xbeb37c37	-0.35055706
116	0x3e1896b3	0.14901237
117	0xbeaa0a90	-0.33211184
118	0xbec3fe2b	-0.38279852
119	0xbee49dc6	-0.44651622
120	0x3ea820b4	0.3283745
121	0x3c13319e	0.008983998
122	0x3ddaae5d	0.106777884
123	0x3e9a0d14	0.30088103
124	0x3dfe7435	0.124245085
125	0xbb5e3a59	-0.003390929
126	0x3df87cb9	0.12133164
127	0xbdc068c2	-0.09394981
128	0x3dc74981	0.09730817
129	0x3c8e652d	0.017382229
130	0xbe610155	-0.21973164
131	0xbe0572d7	-0.13032089
132	0x3e4a257f	0.19740866
133	0x3e11e5e1	0.14247848
134	0x3c50e528	0.012749948
135	0x3e2982ff	0.16553877
136	0xbe626876	-0.22110161
137	0x3e535145	0.2063647
138	0x3e38e2ec	0.18055314
139	0xbf286007	-0.65771526
140	0x3e24c7e9	0.16091885
141	0x3e521e5b	0.20519392
142	0x3e3dc2da	0.18531361
143	0x3f0ed899	0.5579925
144	0x3e6aa2d2	0.22913674
145	0xbdc9f3d7	-0.09860962
146	0x3e9fda24	0.31221116
147	0x3c8eb7fc	0.017421715
148	0x3e13a1d6	0.14417204
149	0x3eef57ef	0.46746776
150	0xbe6ff563	-0.23433451
151	0x3ebcfd7a	0.36912137
152	0x3efa14b6	0.48843926
153	0x3ce5a38e	0.02803209
154	0x3da608c3	0.0810714
155	0xbe74f645	-0.2392207
156	0xbf12de8a	-0.5737082
157	0x3e115e1c	0.14196056
158	0xbe00af88	-0.1256696
159	0xbe9bb031	-0.3040786
160	0xbd6d924f	-0.05800086
161	0xbc95eef4	-0.018302418
162	0xbcf38545	-0.029726634
163	0x3df684f8	0.120370805
164	0xbdc2b2b6	-0.09506743
165	0x3d8244d2	0.06360783
166	0xbde17549	-0.110086985
167	0x3e41a78c	0.1891157
168	0xbeef8a86	-0.46785372
169	0xbf202171	-0.6255103
170	0xb8ce5c91	-9.840087e-05
171	0xbd939f86	-0.07208161
172	0xbd8ed0d1	-0.06973422
173	0x3ea12b2c	0.3147825
174	0xbe284727	-0.16433392
175	0x3e8b2f18	0.27184367
176	0xbe88e475	-0.267368
177	0xbd1888b6	-0.037239753
178	0xbed3e810	-0.41387987
179	0x3e817d7a	0.25291044
180	0x3e7e1e00	0.24816132
181	0x3e95fa9b	0.2929276
182	0x3dbf63e0	0.093452215
183	0x3ed5f3f1	0.41787675
184	0x3e9999d6	0.3000018
185	0xbe47e964	-0.19522625
186	0x3ea035c9	0.31291035
187	0xbf03c536	-0.51472795
188	0x3e9c87c6	0.30572337
189	0xbdce8168	-0.10083276
190	0xbe8dcf9d	-0.2769746
191	0xbddef894	-0.10887256
192	0x3e8390bd	0.25696364
193	0x3e06f345	0.13178737
194	0xbe59af2d	-0.2125823
195	0x3e625f82	0.22106746
196	0x3cc4ed2d	0.024038875
197	0x3e99f305	0.30068222
198	0xbe5a1cae	-0.21300003
199	0x3de8bc17	0.11364
200	0x3d86d7ea	0.06584151
201	0xbeb4e6a8	-0.35332227
202	0x3e590846	0.21194562
203	0x3eaa9a06	0.33320636
204	0xbdbdd76a	-0.092696026
205	0x3ec67367	0.3875992
206	0xbe14c855	-0.14529546
207	0xbcbcae23	-0.023032254
208	0xbe6de94c	-0.23233527
209	0x3eaf1499	0.34195402
210	0x3e24e642	0.16103461
211	0x3ee11acb	0.43965754
212	0x3ece4757	0.40288803
213	0x3e8378d8	0.25678134
214	0x3efce289	0.49391583
215	0xbe2bcc82	-0.16777232
216	0xbe13d11a	-0.14435235
217	0xbee82926	-0.45343894
218	0xbe5f3e1d	-0.21801038
219	0x3da11f8c	0.07867345
220	0x3ecadf0b	0.39623293
221	0x3df85a10	0.12126553
222	0xbd4816c9	-0.048849855
223	0x3d9ca55d	0.07648728
224	0xbe0ff9d5	-0.14060147
225	0x3db0c3ee	0.086311206
226	0x3eab6740	0.3347721
227	0xbe900643	-0.28129777
228	0x3ef83134	0.4847504
229	0x3db77554	0.089579254
230	0xbe814ca4	-0.25253785
231	0xbc3b19ed	-0.011419755
232	0x3dd63623	0.104595445
233	0x3d7ce8e9	0.061745558
234	0x3f122446	0.570866
235	0x3e66b183	0.22528653
236	0xbce6d22e	-0.028176393
237	0xbd28df96	-0.041228853
238	0xbe9e1241	-0.30873302
239	0xbe01cff1	-0.1267698
240	0x3e208fba	0.15679827
241	0xbdd407bb	-0.10353037
242	0xbd9b87dc	-0.075942725
243	0x3e1ebe85	0.15502365
244	0x3f0978ea	0.53700125
245	0xbe84f1f9	-0.2596586
246	0x3dc54c94	0.09633747
247	0xbe193299	-0.14960708
248	0x3ccac923	0.024754113
249	0x3dceb092	0.10092272
250	0xbe821f35	-0.25414434
251	0xbdf8d3a8	-0.12149745
252	0x3e5eb7b6	0.21749768
253	0xbe27a6df	-0.1637225
254	0xbe94439c	-0.28957832
255	0xbe4ba524	-0.19887215

gru0.weight_hh_l1 f4 [60, 20]
0	0xbebe69db	-0.37190136
1	0x3e557fa8	0.20849478
2	0xbcf994c5	-0.030466447
3	0x3d601921	0.054711465
4	0xbd115e69	-0.035490427
5	0xbe6dc11a	-0.23218194
6	0x3de95073	0.113922976
7	0x3b2e27cd	0.0026574016
8	0x3e966aae	0.29378265
9	0x3d80da5d	0.062916495
10	0x3e9709ec	0.29499757
11	0xbd892030	-0.066955924
12	0x3eb41d6f	0.35178706
13	0x3eca2af8	0.39485908
14	0x3cf01059	0.02930467
15	0xbd203686	-0.039114498
16	0xbe673f17	-0.2258266
17	0x3e2f06a0	0.17092371
18	0x3e6a6096	0.22888407
19	0xbe168d49	-0.14702334
20	0x3ed7367a	0.4203375
21	0xbe3a3e97	-0.18187939
22	0x3e3762d8	0.179088
23	0x3e32e6d2	0.17470863
24	0x3ec474ae	0.3837027
25	0x3f472acb	0.7779967
26	0x3ee31aa8	0.44356275
27	0x3df0aee5	0.117521085
28	0xbd9b96a2	-0.0759709
29	0x3dfd0337	0.12354129
30	0x3dc7b82b	0.09751924
31	0xbe1780fd	-0.14795299
32	0x3ec560e5	0.38550487
33	0x3ec3dc0a	0.38253814
34	0xbe1db2ea	-0.15400282
35	0xbe4bbbf2	-0.19895914
36	0xbe19e00e	-0.15026876
37	0x3f03270d	0.5123146
38	0x3ddd70c2	0.108125225
39	0x3f79e9d3	0.9762241
40	0xbe13284e	-0.14370844
41	0xbec9e8b6	-0.39435357
42	0x3e6eba67	0.23313294
43	0x3e8f7058	0.280154
44	0x3dbfee14	0.09371582
45	0x3cdf8820	0.02728659
46	0xbed64f70	-0.4185748
47	0xbe965921	-0.29364875
48	0x3d8b410d	0.06799517
49	0xbc42ab35	-0.011881639
50	0xbe0d5e92	-0.13805607
51	0xbe51e351	-0.2049687
52	0xbe732e67	-0.2374817
53	0x3e17a139	0.14807595
54	0xbe1adc57	-0.15123115
55	0x3e898959	0.268626
56	0x3e9015f9	0.28141764
57	0x3de34179	0.11096472
58	0x3dae9649	0.08524758
59	0xbe372ffa	-0.17889395
60	0x3e282705	0.16421135
61	0x3e4ddd1a	0.20103875
62	0x3e1ccf61	0.15313484
63	0xbe0a4372	-0.13502291
64	0x3e952e88	0.29137063
65	0x3e729234	0.23688585
66	0x3d25650e	0.040379576
67	0xbe3a51ed	-0.18195315
68	0xbe5ee5d2	-0.21767357
69	0xbd07359f	-0.03301012
70	0x3f08e371	0.5347205
71	0xbd48bf62	-0.049010642
72	0x3d0288a6	0.0318686
73	0x3ef4f800	0.4784546
74	0x3db63640	0.08897066
75	0xbdb2ef40	-0.087370396
76	0xbeae72f7	-0.34072086
77	0x3dc7faac	0.09764609
78	0x3e9dbea8	0.30809522
79	0xbdb34334	-0.08753052
80	0x3d9ab4a9	0.075539894
81	0x3e65f8f2	0.22458246
82	0x3e764ba2	0.24052289
83	0xbe25edaf	-0.1620395
84	0xbe481b08	-0.19541562
85	0xbdc22d06	-0.09481244
86	0xbe30deaa	-0.1727244
87	0xbe8c7a6e	-0.27437156
88	0xbce4e2c9	-0.02794017
89	0x3d72f4c3	0.059315454
90	0x3e91a195	0.2844359
91	0x3dff0780	0.124526024
92	0xbea53a5f	-0.32271096
93	0x3d9030a1	0.07040525
94	0xbeab4676	-0.33452195
95	0x3d38d518	0.045125097
96	0x3ded2076	0.11578457
97	0xbe3c4085	-0.18383987
98	0xbc93d504	-0.01804591
99	0xbf1fe0e0	-0.62452507
100	0xbecc0229	-0.39845398
101	0x3eb4fa60	0.3534727
102	0xbe6267fa	-0.22109976
103	0xbe8054ed	-0.25064793
104	0x3dc7e2c7	0.09760051
105	0x3e131d8a	0.14366737
106	0x3d9dce87	0.077054076
107	0x3d9d9756	0.07694881
108	0x3e652eac	0.22381085
109	0x3e537273	0.20649128
110	0x3e87e5d3	0.2654253
111	0x3e0b07cf	0.13577197
112	0xbe506441	-0.20350744
113	0x3e3b1de5	0.18273123
114	0x3d863fc9	0.06555135
115	0x3e73f1a5	0.23822649
116	0xbe03ae08	-0.12859356
117	0xbd8c7125	-0.06857518
118	0x3e8a9ee3	0.27074346
119	0xbdc042e0	-0.093877554
120	0x3dca76b6	0.098859236
121	0x3e738275	0.23780234
122	0xbe33e210	-0.17566705
123	0xbe687098	-0.22699201
124	0x3a86ea86	0.0010293282
125	0xbe092139	-0.1339158
126	0xbb5f2ede	-0.0034055035
127	0xbe9666da	-0.29375345
128	0x3eaf3a38	0.34224105
129	0x3dad884f	0.084732644
130	0xbd854423	-0.06507137
131	0x3d351b98	0.04421577
132	0x3e3341ac	0.1750552
133	0xbd6985fe	-0.05701255
134	0xbea347b9	-0.31890658
135	0x3f1a4299	0.6025787
136	0x3e80e88c	0.2517742
137	0xbea6c8a3	-0.3257495
138	0xbdf97620	-0.12180734
139	0xbe22bb6e	-0.15891811
140	0xbdb4e515	-0.088327564
141	0xbda68ad4	-0.08131948
142	0xbd82075a	-0.063490584
143	0xbd8f5d2f	-0.07000195
144	0x3e897c2b	0.26852545
145	0x3ed42240	0.4143238
146	0x3ed5969c	0.41716468
147	0xbe27513b	-0.1633958
148	0x3e19b145	0.15009029
149	0xbd9dac7e	-0.07698916
150	0xbe227b21	-0.15867282
151	0xbf07bb9b	-0.5302064
152	0xbe410321	-0.1884885
153	0x3ecddd47	0.40207884
154	0xbf0b6ffc	-0.5446775
155	0x3ec61ba6	0.3869297
156	0xbde3a795	-0.11115948
157	0xbe2e280a	-0.17007461
158	0xbe043079	-0.12909116
159	0x3e56b265	0.2096649
160	0x3f30865a	0.68955004
161	0xbe0edf99	-0.13952483
162	0xbddfaae3	-0.10921266
163	0xbe04bbce	-0.12962267
164	0x3e1a6188	0.15076268
165	0x3e55fdc7	0.2089759
166	0x3ee5ca9e	0.44881147
167	0xbb23fc34	-0.002502215
168	0xbd9370cd	-0.071992494
169	0x3e17f9de	0.1484141
170	0x3e159e31	0.14611126
171	0x3ba02400	0.004887104
172	0xbd0ebe6e	-0.034849577
173	0xbd48880a	-0.048957862
174	0xbeb13027	-0.3460705
175	0x3c3c8c10	0.011508003
176	0xbec8bd0f	-0.3920674
177	0xbe0bd14c	-0.13654059
178	0x3db1fba5	0.086905755
179	0x3d4f29c1	0.05057693
180	0xbd3a9669	-0.0455536
181	0x3d962fc6	0.07333331
182	0xbc581ffe	-0.013191221
183	0x3f13164e	0.5745591
184	0x3d64f1fb	0.055894833
185	0x3ddf0adc	0.10890743
186	0xbeee963c	-0.46598995
187	0x3ee85485	0.45376983
188	0xbc495ab8	-0.012289695
189	0x3e4644a9	0.1936213
190	0x3eb1f446	0.34756678
191	0xbe9c99e9	-0.30586174
192	0x3d039dc5	0.032132883
193	0x3dbd4378	0.09241384
194	0xbd9296cf	-0.07157671
195	0x3e81c556	0.25345868
196	0x3e1cb824	0.15304619
197	0x3f1a51e5	0.6028121
198	0xbe83e023	-0.2575694
199	0xbe26c5cd	-0.16286393
200	0x3ddce3e7	0.107856564
201	0x3d5a96da	0.05336652
202	0xbc08be00	-0.008346081
203	0xbea679d6	-0.32514828
204	0xbe8a6d5b	-0.27036557
205	0x3e1eba07	0.15500651
206	0x3e8e42e3	0.27785406
207	0xbe3039e0	-0.17209578
208	0x3ec770ed	0.38953343
209	0xbea40063	-0.32031545
210	0xbe930faf	-0.28722903
211	0xbe73e579	-0.23818006
212	0xbe8b0769	-0.2715409
213	0xbe9df84a	-0.30853492
214	0xbf00ab07	-0.50260967
215	0x3a80bc16	0.0009821679
216	0x3e6ce47a	0.23134032
217	0xbe805a9b	-0.25069126
218	0xbe5312ec	-0.20612687
219	0xbd864d2e	-0.065576896
220	0xbe9adcff	-0.30246732
221	0x3d113e35	0.035459716
222	0xbe459010	-0.19293237
223	0xbe3a830e	-0.18214056
224	0x3df0106f	0.117218845
225	0x3d5442fa	0.051821686
226	0x3e3a51ac	0.18195218
227	0x3e995e82	0.29954916
228	0x3ebd5f10	0.3698659
229	0x3e8c39ae	0.27387756
230	0x3e122a97	0.14274059
231	0xbe3879d8	-0.1801523
232	0xbabad899	-0.0014255225
233	0x3d97a166	0.07403831
234	0xbe215757	-0.15755974
235	0x3ef1142a	0.47085696
236	0x3aa51a28	0.0012596296
237	0x3d91eb8e	0.071250066
238	0xbe65a42a	-0.22425905
239	0x3eb36aea	0.35042506
240	0x3e7ca5c3	0.24672608
241	0xbc5141db	-0.012772049
242	0x3e1e497b	0.15457718
243	0x3ed2e85f	0.4119291
244	0x3e7b525b	0.24543135
245	0x3e01aefe	0.1266441
246	0x3e79b9ef	0.24387334
247	0x3c0b266f	0.00849305
248	0xbde36072	-0.1110238
249	0x3dc44183	0.09582808
250	0xbaa7f8be	-0.001281522
251	0xbf082fc3	-0.5319788
252	0x3de74152	0.11291756
253	0x3da1485c	0.078751296
254	0xbd75d3b5	-0.060016353
255	0xbe58db6e	-0.21177456

gru0.bias_ih_l1 f4 [60]
0	0x3e027bfb	0.12742607
1	0x3ea036f1	0.31291917
2	0x3d83d6e4	0.064374715
3	0x3d1de494	0.038548067
4	0xbe59d898	-0.2127403
5	0x3e33c422	0.17555287
6	0x3de0698d	0.10957632
7	0x3ebf4a89	0.37361553
8	0xbd74a1bf	-0.059724566
9	0x3ef0f4a2	0.4706164
10	0x3e4b2394	0.1983779
11	0x3ec9523f	0.3932056
12	0xbc08ed46	-0.008357352
13	0x3eb70db4	0.35752642
14	0xbc92ff10	-0.017943889
15	0x3ebce099	0.36890104
16	0xbe024a9f	-0.12723778
17	0x3e771cd8	0.24132097
18	0xbdae7578	-0.08518499
19	0x3ca51053	0.020149386
20	0x3e843619	0.25822523
21	0xbebcaddd	-0.36851397
22	0xbe853a5d	-0.2602109
23	0xbf1ec7d2	-0.6202365
24	0xbe3039da	-0.17209569
25	0x3e85e1c4	0.26148808
26	0xbe4f4d20	-0.20244265
27	0x3e135096	0.1438621
28	0x3e9e1881	0.3087807
29	0x3e709f71	0.23498322
30	0xbe920ad2	-0.2852388
31	0xbd5251cd	-0.051347543
32	0xbe2402d2	-0.16016701
33	0xbea7f282	-0.32802206
34	0x3dacbc29	0.08434326
35	0xbe349975	-0.17636664
36	0xbe0ae639	-0.13564385
37	0xbe4526c3	-0.19253068
38	0xbeb0ba3d	-0.3451709
39	0xbe953afb	-0.2914656
40	0x3e3bdb88	0.18345463
41	0x3e245f63	0.16052012
42	0xbe401723	-0.18758826
43	0x3e314dd1	0.17314841
44	0x3d9f4079	0.07775969
45	0xbc9f0659	-0.019412206
46	0xbdd516a6	-0.104047105
47	0x3ccb0422	0.024782244
48	0xbca83ba9	-0.02053626
49	0x3e0c5ff1	0.13708474
50	0x3e0fa208	0.14026654
51	0xbe512e6f	-0.2042787
52	0xbd5be940	-0.05368924
53	0x3e150b8d	0.14555188
54	0x3c1d2900	0.009592295
55	0x3e1bda1e	0.15219924
56	0xbe48b771	-0.19601227
57	0x3d31cd39	0.043408606
58	0x3d74581a	0.059654333
59	0x3e4bd182	0.1990414

gru0.bias_hh_l1 f4 [60]
0	0xbe1fbdcc	-0.15599746
1	0x3ec59f6b	0.3859819
2	0x3e936fb4	0.2879616
3	0x3ba26e9d	0.004957034
4	0xbe7521d5	-0.23938687
5	0x3e779a48	0.24179947
6	0x3cb62b6c	0.022237502
7	0x3e563172	0.209173
8	0x3ddc2493	0.107491635
9	0x3e84a9d0	0.25910807
10	0xbe099c5d	-0.13438554
11	0x3d0692b4	0.03285475
12	0x3eaa25d6	0.33231992
13	0x3ea1c081	0.3159218
14	0x3eafa97f	0.34309003
15	0x3d6b32e8	0.057421595
16	0x3e89561a	0.26823503
17	0x3eb430de	0.35193533
18	0x3e46712f	0.19379114
19	0x3e10f486	0.14155778
20	0xbe160629	-0.14650787
21	0xbef651ef	-0.48109385
22	0xbe84d465	-0.25943294
23	0xbeb03910	-0.34418535
24	0xbe963487	-0.2933695
25	0x3e7ec4e0	0.2487979
26	0xbdf5cefe	-0.12002371
27	0xbcb7bc1c	-0.022428565
28	0x3ebe8f5d	0.37218753
29	0xbd3a8fd9	-0.04554734
30	0xbe2bfea6	-0.1679636
31	0x3dda92f9	0.10672564
32	0xbe89f6b9	-0.26946047
33	0xbe1448c7	-0.14480887
34	0x3e1713db	0.14753668
35	0xbe823f94	-0.2543913
36	0xbe8fb170	-0.28065062
37	0xbf1758e3	-0.59120005
38	0xbd9e8d83	-0.07741835
39	0xbf04c61e	-0.518648
40	0xbda3b687	-0.07993799
41	0xbd71f5d8	-0.059072345
42	0x3e580cc6	0.21098623
43	0x3dd67105	0.104707755
44	0x3e1c5b2f	0.15269159
45	0x3e75e59a	0.24013367
46	0x3e047a67	0.12937318
47	0x3d964915	0.07338158
48	0xbe26e91c	-0.16299862
49	0x3e84b412	0.25918633
50	0xbdb0e2c2	-0.086370006
51	0xbeb02565	-0.3440353
52	0x3e175dfa	0.14781943
53	0x3e8fe607	0.28105184
54	0x3e3bae1f	0.1832814
55	0xbdfb092a	-0.12257607
56	0x3e4a466f	0.19753431
57	0xbd4aedd6	-0.049543224
58	0x3e851470	0.25992155
59	0xbda4f43c	-0.080543965

gru1.weight_ih_l0 f4 [30, 20]
0	0xbe0aa595	-0.13539727
1	0xbe953729	-0.29143646
2	0xbe99d72f	-0.30046985
3	0x3ead0338	0.33791518
4	0xbd0c4f6b	-0.034255426
5	0xbee8d22f	-0.45472857
6	0xbe78f4d4	-0.24312145
7	0xbd853980	-0.06505108
8	0x3e967d44	0.29392445
9	0xbe8c84ff	-0.27445218
10	0x3ea7a4d6	0.32742947
11	0x3dad4723	0.08460834
12	0x3eb51746	0.3536932
13	0x3dd3a5af	0.10334336
14	0xbe03e18b	-0.12879007
15	0x3e54aa0a	0.2076799
16	0x3f0a732b	0.5408198
17	0x3ce90030	0.028442472
18	0xbec92ffa	-0.39294416
19	0xbe65e19e	-0.22449347
20	0x3e263291	0.16230227
21	0xbe1a7b74	-0.15086156
22	0xbeca96df	-0.3956823
23	0xbc960f5a	-0.018317867
24	0x3c83e629	0.01610096
25	0xbeacbf4e	-0.33739704
26	0xbc19baa7	-0.00938288
27	0xbe5c133c	-0.21491712
28	0xbd3eea3f	-0.046610113
29	0xbe9afdc4	-0.30271733
30	0x3e20dd79	0.15709485
31	0x3e580105	0.21094139
32	0xbd8306ae	-0.063977584
33	0xbbea2a21	-0.0071461354
34	0xbd4f14f2	-0.050557084
35	0x3e6444a7	0.22291814
36	0x3e6178bb	0.22018711
37	0xbf1ca9cb	-0.61196584
38	0xbe8f4168	-0.27979589
39	0xbf358f93	-0.709222
40	0xbe9914d0	-0.2989869
41	0x3ec6c4dc	0.38822067
42	0x3d5ab840	0.05339837
43	0xbf280d06	-0.6564487
44	0x3ed9eee1	0.42565063
45	0xbd1f2571	-0.038854066
46	0xbf149c69	-0.5805116
47	0x3e561b27	0.20908795
48	0xbe0eb6ac	-0.13936871
49	0x3e98a665	0.2981445
50	0x3ee5339c	0.44765937
51	0xbe75fddc	-0.24022621
52	0x3ea516b0	0.32243872
53	0x3e376365	0.1790901
54	0xbc2f1dbe	-0.010688243
55	0xbe1d61f9	-0.15369405
56	0x3f6698fe	0.900772
57	0x3ea8800b	0.3291019
58	0x3d290f53	0.04127438
59	0xbe483900	-0.19552994
60	0xbedfc2e5	-0.4370338
61	0xbd99617a	-0.07489295
62	0xbe8f1a3d	-0.27949706
63	0x3e4a400b	0.19750993
64	0xbe4ab4f2	-0.19795588
65	0x3d8ea54c	0.069651216
66	0xbea2bb42	-0.3178349
67	0x3f40c6ec	0.7530353
68	0x3da1b9f8	0.07896799
69	0xbed82924	-0.42218888
70	0x3e86b62f	0.2631087
71	0xbe45c15b	-0.1931204
72	0xbed78f47	-0.421015
73	0x3e0c4c06	0.13700876
74	0xbee90150	-0.45508814
75	0xbe5c13cd	-0.21491928
76	0xbd8341c5	-0.06409029
77	0x3f2cddcf	0.67525953
78	0xbc809d20	-0.015699923
79	0x3e5120aa	0.20422617
80	0x3c2597a0	0.010106951
81	0xbe94e7d1	-0.29083112
82	0xbe7927bd	-0.24331565
83	0xbb71b223	-0.003687986
84	0xbf052a3a	-0.5201756
85	0x3e6017a9	0.21884026
86	0xbe7c08bf	-0.24612711
87	0xbd27aa14	-0.040933684
88	0x3d93c643	0.0721555
89	0xbf013530	-0.5047178
90	0x3fa2f825	1.2731978
91	0xbf1373ab	-0.5759837
92	0xbe6f58b2	-0.23373678
93	0x3e3e8016	0.18603548
94	0xbdc62cd2	-0.096765175
95	0x3dcbb988	0.09947497
96	0x3e74af2d	0.2389495
97	0x3eea9eb9	0.4582422
98	0xbe9c6334	-0.30544436
99	0x3cc9d185	0.02463604
100	0x3d953215	0.07284943
101	0xbe0b4001	-0.13598634
102	0xbe37091f	-0.17874573
103	0x3fa52e95	1.2904841
104	0x3e1af763	0.15133433
105	0x3eb80e17	0.3594825
106	0xbe7f9cd7	-0.24962173
107	0xbdfcc164	-0.12341574
108	0xbc97efaf	-0.018546907
109	0xbe5b5e6b	-0.21422736
110	0x3ddb4fa3	0.10708549
111	0xbeeb19a0	-0.45917988
112	0xbd304afe	-0.043040268
113	0x3d301c87	0.042995956
114	0xbf2d6ebd	-0.677471
115	0x3e87ae70	0.26500273
116	0x3ee569d5	0.44807306
117	0x3f228d63	0.6349699
118	0xbe9a7cb1	-0.30173257
119	0x3e07f894	0.13278419
120	0xbdbf4877	-0.093399934
121	0x3d481908	0.048851997
122	0xbbee8ced	-0.0072799833
123	0x3f0844a8	0.5322976
124	0xbedef0f7	-0.43543217
125	0x3e623b19	0.22092856
126	0xbec7a6e4	-0.38994515
127	0xbd78c06c	-0.060730383
128	0xbdc043be	-0.09387921
129	0xbf21ce52	-0.63205445
130	0x3ef0e44f	0.47049186
131	0xbee09f67	-0.43871614
132	0x3c89b07a	0.016807783
133	0x3ee5d522	0.4488917
134	0x3c817a98	0.015805528
135	0xbe56ad53	-0.20964555
136	0xbd05b672	-0.032644697
137	0x3e5d1a80	0.2159214
138	0x3ea490d1	0.32141736
139	0xbec28248	-0.37990022
140	0xbd122fcb	-0.03569011
141	0x3e04a089	0.12951864
142	0x38423bb9	4.6308825e-05
143	0x3e443cc0	0.191638
144	0x3eda17a2	0.42596155
145	0x3e5bca64	0.21463925
146	0xbdc4eee4	-0.09615877
147	0x3d32197a	0.043481328
148	0x3e182492	0.148577
149	0x3e17545a	0.14778271
150	0x3e4cee11	0.2001269
151	0xbf1498df	-0.5804576
152	0xbd07d90b	-0.033165973
153	0x3ec210ba	0.37903386
154	0xbf0cecb8	-0.55048704
155	0x3f151737	0.5823855
156	0x3eb70544	0.35746205
157	0xbc4435ea	-0.011975745
158	0xbdb2969d	-0.087201335
159	0x3e3b5fa9	0.1829821
160	0xbe7319e1	-0.23740341
161	0xbdc7e1de	-0.097598776
162	0xbd027326	-0.031848095
163	0x3dfa1d2e	0.12212597
164	0x3d6c0504	0.05762197
165	0x3d3ce76d	0.046119142
166	0xbecb1bb6	-0.3966958
167	0x3c1e4d7d	0.009662029
168	0x3e82d6b5	0.25554433
169	0xbea1823a	-0.31544667
170	0x3f3ec274	0.7451546
171	0x3dd04a2b	0.101703964
172	0xbd9491f8	-0.07254404
173	0x3f263bcc	0.6493499
174	0xbea4f993	-0.3222166
175	0x3eec10d4	0.4610659
176	0x3f0a9aa0	0.5414219
177	0x3e97ff25	0.29686847
178	0xbea3a7f4	-0.31964076
179	0x3e4b4e5b	0.19854109
180	0x3f7093a7	0.939753
181	0xbd91eb73	-0.071249865
182	0x3d0e383d	0.0347216
183	0xbd9ab9c5	-0.07554964
184	0x3e9a7cd0	0.3017335
185	0x3e87efa6	0.26550025
186	0x3ef90420	0.4863596
187	0xbf119c2b	-0.5687892
188	0xbf3f5a7b	-0.7474744
189	0xbc212a3b	-0.009836729
190	0x3ef6a4be	0.48172563
191	0xbde0c321	-0.10974718
192	0x3eeaf856	0.4589259
193	0x3e01f2d4	0.12690288
194	0xbee7f882	-0.45306784
195	0xbee4cbda	-0.44686776
196	0xbd87961d	-0.06620429
197	0xbe400f44	-0.18755823
198	0xbdd2363b	-0.1026425
199	0x3e885c5c	0.26632965
200	0xbe590765	-0.21194227
201	0xbeabbecb	-0.33544
202	0xbf0080c9	-0.5019651
203	0xbf1c1457	-0.60968536
204	0xbe389859	-0.18026866
205	0xbeab845f	-0.3349943
206	0xbd53b20f	-0.05168348
207	0x3eb4474c	0.35210645
208	0x3e3135c7	0.1730567
209	0xbe0ae340	-0.13563251
210	0xbf5348b3	-0.82532805
211	0xbde7cc48	-0.113182604
212	0x3e504049	0.20337023
213	0xbe9b5007	-0.30334494
214	0x3e368996	0.17825922
215	0xbed5d683	-0.41765222
216	0xbe0f8d5a	-0.14018765
217	0xb9a592ed	-0.0003158072
218	0xbdafa584	-0.085764915
219	0x3cc0fcf1	0.023558112
220	0x3e56dc53	0.20982485
221	0xbd9fedf9	-0.078090616
222	0xbe996c5a	-0.29965478
223	0xbec57a84	-0.38570035
224	0xbe05b22b	-0.13056247
225	0x3ddc3c0b	0.1075364
226	0xbf07d02c	-0.5305202
227	0x3ed1c67e	0.4097175
228	0xbe174e1e	-0.14775893
229	0x3e8722e3	0.26393804
230	0xbe50d05c	-0.20391983
231	0x3f385652	0.72006714
232	0x3c85c823	0.016330784
233	0xbe1e8fdf	-0.1548457
234	0x3d30e9bb	0.043191653
235	0x3d402835	0.046913344
236	0xbe61c51a	-0.22047845
237	0x3d9df4ed	0.077127315
238	0xbd8ffc8f	-0.070305936
239	0xbecadfc0	-0.39623833
240	0xbd3dded9	-0.046355102
241	0xbe1280b1	-0.14306904
242	0xbdb4b7cf	-0.08824121
243	0xbe4b6bf9	-0.19865407
244	0xbddcbd68	-0.10778314
245	0xbe87201c	-0.26391685
246	0x3e3f2314	0.18665725
247	0xbd857dbd	-0.06518123
248	0xbe24fb29	-0.16111435
249	0xbdd95211	-0.10611356
250	0xbf55b640	-0.83481216
251	0x3da797ca	0.08183248
252	0x3e7202fd	0.23633952
253	0xbd2d0392	-0.042239733
254	0xbbcb19dd	-0.0061981515
255	0xbf06fa11	-0.5272532

gru1.weight_hh_l0 f4 [30, 10]
0	0x3e836b24	0.2566768
1	0xbe83ca18	-0.25740123
2	0x3f06414b	0.5244338
3	0xbe7845c6	-0.24245366
4	0xbd15d987	-0.036584403
5	0xbd66c739	-0.056342337
6	0x3e16c452	0.14723328
7	0xbe1330a9	-0.14374031
8	0xbd298053	-0.041382145
9	0x3e37c24f	0.17945217
10	0x3e7341a2	0.23755506
11	0xbf74ff69	-0.95702225
12	0x3ed39af2	0.4132915
13	0xbf10b22a	-0.56521857
14	0x3da8d4ef	0.08243739
15	0x3deae1a9	0.114688225
16	0xbef9b854	-0.48773444
17	0x3d51b019	0.05119333
18	0xbd95e1ed	-0.073184825
19	0x3db3fd07	0.087884955
20	0xbe53463d	-0.20632263
21	0xbe7e69aa	-0.24844995
22	0x3e34e548	0.17665589
23	0xbec28cf6	-0.3799817
24	0xbee06fb5	-0.43835226
25	0x3f806725	1.0031477
26	0xbc046db0	-0.008082792
27	0x3e859860	0.26092815
28	0xbf1ce64d	-0.6128891
29	0x3f0252b8	0.5090747
30	0xbeea0189	-0.45704296
31	0xbe7732ba	-0.24140444
32	0x3e8ba31d	0.27272883
33	0x3f1567e3	0.58361644
34	0x3eb4ef5b	0.35338864
35	0x3e43402d	0.1906745
36	0xbf15725e	-0.58377635
37	0x3b239f90	0.0024966933
38	0x3d875e07	0.06609731
39	0xbd8d9207	-0.06912618
40	0x3e972376	0.29519242
41	0x3e8a8865	0.27057186
42	0x3d441b02	0.04787732
43	0x3e1f9272	0.15583208
44	0x3f181dca	0.59420455
45	0x3c495f55	0.012290795
46	0xbe4ddd31	-0.20103909
47	0xbe5b282d	-0.21402045
48	0xbe94bcb6	-0.29050225
49	0x3e4b0683	0.19826703
50	0x3cdc5002	0.02689362
51	0xbe82119e	-0.25404066
52	0x3ee3597d	0.44404212
53	0x3bc76800	0.006085396
54	0x3e5f76d0	0.21822667
55	0xbcee1676	-0.029063445
56	0xbe6ee3f3	-0.23329143
57	0x3eb51867	0.3537018
58	0xbda3d43b	-0.07999464
59	0x3efba167	0.49146578
60	0x3e40f5c2	0.18843749
61	0xbe2ccea5	-0.16875704
62	0x3eaf597b	0.34247956
63	0x3e503117	0.20331226
64	0x3e90b989	0.28266552
65	0x3b54b980	0.00324592
66	0xbe44e160	-0.19226599
67	0x3ecc4f59	0.39904287
68	0xbe632303	-0.22181325
69	0x3e68bc85	0.22728164
70	0xbdcb1b97	-0.09917372
71	0xbe9a7137	-0.301645
72	0x3ee1a631	0.44072106
73	0xbe6de42b	-0.2323157
74	0x3ea24b61	0.31698135
75	0x3ec9a7c7	0.39385816
76	0x3ee0d4e5	0.43912426
77	0x3f09bc9e	0.5380343
78	0x3e8405ef	0.25785777
79	0xbd118509	-0.035527263
80	0xbefa38b7	-0.48871395
81	0xbe4568b1	-0.19278218
82	0xbd0b7524	-0.03404726
83	0xbe998932	-0.29987484
84	0x3ec75b95	0.3893706
85	0x3dc9a5fa	0.09846111
86	0x3dd9d89c	0.10637018
87	0x3f1b5980	0.6068344
88	0x3e0dd37a	0.13850203
89	0xbe0df184	-0.13861662
90	0xbd992870	-0.07478416
91	0x3d243ee4	0.04009904
92	0xbee34a94	-0.44392836
93	0xbdd170dd	-0.10226605
94	0xbe05603d	-0.13024993
95	0xbda10feb	-0.07864364
96	0x3d0dee0a	0.03465084
97	0x3d8e1bab	0.06938871
98	0xbe53402f	-0.20629953
99	0x3f1df22d	0.61697656
100	0x3e3307fa	0.17483512
101	0xbdf9322a	-0.12167771
102	0x3e91cb2f	0.2847533
103	0xbe85dd1b	-0.26145253
104	0xbe5f0c14	-0.21781951
105	0xbc45ddca	-0.012076804
106	0xbf1c84ad	-0.6113995
107	0xbf106578	-0.5640483
108	0xbea94591	-0.33060887
109	0xbd9dc4db	-0.07703563
110	0xbe2651ac	-0.16242093
111	0x3ea238e6	0.31684035
112	0xbefc7df5	-0.49314848
113	0x3e648c7a	0.22319213
114	0xbea3cdf5	-0.3199307
115	0xbdcf2f13	-0.101164006
116	0x3d712cd2	0.058880635
117	0x3da9e705	0.082960166
118	0x3d93d36d	0.07218061
119	0xbea47a6f	-0.3212466
120	0x3e475f61	0.19469978
121	0x3e9a70d1	0.30164197
122	0xbf795e3c	-0.97409415
123	0x3d8b0df3	0.0678977
124	0xbe9e0b03	-0.30867776
125	0xbcb8fbce	-0.022581007
126	0x3e8d3c2b	0.27584967
127	0xbe39e498	-0.18153608
128	0xbeadf5eb	-0.33976683
129	0xbd243cde	-0.04009711
130	0x3e895d00	0.26828766
131	0x395b9e58	0.00020944455
132	0xbe51b398	-0.20478666
133	0x3dccac58	0.099938095
134	0xbe85cfc7	-0.26135084
135	0x3d8d12f1	0.068883784
136	0xbeaa06ff	-0.33208463
137	0xbebb91f7	-0.366348
138	0xbddb4dd5	-0.10708205
139	0x3e52fc7f	0.20604132
140	0x3e11d639	0.14241876
141	0x3d3b3731	0.04570693
142	0x3ed19adb	0.40938458
143	0x3ceb7bff	0.02874565
144	0xbcbf4ac1	-0.023351075
145	0xbee6cb11	-0.45076802
146	0xbe9e05ed	-0.30863896
147	0x3e9464c8	0.2898314
148	0xbe51c48c	-0.20485133
149	0xbe2b998a	-0.16757789
150	0xbf01eadd	-0.50749
151	0xbe42030f	-0.1894648
152	0xbee9cbaf	-0.4566321
153	0x3daf1fa7	0.08550959
154	0x3de1ef88	0.11032015
155	0x3e6537ab	0.22384517
156	0x3e12a631	0.1432121
157	0x3e1eb1b9	0.15497483
158	0xbeee2e5b	-0.4651974
159	0xbe2402fb	-0.16016762
160	0x3d1c8ca9	0.03822008
161	0x3ec57779	0.38567713
162	0xbdde6627	-0.10859328
163	0xbdad948c	-0.08475599
164	0x3db15b81	0.08660031
165	0xbe755c19	-0.23960914
166	0x3eb38024	0.350587
167	0x3dde9022	0.10867335
168	0x3dd2ae79	0.10287184
169	0x3eb67fd8	0.35644412
170	0xbf1d5b41	-0.6146737
171	0x3e35ae69	0.17742313
172	0xbf82b413	-1.0211204
173	0xbf005fe6	-0.5014633
174	0xbedb9cbc	-0.42893016
175	0xbfaf75eb	-1.3707861
176	0x3e34e8c9	0.17666925
177	0xbf4e6e41	-0.80636984
178	0xbf479c3d	-0.77972776
179	0x3fabddf6	1.3427112
180	0xbe80fa33	-0.25190887
181	0xbcd5c63f	-0.026095508
182	0xbe17f532	-0.14839628
183	0x3eca8340	0.3955326
184	0xbee1fe6f	-0.4413943
185	0xbe5112fc	-0.20417398
186	0x3e10fabe	0.1415815
187	0xbe6caad9	-0.23112048
188	0xbdcd74d1	-0.100320466
189	0xbd46b880	-0.048515797
190	0x3dd629ff	0.10457229
191	0xbe9950dd	-0.29944506
192	0xbd277124	-0.040879384
193	0xbe731f89	-0.23742498
194	0xbe98e155	-0.29859415
195	0xbc281793	-0.010259527
196	0xbe4a6853	-0.19766359
197	0x3e56c58d	0.20973797
198	0x3c15ff12	0.009155052
199	0x3e945966	0.28974456
200	0x3ee15dee	0.44016975
201	0x3dbbe5be	0.09174679
202	0xbdc5c03f	-0.09655809
203	0x3e99b53f	0.30021092
204	0x3e6c92a5	0.23102815
205	0xbea76c99	-0.3270004
206	0x3e23051f	0.15919922
207	0x3e63636a	0.22205892
208	0x3f4c83a6	0.7988838
209	0x3ed60b62	0.4180556
210	0xbe3f01e3	-0.18653063
211	0x3f663e2f	0.89938635
212	0xbddead50	-0.108729005
213	0x3e1402a5	0.14454134
214	0xbe7cbf23	-0.24682288
215	0xbe4a4147	-0.19751464
216	0xbd559445	-0.052143354
217	0xbe3fcd0b	-0.18730561
218	0xbf02e934	-0.5113709
219	0x3e55202f	0.20813058
220	0xbe58b935	-0.21164401
221	0xbf01a453	-0.50641364
222	0x3f3af9a2	0.7303716
223	0xbe808ef1	-0.25109056
224	0x3e3ea433	0.18617325
225	0xbda7059c	-0.08155367
226	0xbf1a9094	-0.6037686
227	0xbecb58c0	-0.39716148
228	0xbe84b4ef	-0.2591929
229	0x3e5684ee	0.20949146
230	0xbe240f0e	-0.16021368
231	0x3edd2700	0.43193817
232	0xbe9a2444	-0.30105793
233	0x3f16725f	0.58768266
234	0x3eb7c1c6	0.35890025
235	0xbee69ddc	-0.45042312
236	0x3f288a68	0.6583619
237	0x3f383ffb	0.71972626
238	0x3eb43eb1	0.3520408
239	0x3eb8c814	0.36090147
240	0xbe954e93	-0.2916151
241	0x3eb031ae	0.34412903
242	0x3ec49072	0.38391453
243	0xbeb37888	-0.35052896
244	0x3f8c1f35	1.0947024
245	0xbd7df2a3	-0.061998975
246	0xbe2f470f	-0.1711695
247	0xbe5684cb	-0.20949094
248	0xbdf2e674	-0.11860362
249	0x3c985553	0.018595373
250	0xbef81050	-0.48449945
251	0xbde20633	-0.11036339
252	0xbe19f0c7	-0.15033256
253	0xbe18f270	-0.14936233
254	0x3ecf8185	0.40528503
255	0x3f4aa2d4	0.79154706

gru1.bias_ih_l0 f4 [30]
0	0x3d9300ee	0.07177912
1	0xbe055350	-0.13020062
2	0x3e3a7270	0.18207717
3	0xbe836025	-0.2565929
4	0x3efb0d9b	0.49033818
5	0x3ec319e0	0.3810568
6	0x3e23014f	0.15918468
7	0x3effc167	0.49952242
8	0x3e179465	0.14802702
9	0xbe6e0992	-0.23245838
10	0xbbb75322	-0.005594627
11	0xbe2a3795	-0.16622765
12	0xbedcb2b5	-0.43105093
13	0xbf83e05c	-1.0302844
14	0xbda16ddb	-0.078822814
15	0xbefcc13e	-0.49366182
16	0xbf1b6910	-0.6070719
17	0x3f7505c9	0.9571195
18	0xbf4143ed	-0.7549427
19	0xbec9c064	-0.39404595
20	0xbe1ce730	-0.15322566
21	0xbe7a122e	-0.24420998
22	0x3e213d18	0.15745962
23	0x3e35a146	0.17737302
24	0x3e827fdd	0.25488177
25	0x3e7ba402	0.24574283
26	0x3e72eae5	0.23722418
27	0x3cee39f3	0.029080367
28	0xbe60482b	-0.2190253
29	0x3e22c899	0.15896834

gru1.bias_hh_l0 f4 [30]
0	0x3e710ee9	0.23540844
1	0xbda394c3	-0.079873584
2	0x3d2ea893	0.042641234
3	0xbddb0960	-0.106951475
4	0x3ee7b5cf	0.45255896
5	0x3db98302	0.09058191
6	0x3ece9a67	0.40352175
7	0x3e5126db	0.20424978
8	0x3d976251	0.07391799
9	0xbe66f1ce	-0.22553179
10	0xbe83142b	-0.25601324
11	0xbe21503c	-0.15753263
12	0xbe886d98	-0.26646113
13	0xbf4d912c	-0.8029964
14	0xbef6edf7	-0.48228428
15	0xbe1203d0	-0.14259267
16	0xbe1d927e	-0.15387914
17	0x3f1d0d8e	0.6134881
18	0xbf616628	-0.88046503
19	0xbeaa6479	-0.3327978
20	0xbe972db5	-0.2952706
21	0xbdcad3d9	-0.09903688
22	0xbe8c1e7b	-0.27367005
23	0xbe75f28c	-0.24018306
24	0x3d2a55c2	0.04158569
25	0x3e32abfd	0.17448421
26	0xbe211459	-0.15730418
27	0x3e3c3927	0.18381177
28	0xbdce6b01	-0.10079003
29	0x3efcf749	0.49407414
